{"payload": {"model": {"config": {"name": "model", "layers": [{"class_name": "InputLayer", "config": {"batch_input_shape": [null, 1], "dtype": "float64", "sparse": false, "ragged": false, "name": "input_1"}, "name": "input_1", "inbound_nodes": []}, {"class_name": "Dense", "config": {"name": "dense", "trainable": true, "dtype": "float64", "units": 10, "activation": "tanh", "use_bias": true, "kernel_initializer": {"class_name": "GlorotUniform", "config": {"seed": null}}, "bias_initializer": {"class_name": "Zeros", "config": {}}, "kernel_regularizer": null, "bias_regularizer": null, "activity_regularizer": null, "kernel_constraint": null, "bias_constraint": null}, "name": "dense", "inbound_nodes": [[["input_1", 0, 0, {}]]]}, {"class_name": "Dense", "config": {"name": "dense_1", "trainable": true, "dtype": "float64", "units": 10, "activation": "tanh", "use_bias": true, "kernel_initializer": {"class_name": "GlorotUniform", "config": {"seed": null}}, "bias_initializer": {"class_name": "Zeros", "config": {}}, "kernel_regularizer": null, "bias_regularizer": null, "activity_regularizer": null, "kernel_constraint": null, "bias_constraint": null}, "name": "dense_1", "inbound_nodes": [[["dense", 0, 0, {}]]]}, {"class_name": "Dense", "config": {"name": "dense_2", "trainable": true, "dtype": "float64", "units": 10, "activation": "tanh", "use_bias": true, "kernel_initializer": {"class_name": "GlorotUniform", "config": {"seed": null}}, "bias_initializer": {"class_name": "Zeros", "config": {}}, "kernel_regularizer": null, "bias_regularizer": null, "activity_regularizer": null, "kernel_constraint": null, "bias_constraint": null}, "name": "dense_2", "inbound_nodes": [[["dense_1", 0, 0, {}]]]}, {"class_name": "Dense", "config": {"name": "dense_3", "trainable": true, "dtype": "float64", "units": 10, "activation": "tanh", "use_bias": true, "kernel_initializer": {"class_name": "GlorotUniform", "config": {"seed": null}}, "bias_initializer": {"class_name": "Zeros", "config": {}}, "kernel_regularizer": null, "bias_regularizer": null, "activity_regularizer": null, "kernel_constraint": null, "bias_constraint": null}, "name": "dense_3", "inbound_nodes": [[["dense_2", 0, 0, {}]]]}, {"class_name": "Dense", "config": {"name": "dense_4", "trainable": true, "dtype": "float64", "units": 10, "activation": "tanh", "use_bias": true, "kernel_initializer": {"class_name": "GlorotUniform", "config": {"seed": null}}, "bias_initializer": {"class_name": "Zeros", "config": {}}, "kernel_regularizer": null, "bias_regularizer": null, "activity_regularizer": null, "kernel_constraint": null, "bias_constraint": null}, "name": "dense_4", "inbound_nodes": [[["dense_3", 0, 0, {}]]]}, {"class_name": "Dense", "config": {"name": "dense_5", "trainable": true, "dtype": "float64", "units": 10, "activation": "tanh", "use_bias": true, "kernel_initializer": {"class_name": "GlorotUniform", "config": {"seed": null}}, "bias_initializer": {"class_name": "Zeros", "config": {}}, "kernel_regularizer": null, "bias_regularizer": null, "activity_regularizer": null, "kernel_constraint": null, "bias_constraint": null}, "name": "dense_5", "inbound_nodes": [[["dense_4", 0, 0, {}]]]}, {"class_name": "Dense", "config": {"name": "dense_6", "trainable": true, "dtype": "float64", "units": 10, "activation": "tanh", "use_bias": true, "kernel_initializer": {"class_name": "GlorotUniform", "config": {"seed": null}}, "bias_initializer": {"class_name": "Zeros", "config": {}}, "kernel_regularizer": null, "bias_regularizer": null, "activity_regularizer": null, "kernel_constraint": null, "bias_constraint": null}, "name": "dense_6", "inbound_nodes": [[["dense_5", 0, 0, {}]]]}, {"class_name": "Dense", "config": {"name": "dense_7", "trainable": true, "dtype": "float64", "units": 1, "activation": "linear", "use_bias": true, "kernel_initializer": {"class_name": "GlorotUniform", "config": {"seed": null}}, "bias_initializer": {"class_name": "Zeros", "config": {}}, "kernel_regularizer": null, "bias_regularizer": null, "activity_regularizer": null, "kernel_constraint": null, "bias_constraint": null}, "name": "dense_7", "inbound_nodes": [[["dense_6", 0, 0, {}]]]}], "input_layers": [["input_1", 0, 0]], "output_layers": [["dense_7", 0, 0]]}, "summary": ["Model: \"model\"", "_________________________________________________________________", "Layer (type)                 Output Shape              Param #   ", "=================================================================", "input_1 (InputLayer)         [(None, 1)]               0         ", "_________________________________________________________________", "dense (Dense)                (None, 10)                20        ", "_________________________________________________________________", "dense_1 (Dense)              (None, 10)                110       ", "_________________________________________________________________", "dense_2 (Dense)              (None, 10)                110       ", "_________________________________________________________________", "dense_3 (Dense)              (None, 10)                110       ", "_________________________________________________________________", "dense_4 (Dense)              (None, 10)                110       ", "_________________________________________________________________", "dense_5 (Dense)              (None, 10)                110       ", "_________________________________________________________________", "dense_6 (Dense)              (None, 10)                110       ", "_________________________________________________________________", "dense_7 (Dense)              (None, 1)                 11        ", "=================================================================", "Total params: 691", "Trainable params: 691", "Non-trainable params: 0", "_________________________________________________________________"]}, "kwargs": {"border_xs": [[0.0]], "border_ys": [[1.0]], "inside_xs_builder": "<function linspace_inside_xs_builder_builder.<locals>._inside_xs_builder at 0x7f9a40a1fd40>", "border_builder": "<function border_with_function_values_builder at 0x7f9a40a06950>", "equation_builder": "<function first_order_equation_builder_builder_plus.<locals>.equation_builder at 0x7f9a40a273b0>", "input_dim": 1, "output_dim": 1, "sol": "<function <lambda> at 0x7f9a40a27320>", "random_seed": 1, "N_f": 1000, "epochs": 2000, "clip_grad": 1, "learning_rate": 0.01, "model_builder": "NN[[10, 10, 10, 10, 10, 10, 10]]", "optimizers": [1, 1], "border_loss_multiplier": 1, "ode": "L-ODE1"}, "losses": [… "errors": [6.944256921826209e-09]}, "date": "00:53:19 09 May 2021"}
{"payload": {"model": {"config": {"name": "model_1", "layers": [{"class_name": "InputLayer", "config": {"batch_input_shape": [null, 1], "dtype": "float64", "sparse": false, "ragged": false, "name": "input_2"}, "name": "input_2", "inbound_nodes": []}, {"class_name": "Dense", "config": {"name": "dense_8", "trainable": true, "dtype": "float64", "units": 10, "activation": "tanh", "use_bias": true, "kernel_initializer": {"class_name": "GlorotUniform", "config": {"seed": null}}, "bias_initializer": {"class_name": "Zeros", "config": {}}, "kernel_regularizer": null, "bias_regularizer": null, "activity_regularizer": null, "kernel_constraint": null, "bias_constraint": null}, "name": "dense_8", "inbound_nodes": [[["input_2", 0, 0, {}]]]}, {"class_name": "Dense", "config": {"name": "dense_9", "trainable": true, "dtype": "float64", "units": 10, "activation": "tanh", "use_bias": true, "kernel_initializer": {"class_name": "GlorotUniform", "config": {"seed": null}}, "bias_initializer": {"class_name": "Zeros", "config": {}}, "kernel_regularizer": null, "bias_regularizer": null, "activity_regularizer": null, "kernel_constraint": null, "bias_constraint": null}, "name": "dense_9", "inbound_nodes": [[["dense_8", 0, 0, {}]]]}, {"class_name": "Dense", "config": {"name": "dense_10", "trainable": true, "dtype": "float64", "units": 10, "activation": "tanh", "use_bias": true, "kernel_initializer": {"class_name": "GlorotUniform", "config": {"seed": null}}, "bias_initializer": {"class_name": "Zeros", "config": {}}, "kernel_regularizer": null, "bias_regularizer": null, "activity_regularizer": null, "kernel_constraint": null, "bias_constraint": null}, "name": "dense_10", "inbound_nodes": [[["dense_9", 0, 0, {}]]]}, {"class_name": "Dense", "config": {"name": "dense_11", "trainable": true, "dtype": "float64", "units": 10, "activation": "tanh", "use_bias": true, "kernel_initializer": {"class_name": "GlorotUniform", "config": {"seed": null}}, "bias_initializer": {"class_name": "Zeros", "config": {}}, "kernel_regularizer": null, "bias_regularizer": null, "activity_regularizer": null, "kernel_constraint": null, "bias_constraint": null}, "name": "dense_11", "inbound_nodes": [[["dense_10", 0, 0, {}]]]}, {"class_name": "Dense", "config": {"name": "dense_12", "trainable": true, "dtype": "float64", "units": 10, "activation": "tanh", "use_bias": true, "kernel_initializer": {"class_name": "GlorotUniform", "config": {"seed": null}}, "bias_initializer": {"class_name": "Zeros", "config": {}}, "kernel_regularizer": null, "bias_regularizer": null, "activity_regularizer": null, "kernel_constraint": null, "bias_constraint": null}, "name": "dense_12", "inbound_nodes": [[["dense_11", 0, 0, {}]]]}, {"class_name": "Dense", "config": {"name": "dense_13", "trainable": true, "dtype": "float64", "units": 10, "activation": "tanh", "use_bias": true, "kernel_initializer": {"class_name": "GlorotUniform", "config": {"seed": null}}, "bias_initializer": {"class_name": "Zeros", "config": {}}, "kernel_regularizer": null, "bias_regularizer": null, "activity_regularizer": null, "kernel_constraint": null, "bias_constraint": null}, "name": "dense_13", "inbound_nodes": [[["dense_12", 0, 0, {}]]]}, {"class_name": "Dense", "config": {"name": "dense_14", "trainable": true, "dtype": "float64", "units": 10, "activation": "tanh", "use_bias": true, "kernel_initializer": {"class_name": "GlorotUniform", "config": {"seed": null}}, "bias_initializer": {"class_name": "Zeros", "config": {}}, "kernel_regularizer": null, "bias_regularizer": null, "activity_regularizer": null, "kernel_constraint": null, "bias_constraint": null}, "name": "dense_14", "inbound_nodes": [[["dense_13", 0, 0, {}]]]}, {"class_name": "Dense", "config": {"name": "dense_15", "trainable": true, "dtype": "float64", "units": 1, "activation": "linear", "use_bias": true, "kernel_initializer": {"class_name": "GlorotUniform", "config": {"seed": null}}, "bias_initializer": {"class_name": "Zeros", "config": {}}, "kernel_regularizer": null, "bias_regularizer": null, "activity_regularizer": null, "kernel_constraint": null, "bias_constraint": null}, "name": "dense_15", "inbound_nodes": [[["dense_14", 0, 0, {}]]]}], "input_layers": [["input_2", 0, 0]], "output_layers": [["dense_15", 0, 0]]}, "summary": ["Model: \"model_1\"", "_________________________________________________________________", "Layer (type)                 Output Shape              Param #   ", "=================================================================", "input_2 (InputLayer)         [(None, 1)]               0         ", "_________________________________________________________________", "dense_8 (Dense)              (None, 10)                20        ", "_________________________________________________________________", "dense_9 (Dense)              (None, 10)                110       ", "_________________________________________________________________", "dense_10 (Dense)             (None, 10)                110       ", "_________________________________________________________________", "dense_11 (Dense)             (None, 10)                110       ", "_________________________________________________________________", "dense_12 (Dense)             (None, 10)                110       ", "_________________________________________________________________", "dense_13 (Dense)             (None, 10)                110       ", "_________________________________________________________________", "dense_14 (Dense)             (None, 10)                110       ", "_________________________________________________________________", "dense_15 (Dense)             (None, 1)                 11        ", "=================================================================", "Total params: 691", "Trainable params: 691", "Non-trainable params: 0", "_________________________________________________________________"]}, "kwargs": {"border_xs": [[0.0]], "border_ys": [[1.0]], "inside_xs_builder": "<function linspace_inside_xs_builder_builder.<locals>._inside_xs_builder at 0x7f9a40a27290>", "border_builder": "<function border_with_function_values_builder at 0x7f9a40a06950>", "equation_builder": "<function first_order_equation_builder_builder_plus.<locals>.equation_builder at 0x7f9a40a275f0>", "input_dim": 1, "output_dim": 1, "sol": "<function <lambda> at 0x7f9a40a27680>", "random_seed": 1, "N_f": 1000, "epochs": 2000, "clip_grad": 1, "learning_rate": 0.01, "model_builder": "NN[[10, 10, 10, 10, 10, 10, 10]]", "optimizers": [1, 1], "border_loss_multiplier": 1, "ode": "L-ODE2"}, "losses": [… "errors": [0.7572493060740698]}, "date": "00:54:08 09 May 2021"}
{"payload": {"model": {"config": {"name": "model_2", "layers": [{"class_name": "InputLayer", "config": {"batch_input_shape": [null, 1], "dtype": "float64", "sparse": false, "ragged": false, "name": "input_3"}, "name": "input_3", "inbound_nodes": []}, {"class_name": "Dense", "config": {"name": "dense_16", "trainable": true, "dtype": "float64", "units": 10, "activation": "tanh", "use_bias": true, "kernel_initializer": {"class_name": "GlorotUniform", "config": {"seed": null}}, "bias_initializer": {"class_name": "Zeros", "config": {}}, "kernel_regularizer": null, "bias_regularizer": null, "activity_regularizer": null, "kernel_constraint": null, "bias_constraint": null}, "name": "dense_16", "inbound_nodes": [[["input_3", 0, 0, {}]]]}, {"class_name": "Dense", "config": {"name": "dense_17", "trainable": true, "dtype": "float64", "units": 10, "activation": "tanh", "use_bias": true, "kernel_initializer": {"class_name": "GlorotUniform", "config": {"seed": null}}, "bias_initializer": {"class_name": "Zeros", "config": {}}, "kernel_regularizer": null, "bias_regularizer": null, "activity_regularizer": null, "kernel_constraint": null, "bias_constraint": null}, "name": "dense_17", "inbound_nodes": [[["dense_16", 0, 0, {}]]]}, {"class_name": "Dense", "config": {"name": "dense_18", "trainable": true, "dtype": "float64", "units": 10, "activation": "tanh", "use_bias": true, "kernel_initializer": {"class_name": "GlorotUniform", "config": {"seed": null}}, "bias_initializer": {"class_name": "Zeros", "config": {}}, "kernel_regularizer": null, "bias_regularizer": null, "activity_regularizer": null, "kernel_constraint": null, "bias_constraint": null}, "name": "dense_18", "inbound_nodes": [[["dense_17", 0, 0, {}]]]}, {"class_name": "Dense", "config": {"name": "dense_19", "trainable": true, "dtype": "float64", "units": 10, "activation": "tanh", "use_bias": true, "kernel_initializer": {"class_name": "GlorotUniform", "config": {"seed": null}}, "bias_initializer": {"class_name": "Zeros", "config": {}}, "kernel_regularizer": null, "bias_regularizer": null, "activity_regularizer": null, "kernel_constraint": null, "bias_constraint": null}, "name": "dense_19", "inbound_nodes": [[["dense_18", 0, 0, {}]]]}, {"class_name": "Dense", "config": {"name": "dense_20", "trainable": true, "dtype": "float64", "units": 10, "activation": "tanh", "use_bias": true, "kernel_initializer": {"class_name": "GlorotUniform", "config": {"seed": null}}, "bias_initializer": {"class_name": "Zeros", "config": {}}, "kernel_regularizer": null, "bias_regularizer": null, "activity_regularizer": null, "kernel_constraint": null, "bias_constraint": null}, "name": "dense_20", "inbound_nodes": [[["dense_19", 0, 0, {}]]]}, {"class_name": "Dense", "config": {"name": "dense_21", "trainable": true, "dtype": "float64", "units": 10, "activation": "tanh", "use_bias": true, "kernel_initializer": {"class_name": "GlorotUniform", "config": {"seed": null}}, "bias_initializer": {"class_name": "Zeros", "config": {}}, "kernel_regularizer": null, "bias_regularizer": null, "activity_regularizer": null, "kernel_constraint": null, "bias_constraint": null}, "name": "dense_21", "inbound_nodes": [[["dense_20", 0, 0, {}]]]}, {"class_name": "Dense", "config": {"name": "dense_22", "trainable": true, "dtype": "float64", "units": 10, "activation": "tanh", "use_bias": true, "kernel_initializer": {"class_name": "GlorotUniform", "config": {"seed": null}}, "bias_initializer": {"class_name": "Zeros", "config": {}}, "kernel_regularizer": null, "bias_regularizer": null, "activity_regularizer": null, "kernel_constraint": null, "bias_constraint": null}, "name": "dense_22", "inbound_nodes": [[["dense_21", 0, 0, {}]]]}, {"class_name": "Dense", "config": {"name": "dense_23", "trainable": true, "dtype": "float64", "units": 1, "activation": "linear", "use_bias": true, "kernel_initializer": {"class_name": "GlorotUniform", "config": {"seed": null}}, "bias_initializer": {"class_name": "Zeros", "config": {}}, "kernel_regularizer": null, "bias_regularizer": null, "activity_regularizer": null, "kernel_constraint": null, "bias_constraint": null}, "name": "dense_23", "inbound_nodes": [[["dense_22", 0, 0, {}]]]}], "input_layers": [["input_3", 0, 0]], "output_layers": [["dense_23", 0, 0]]}, "summary": ["Model: \"model_2\"", "_________________________________________________________________", "Layer (type)                 Output Shape              Param #   ", "=================================================================", "input_3 (InputLayer)         [(None, 1)]               0         ", "_________________________________________________________________", "dense_16 (Dense)             (None, 10)                20        ", "_________________________________________________________________", "dense_17 (Dense)             (None, 10)                110       ", "_________________________________________________________________", "dense_18 (Dense)             (None, 10)                110       ", "_________________________________________________________________", "dense_19 (Dense)             (None, 10)                110       ", "_________________________________________________________________", "dense_20 (Dense)             (None, 10)                110       ", "_________________________________________________________________", "dense_21 (Dense)             (None, 10)                110       ", "_________________________________________________________________", "dense_22 (Dense)             (None, 10)                110       ", "_________________________________________________________________", "dense_23 (Dense)             (None, 1)                 11        ", "=================================================================", "Total params: 691", "Trainable params: 691", "Non-trainable params: 0", "_________________________________________________________________"]}, "kwargs": {"border_xs": [[0.0]], "border_ys": [[1.0]], "inside_xs_builder": "<function linspace_inside_xs_builder_builder.<locals>._inside_xs_builder at 0x7f9a40a27710>", "border_builder": "<function border_with_function_values_builder at 0x7f9a40a06950>", "equation_builder": "<function first_order_equation_builder_builder_plus.<locals>.equation_builder at 0x7f9a40989680>", "input_dim": 1, "output_dim": 1, "sol": "<function <lambda> at 0x7f9a40989710>", "random_seed": 1, "N_f": 1000, "epochs": 2000, "clip_grad": 1, "learning_rate": 0.01, "model_builder": "NN[[10, 10, 10, 10, 10, 10, 10]]", "optimizers": [1, 1], "border_loss_multiplier": 1, "ode": "L-ODE3"}, "losses": [… "errors": [0.5341243990839528]}, "date": "00:54:56 09 May 2021"}
{"payload": {"model": {"config": {"name": "model_3", "layers": [{"class_name": "InputLayer", "config": {"batch_input_shape": [null, 1], "dtype": "float64", "sparse": false, "ragged": false, "name": "input_4"}, "name": "input_4", "inbound_nodes": []}, {"class_name": "Dense", "config": {"name": "dense_24", "trainable": true, "dtype": "float64", "units": 10, "activation": "tanh", "use_bias": true, "kernel_initializer": {"class_name": "GlorotUniform", "config": {"seed": null}}, "bias_initializer": {"class_name": "Zeros", "config": {}}, "kernel_regularizer": null, "bias_regularizer": null, "activity_regularizer": null, "kernel_constraint": null, "bias_constraint": null}, "name": "dense_24", "inbound_nodes": [[["input_4", 0, 0, {}]]]}, {"class_name": "Dense", "config": {"name": "dense_25", "trainable": true, "dtype": "float64", "units": 10, "activation": "tanh", "use_bias": true, "kernel_initializer": {"class_name": "GlorotUniform", "config": {"seed": null}}, "bias_initializer": {"class_name": "Zeros", "config": {}}, "kernel_regularizer": null, "bias_regularizer": null, "activity_regularizer": null, "kernel_constraint": null, "bias_constraint": null}, "name": "dense_25", "inbound_nodes": [[["dense_24", 0, 0, {}]]]}, {"class_name": "Dense", "config": {"name": "dense_26", "trainable": true, "dtype": "float64", "units": 10, "activation": "tanh", "use_bias": true, "kernel_initializer": {"class_name": "GlorotUniform", "config": {"seed": null}}, "bias_initializer": {"class_name": "Zeros", "config": {}}, "kernel_regularizer": null, "bias_regularizer": null, "activity_regularizer": null, "kernel_constraint": null, "bias_constraint": null}, "name": "dense_26", "inbound_nodes": [[["dense_25", 0, 0, {}]]]}, {"class_name": "Dense", "config": {"name": "dense_27", "trainable": true, "dtype": "float64", "units": 10, "activation": "tanh", "use_bias": true, "kernel_initializer": {"class_name": "GlorotUniform", "config": {"seed": null}}, "bias_initializer": {"class_name": "Zeros", "config": {}}, "kernel_regularizer": null, "bias_regularizer": null, "activity_regularizer": null, "kernel_constraint": null, "bias_constraint": null}, "name": "dense_27", "inbound_nodes": [[["dense_26", 0, 0, {}]]]}, {"class_name": "Dense", "config": {"name": "dense_28", "trainable": true, "dtype": "float64", "units": 10, "activation": "tanh", "use_bias": true, "kernel_initializer": {"class_name": "GlorotUniform", "config": {"seed": null}}, "bias_initializer": {"class_name": "Zeros", "config": {}}, "kernel_regularizer": null, "bias_regularizer": null, "activity_regularizer": null, "kernel_constraint": null, "bias_constraint": null}, "name": "dense_28", "inbound_nodes": [[["dense_27", 0, 0, {}]]]}, {"class_name": "Dense", "config": {"name": "dense_29", "trainable": true, "dtype": "float64", "units": 10, "activation": "tanh", "use_bias": true, "kernel_initializer": {"class_name": "GlorotUniform", "config": {"seed": null}}, "bias_initializer": {"class_name": "Zeros", "config": {}}, "kernel_regularizer": null, "bias_regularizer": null, "activity_regularizer": null, "kernel_constraint": null, "bias_constraint": null}, "name": "dense_29", "inbound_nodes": [[["dense_28", 0, 0, {}]]]}, {"class_name": "Dense", "config": {"name": "dense_30", "trainable": true, "dtype": "float64", "units": 10, "activation": "tanh", "use_bias": true, "kernel_initializer": {"class_name": "GlorotUniform", "config": {"seed": null}}, "bias_initializer": {"class_name": "Zeros", "config": {}}, "kernel_regularizer": null, "bias_regularizer": null, "activity_regularizer": null, "kernel_constraint": null, "bias_constraint": null}, "name": "dense_30", "inbound_nodes": [[["dense_29", 0, 0, {}]]]}, {"class_name": "Dense", "config": {"name": "dense_31", "trainable": true, "dtype": "float64", "units": 1, "activation": "linear", "use_bias": true, "kernel_initializer": {"class_name": "GlorotUniform", "config": {"seed": null}}, "bias_initializer": {"class_name": "Zeros", "config": {}}, "kernel_regularizer": null, "bias_regularizer": null, "activity_regularizer": null, "kernel_constraint": null, "bias_constraint": null}, "name": "dense_31", "inbound_nodes": [[["dense_30", 0, 0, {}]]]}], "input_layers": [["input_4", 0, 0]], "output_layers": [["dense_31", 0, 0]]}, "summary": ["Model: \"model_3\"", "_________________________________________________________________", "Layer (type)                 Output Shape              Param #   ", "=================================================================", "input_4 (InputLayer)         [(None, 1)]               0         ", "_________________________________________________________________", "dense_24 (Dense)             (None, 10)                20        ", "_________________________________________________________________", "dense_25 (Dense)             (None, 10)                110       ", "_________________________________________________________________", "dense_26 (Dense)             (None, 10)                110       ", "_________________________________________________________________", "dense_27 (Dense)             (None, 10)                110       ", "_________________________________________________________________", "dense_28 (Dense)             (None, 10)                110       ", "_________________________________________________________________", "dense_29 (Dense)             (None, 10)                110       ", "_________________________________________________________________", "dense_30 (Dense)             (None, 10)                110       ", "_________________________________________________________________", "dense_31 (Dense)             (None, 1)                 11        ", "=================================================================", "Total params: 691", "Trainable params: 691", "Non-trainable params: 0", "_________________________________________________________________"]}, "kwargs": {"border_xs": [[0.0]], "border_ys": [[1.0]], "inside_xs_builder": "<function linspace_inside_xs_builder_builder.<locals>._inside_xs_builder at 0x7f9a409897a0>", "border_builder": "<function border_with_function_values_builder at 0x7f9a40a06950>", "equation_builder": "<function first_order_equation_builder_builder_plus.<locals>.equation_builder at 0x7f9a40989950>", "input_dim": 1, "output_dim": 1, "sol": "<function <lambda> at 0x7f9a409899e0>", "random_seed": 1, "N_f": 1000, "epochs": 2000, "clip_grad": 1, "learning_rate": 0.01, "model_builder": "NN[[10, 10, 10, 10, 10, 10, 10]]", "optimizers": [1, 1], "border_loss_multiplier": 1, "ode": "L-ODE4"}, "losses": [… "errors": [23597344.54592672]}, "date": "00:57:59 09 May 2021"}
{"payload": {"model": {"config": {"name": "model_4", "layers": [{"class_name": "InputLayer", "config": {"batch_input_shape": [null, 1], "dtype": "float64", "sparse": false, "ragged": false, "name": "input_5"}, "name": "input_5", "inbound_nodes": []}, {"class_name": "Dense", "config": {"name": "dense_32", "trainable": true, "dtype": "float64", "units": 10, "activation": "tanh", "use_bias": true, "kernel_initializer": {"class_name": "GlorotUniform", "config": {"seed": null}}, "bias_initializer": {"class_name": "Zeros", "config": {}}, "kernel_regularizer": null, "bias_regularizer": null, "activity_regularizer": null, "kernel_constraint": null, "bias_constraint": null}, "name": "dense_32", "inbound_nodes": [[["input_5", 0, 0, {}]]]}, {"class_name": "Dense", "config": {"name": "dense_33", "trainable": true, "dtype": "float64", "units": 10, "activation": "tanh", "use_bias": true, "kernel_initializer": {"class_name": "GlorotUniform", "config": {"seed": null}}, "bias_initializer": {"class_name": "Zeros", "config": {}}, "kernel_regularizer": null, "bias_regularizer": null, "activity_regularizer": null, "kernel_constraint": null, "bias_constraint": null}, "name": "dense_33", "inbound_nodes": [[["dense_32", 0, 0, {}]]]}, {"class_name": "Dense", "config": {"name": "dense_34", "trainable": true, "dtype": "float64", "units": 10, "activation": "tanh", "use_bias": true, "kernel_initializer": {"class_name": "GlorotUniform", "config": {"seed": null}}, "bias_initializer": {"class_name": "Zeros", "config": {}}, "kernel_regularizer": null, "bias_regularizer": null, "activity_regularizer": null, "kernel_constraint": null, "bias_constraint": null}, "name": "dense_34", "inbound_nodes": [[["dense_33", 0, 0, {}]]]}, {"class_name": "Dense", "config": {"name": "dense_35", "trainable": true, "dtype": "float64", "units": 10, "activation": "tanh", "use_bias": true, "kernel_initializer": {"class_name": "GlorotUniform", "config": {"seed": null}}, "bias_initializer": {"class_name": "Zeros", "config": {}}, "kernel_regularizer": null, "bias_regularizer": null, "activity_regularizer": null, "kernel_constraint": null, "bias_constraint": null}, "name": "dense_35", "inbound_nodes": [[["dense_34", 0, 0, {}]]]}, {"class_name": "Dense", "config": {"name": "dense_36", "trainable": true, "dtype": "float64", "units": 10, "activation": "tanh", "use_bias": true, "kernel_initializer": {"class_name": "GlorotUniform", "config": {"seed": null}}, "bias_initializer": {"class_name": "Zeros", "config": {}}, "kernel_regularizer": null, "bias_regularizer": null, "activity_regularizer": null, "kernel_constraint": null, "bias_constraint": null}, "name": "dense_36", "inbound_nodes": [[["dense_35", 0, 0, {}]]]}, {"class_name": "Dense", "config": {"name": "dense_37", "trainable": true, "dtype": "float64", "units": 10, "activation": "tanh", "use_bias": true, "kernel_initializer": {"class_name": "GlorotUniform", "config": {"seed": null}}, "bias_initializer": {"class_name": "Zeros", "config": {}}, "kernel_regularizer": null, "bias_regularizer": null, "activity_regularizer": null, "kernel_constraint": null, "bias_constraint": null}, "name": "dense_37", "inbound_nodes": [[["dense_36", 0, 0, {}]]]}, {"class_name": "Dense", "config": {"name": "dense_38", "trainable": true, "dtype": "float64", "units": 10, "activation": "tanh", "use_bias": true, "kernel_initializer": {"class_name": "GlorotUniform", "config": {"seed": null}}, "bias_initializer": {"class_name": "Zeros", "config": {}}, "kernel_regularizer": null, "bias_regularizer": null, "activity_regularizer": null, "kernel_constraint": null, "bias_constraint": null}, "name": "dense_38", "inbound_nodes": [[["dense_37", 0, 0, {}]]]}, {"class_name": "Dense", "config": {"name": "dense_39", "trainable": true, "dtype": "float64", "units": 1, "activation": "linear", "use_bias": true, "kernel_initializer": {"class_name": "GlorotUniform", "config": {"seed": null}}, "bias_initializer": {"class_name": "Zeros", "config": {}}, "kernel_regularizer": null, "bias_regularizer": null, "activity_regularizer": null, "kernel_constraint": null, "bias_constraint": null}, "name": "dense_39", "inbound_nodes": [[["dense_38", 0, 0, {}]]]}], "input_layers": [["input_5", 0, 0]], "output_layers": [["dense_39", 0, 0]]}, "summary": ["Model: \"model_4\"", "_________________________________________________________________", "Layer (type)                 Output Shape              Param #   ", "=================================================================", "input_5 (InputLayer)         [(None, 1)]               0         ", "_________________________________________________________________", "dense_32 (Dense)             (None, 10)                20        ", "_________________________________________________________________", "dense_33 (Dense)             (None, 10)                110       ", "_________________________________________________________________", "dense_34 (Dense)             (None, 10)                110       ", "_________________________________________________________________", "dense_35 (Dense)             (None, 10)                110       ", "_________________________________________________________________", "dense_36 (Dense)             (None, 10)                110       ", "_________________________________________________________________", "dense_37 (Dense)             (None, 10)                110       ", "_________________________________________________________________", "dense_38 (Dense)             (None, 10)                110       ", "_________________________________________________________________", "dense_39 (Dense)             (None, 1)                 11        ", "=================================================================", "Total params: 691", "Trainable params: 691", "Non-trainable params: 0", "_________________________________________________________________"]}, "kwargs": {"border_xs": [[0.0]], "border_ys": [[1.0]], "inside_xs_builder": "<function linspace_inside_xs_builder_builder.<locals>._inside_xs_builder at 0x7f9a40989a70>", "border_builder": "<function border_with_function_values_builder at 0x7f9a40a06950>", "equation_builder": "<function first_order_equation_builder_builder_plus.<locals>.equation_builder at 0x7f9a40989c20>", "input_dim": 1, "output_dim": 1, "sol": "<function <lambda> at 0x7f9a40989cb0>", "random_seed": 1, "N_f": 1000, "epochs": 2000, "clip_grad": 1, "learning_rate": 0.01, "model_builder": "NN[[10, 10, 10, 10, 10, 10, 10]]", "optimizers": [1, 1], "border_loss_multiplier": 1, "ode": "L-ODE5"}, "losses": [… "errors": [0.896924617524919]}, "date": "00:59:18 09 May 2021"}
{"payload": {"model": {"config": {"name": "model_5", "layers": [{"class_name": "InputLayer", "config": {"batch_input_shape": [null, 1], "dtype": "float64", "sparse": false, "ragged": false, "name": "input_6"}, "name": "input_6", "inbound_nodes": []}, {"class_name": "Dense", "config": {"name": "dense_40", "trainable": true, "dtype": "float64", "units": 10, "activation": "tanh", "use_bias": true, "kernel_initializer": {"class_name": "GlorotUniform", "config": {"seed": null}}, "bias_initializer": {"class_name": "Zeros", "config": {}}, "kernel_regularizer": null, "bias_regularizer": null, "activity_regularizer": null, "kernel_constraint": null, "bias_constraint": null}, "name": "dense_40", "inbound_nodes": [[["input_6", 0, 0, {}]]]}, {"class_name": "Dense", "config": {"name": "dense_41", "trainable": true, "dtype": "float64", "units": 10, "activation": "tanh", "use_bias": true, "kernel_initializer": {"class_name": "GlorotUniform", "config": {"seed": null}}, "bias_initializer": {"class_name": "Zeros", "config": {}}, "kernel_regularizer": null, "bias_regularizer": null, "activity_regularizer": null, "kernel_constraint": null, "bias_constraint": null}, "name": "dense_41", "inbound_nodes": [[["dense_40", 0, 0, {}]]]}, {"class_name": "Dense", "config": {"name": "dense_42", "trainable": true, "dtype": "float64", "units": 10, "activation": "tanh", "use_bias": true, "kernel_initializer": {"class_name": "GlorotUniform", "config": {"seed": null}}, "bias_initializer": {"class_name": "Zeros", "config": {}}, "kernel_regularizer": null, "bias_regularizer": null, "activity_regularizer": null, "kernel_constraint": null, "bias_constraint": null}, "name": "dense_42", "inbound_nodes": [[["dense_41", 0, 0, {}]]]}, {"class_name": "Dense", "config": {"name": "dense_43", "trainable": true, "dtype": "float64", "units": 10, "activation": "tanh", "use_bias": true, "kernel_initializer": {"class_name": "GlorotUniform", "config": {"seed": null}}, "bias_initializer": {"class_name": "Zeros", "config": {}}, "kernel_regularizer": null, "bias_regularizer": null, "activity_regularizer": null, "kernel_constraint": null, "bias_constraint": null}, "name": "dense_43", "inbound_nodes": [[["dense_42", 0, 0, {}]]]}, {"class_name": "Dense", "config": {"name": "dense_44", "trainable": true, "dtype": "float64", "units": 10, "activation": "tanh", "use_bias": true, "kernel_initializer": {"class_name": "GlorotUniform", "config": {"seed": null}}, "bias_initializer": {"class_name": "Zeros", "config": {}}, "kernel_regularizer": null, "bias_regularizer": null, "activity_regularizer": null, "kernel_constraint": null, "bias_constraint": null}, "name": "dense_44", "inbound_nodes": [[["dense_43", 0, 0, {}]]]}, {"class_name": "Dense", "config": {"name": "dense_45", "trainable": true, "dtype": "float64", "units": 10, "activation": "tanh", "use_bias": true, "kernel_initializer": {"class_name": "GlorotUniform", "config": {"seed": null}}, "bias_initializer": {"class_name": "Zeros", "config": {}}, "kernel_regularizer": null, "bias_regularizer": null, "activity_regularizer": null, "kernel_constraint": null, "bias_constraint": null}, "name": "dense_45", "inbound_nodes": [[["dense_44", 0, 0, {}]]]}, {"class_name": "Dense", "config": {"name": "dense_46", "trainable": true, "dtype": "float64", "units": 10, "activation": "tanh", "use_bias": true, "kernel_initializer": {"class_name": "GlorotUniform", "config": {"seed": null}}, "bias_initializer": {"class_name": "Zeros", "config": {}}, "kernel_regularizer": null, "bias_regularizer": null, "activity_regularizer": null, "kernel_constraint": null, "bias_constraint": null}, "name": "dense_46", "inbound_nodes": [[["dense_45", 0, 0, {}]]]}, {"class_name": "Dense", "config": {"name": "dense_47", "trainable": true, "dtype": "float64", "units": 1, "activation": "linear", "use_bias": true, "kernel_initializer": {"class_name": "GlorotUniform", "config": {"seed": null}}, "bias_initializer": {"class_name": "Zeros", "config": {}}, "kernel_regularizer": null, "bias_regularizer": null, "activity_regularizer": null, "kernel_constraint": null, "bias_constraint": null}, "name": "dense_47", "inbound_nodes": [[["dense_46", 0, 0, {}]]]}], "input_layers": [["input_6", 0, 0]], "output_layers": [["dense_47", 0, 0]]}, "summary": ["Model: \"model_5\"", "_________________________________________________________________", "Layer (type)                 Output Shape              Param #   ", "=================================================================", "input_6 (InputLayer)         [(None, 1)]               0         ", "_________________________________________________________________", "dense_40 (Dense)             (None, 10)                20        ", "_________________________________________________________________", "dense_41 (Dense)             (None, 10)                110       ", "_________________________________________________________________", "dense_42 (Dense)             (None, 10)                110       ", "_________________________________________________________________", "dense_43 (Dense)             (None, 10)                110       ", "_________________________________________________________________", "dense_44 (Dense)             (None, 10)                110       ", "_________________________________________________________________", "dense_45 (Dense)             (None, 10)                110       ", "_________________________________________________________________", "dense_46 (Dense)             (None, 10)                110       ", "_________________________________________________________________", "dense_47 (Dense)             (None, 1)                 11        ", "=================================================================", "Total params: 691", "Trainable params: 691", "Non-trainable params: 0", "_________________________________________________________________"]}, "kwargs": {"border_xs": [[0.0]], "border_ys": [1.0, 0.0], "inside_xs_builder": "<function linspace_inside_xs_builder_builder.<locals>._inside_xs_builder at 0x7f9a40989d40>", "border_builder": "<function border_builder at 0x7f9a40a25dd0>", "equation_builder": "<function second_order_equation_builder_builder_plus.<locals>.equation_builder at 0x7f9a40989ef0>", "input_dim": 1, "output_dim": 1, "sol": "<function <lambda> at 0x7f9a40989f80>", "random_seed": 1, "N_f": 1000, "epochs": 2000, "clip_grad": 1, "learning_rate": 0.01, "model_builder": "NN[[10, 10, 10, 10, 10, 10, 10]]", "optimizers": [1, 1], "border_loss_multiplier": 1, "ode": "L-ODEn2"}, "losses": [… "errors": [1.0009840825007266]}, "date": "01:03:03 09 May 2021"}
{"payload": {"model": {"config": {"name": "model_1", "layers": [{"class_name": "InputLayer", "config": {"batch_input_shape": [null, 1], "dtype": "float64", "sparse": false, "ragged": false, "name": "input_2"}, "name": "input_2", "inbound_nodes": []}, {"class_name": "Dense", "config": {"name": "dense_8", "trainable": true, "dtype": "float64", "units": 10, "activation": "tanh", "use_bias": true, "kernel_initializer": {"class_name": "GlorotUniform", "config": {"seed": null}}, "bias_initializer": {"class_name": "Zeros", "config": {}}, "kernel_regularizer": null, "bias_regularizer": null, "activity_regularizer": null, "kernel_constraint": null, "bias_constraint": null}, "name": "dense_8", "inbound_nodes": [[["input_2", 0, 0, {}]]]}, {"class_name": "Dense", "config": {"name": "dense_9", "trainable": true, "dtype": "float64", "units": 10, "activation": "tanh", "use_bias": true, "kernel_initializer": {"class_name": "GlorotUniform", "config": {"seed": null}}, "bias_initializer": {"class_name": "Zeros", "config": {}}, "kernel_regularizer": null, "bias_regularizer": null, "activity_regularizer": null, "kernel_constraint": null, "bias_constraint": null}, "name": "dense_9", "inbound_nodes": [[["dense_8", 0, 0, {}]]]}, {"class_name": "Dense", "config": {"name": "dense_10", "trainable": true, "dtype": "float64", "units": 10, "activation": "tanh", "use_bias": true, "kernel_initializer": {"class_name": "GlorotUniform", "config": {"seed": null}}, "bias_initializer": {"class_name": "Zeros", "config": {}}, "kernel_regularizer": null, "bias_regularizer": null, "activity_regularizer": null, "kernel_constraint": null, "bias_constraint": null}, "name": "dense_10", "inbound_nodes": [[["dense_9", 0, 0, {}]]]}, {"class_name": "Dense", "config": {"name": "dense_11", "trainable": true, "dtype": "float64", "units": 10, "activation": "tanh", "use_bias": true, "kernel_initializer": {"class_name": "GlorotUniform", "config": {"seed": null}}, "bias_initializer": {"class_name": "Zeros", "config": {}}, "kernel_regularizer": null, "bias_regularizer": null, "activity_regularizer": null, "kernel_constraint": null, "bias_constraint": null}, "name": "dense_11", "inbound_nodes": [[["dense_10", 0, 0, {}]]]}, {"class_name": "Dense", "config": {"name": "dense_12", "trainable": true, "dtype": "float64", "units": 10, "activation": "tanh", "use_bias": true, "kernel_initializer": {"class_name": "GlorotUniform", "config": {"seed": null}}, "bias_initializer": {"class_name": "Zeros", "config": {}}, "kernel_regularizer": null, "bias_regularizer": null, "activity_regularizer": null, "kernel_constraint": null, "bias_constraint": null}, "name": "dense_12", "inbound_nodes": [[["dense_11", 0, 0, {}]]]}, {"class_name": "Dense", "config": {"name": "dense_13", "trainable": true, "dtype": "float64", "units": 10, "activation": "tanh", "use_bias": true, "kernel_initializer": {"class_name": "GlorotUniform", "config": {"seed": null}}, "bias_initializer": {"class_name": "Zeros", "config": {}}, "kernel_regularizer": null, "bias_regularizer": null, "activity_regularizer": null, "kernel_constraint": null, "bias_constraint": null}, "name": "dense_13", "inbound_nodes": [[["dense_12", 0, 0, {}]]]}, {"class_name": "Dense", "config": {"name": "dense_14", "trainable": true, "dtype": "float64", "units": 10, "activation": "tanh", "use_bias": true, "kernel_initializer": {"class_name": "GlorotUniform", "config": {"seed": null}}, "bias_initializer": {"class_name": "Zeros", "config": {}}, "kernel_regularizer": null, "bias_regularizer": null, "activity_regularizer": null, "kernel_constraint": null, "bias_constraint": null}, "name": "dense_14", "inbound_nodes": [[["dense_13", 0, 0, {}]]]}, {"class_name": "Dense", "config": {"name": "dense_15", "trainable": true, "dtype": "float64", "units": 1, "activation": "linear", "use_bias": true, "kernel_initializer": {"class_name": "GlorotUniform", "config": {"seed": null}}, "bias_initializer": {"class_name": "Zeros", "config": {}}, "kernel_regularizer": null, "bias_regularizer": null, "activity_regularizer": null, "kernel_constraint": null, "bias_constraint": null}, "name": "dense_15", "inbound_nodes": [[["dense_14", 0, 0, {}]]]}], "input_layers": [["input_2", 0, 0]], "output_layers": [["dense_15", 0, 0]]}, "summary": ["Model: \"model_1\"", "_________________________________________________________________", "Layer (type)                 Output Shape              Param #   ", "=================================================================", "input_2 (InputLayer)         [(None, 1)]               0         ", "_________________________________________________________________", "dense_8 (Dense)              (None, 10)                20        ", "_________________________________________________________________", "dense_9 (Dense)              (None, 10)                110       ", "_________________________________________________________________", "dense_10 (Dense)             (None, 10)                110       ", "_________________________________________________________________", "dense_11 (Dense)             (None, 10)                110       ", "_________________________________________________________________", "dense_12 (Dense)             (None, 10)                110       ", "_________________________________________________________________", "dense_13 (Dense)             (None, 10)                110       ", "_________________________________________________________________", "dense_14 (Dense)             (None, 10)                110       ", "_________________________________________________________________", "dense_15 (Dense)             (None, 1)                 11        ", "=================================================================", "Total params: 691", "Trainable params: 691", "Non-trainable params: 0", "_________________________________________________________________"]}, "kwargs": {"border_xs": [[0.0], [1.0]], "border_ys": [[0.0], [0.6889381730850401]], "inside_xs_builder": "<function linspace_inside_xs_builder_builder.<locals>._inside_xs_builder at 0x7fbeb841d050>", "border_builder": "<function border_with_function_values_builder at 0x7fbebc896830>", "equation_builder": "<function second_order_equation_builder_builder_plus.<locals>.equation_builder at 0x7fbeb841d200>", "input_dim": 1, "output_dim": 1, "sol": "<function <lambda> at 0x7fbeb841d290>", "random_seed": 1, "N_f": 1000, "epochs": 2000, "clip_grad": 1, "learning_rate": 0.01, "model_builder": "NN[[10, 10, 10, 10, 10, 10, 10]]", "optimizers": [1, 1], "border_loss_multiplier": 1, "ode": "L-ODEn3"}, "losses": [… "errors": [0.0024471160286707507]}, "date": "07:29:44 09 May 2021"}
{"payload": {"model": {"config": {"name": "model_2", "layers": [{"class_name": "InputLayer", "config": {"batch_input_shape": [null, 1], "dtype": "float64", "sparse": false, "ragged": false, "name": "input_3"}, "name": "input_3", "inbound_nodes": []}, {"class_name": "Dense", "config": {"name": "dense_16", "trainable": true, "dtype": "float64", "units": 10, "activation": "tanh", "use_bias": true, "kernel_initializer": {"class_name": "GlorotUniform", "config": {"seed": null}}, "bias_initializer": {"class_name": "Zeros", "config": {}}, "kernel_regularizer": null, "bias_regularizer": null, "activity_regularizer": null, "kernel_constraint": null, "bias_constraint": null}, "name": "dense_16", "inbound_nodes": [[["input_3", 0, 0, {}]]]}, {"class_name": "Dense", "config": {"name": "dense_17", "trainable": true, "dtype": "float64", "units": 10, "activation": "tanh", "use_bias": true, "kernel_initializer": {"class_name": "GlorotUniform", "config": {"seed": null}}, "bias_initializer": {"class_name": "Zeros", "config": {}}, "kernel_regularizer": null, "bias_regularizer": null, "activity_regularizer": null, "kernel_constraint": null, "bias_constraint": null}, "name": "dense_17", "inbound_nodes": [[["dense_16", 0, 0, {}]]]}, {"class_name": "Dense", "config": {"name": "dense_18", "trainable": true, "dtype": "float64", "units": 10, "activation": "tanh", "use_bias": true, "kernel_initializer": {"class_name": "GlorotUniform", "config": {"seed": null}}, "bias_initializer": {"class_name": "Zeros", "config": {}}, "kernel_regularizer": null, "bias_regularizer": null, "activity_regularizer": null, "kernel_constraint": null, "bias_constraint": null}, "name": "dense_18", "inbound_nodes": [[["dense_17", 0, 0, {}]]]}, {"class_name": "Dense", "config": {"name": "dense_19", "trainable": true, "dtype": "float64", "units": 10, "activation": "tanh", "use_bias": true, "kernel_initializer": {"class_name": "GlorotUniform", "config": {"seed": null}}, "bias_initializer": {"class_name": "Zeros", "config": {}}, "kernel_regularizer": null, "bias_regularizer": null, "activity_regularizer": null, "kernel_constraint": null, "bias_constraint": null}, "name": "dense_19", "inbound_nodes": [[["dense_18", 0, 0, {}]]]}, {"class_name": "Dense", "config": {"name": "dense_20", "trainable": true, "dtype": "float64", "units": 10, "activation": "tanh", "use_bias": true, "kernel_initializer": {"class_name": "GlorotUniform", "config": {"seed": null}}, "bias_initializer": {"class_name": "Zeros", "config": {}}, "kernel_regularizer": null, "bias_regularizer": null, "activity_regularizer": null, "kernel_constraint": null, "bias_constraint": null}, "name": "dense_20", "inbound_nodes": [[["dense_19", 0, 0, {}]]]}, {"class_name": "Dense", "config": {"name": "dense_21", "trainable": true, "dtype": "float64", "units": 10, "activation": "tanh", "use_bias": true, "kernel_initializer": {"class_name": "GlorotUniform", "config": {"seed": null}}, "bias_initializer": {"class_name": "Zeros", "config": {}}, "kernel_regularizer": null, "bias_regularizer": null, "activity_regularizer": null, "kernel_constraint": null, "bias_constraint": null}, "name": "dense_21", "inbound_nodes": [[["dense_20", 0, 0, {}]]]}, {"class_name": "Dense", "config": {"name": "dense_22", "trainable": true, "dtype": "float64", "units": 10, "activation": "tanh", "use_bias": true, "kernel_initializer": {"class_name": "GlorotUniform", "config": {"seed": null}}, "bias_initializer": {"class_name": "Zeros", "config": {}}, "kernel_regularizer": null, "bias_regularizer": null, "activity_regularizer": null, "kernel_constraint": null, "bias_constraint": null}, "name": "dense_22", "inbound_nodes": [[["dense_21", 0, 0, {}]]]}, {"class_name": "Dense", "config": {"name": "dense_23", "trainable": true, "dtype": "float64", "units": 1, "activation": "linear", "use_bias": true, "kernel_initializer": {"class_name": "GlorotUniform", "config": {"seed": null}}, "bias_initializer": {"class_name": "Zeros", "config": {}}, "kernel_regularizer": null, "bias_regularizer": null, "activity_regularizer": null, "kernel_constraint": null, "bias_constraint": null}, "name": "dense_23", "inbound_nodes": [[["dense_22", 0, 0, {}]]]}], "input_layers": [["input_3", 0, 0]], "output_layers": [["dense_23", 0, 0]]}, "summary": ["Model: \"model_2\"", "_________________________________________________________________", "Layer (type)                 Output Shape              Param #   ", "=================================================================", "input_3 (InputLayer)         [(None, 1)]               0         ", "_________________________________________________________________", "dense_16 (Dense)             (None, 10)                20        ", "_________________________________________________________________", "dense_17 (Dense)             (None, 10)                110       ", "_________________________________________________________________", "dense_18 (Dense)             (None, 10)                110       ", "_________________________________________________________________", "dense_19 (Dense)             (None, 10)                110       ", "_________________________________________________________________", "dense_20 (Dense)             (None, 10)                110       ", "_________________________________________________________________", "dense_21 (Dense)             (None, 10)                110       ", "_________________________________________________________________", "dense_22 (Dense)             (None, 10)                110       ", "_________________________________________________________________", "dense_23 (Dense)             (None, 1)                 11        ", "=================================================================", "Total params: 691", "Trainable params: 691", "Non-trainable params: 0", "_________________________________________________________________"]}, "kwargs": {"border_xs": [[0.1]], "border_ys": [[20.1]], "inside_xs_builder": "<function linspace_inside_xs_builder_builder.<locals>._inside_xs_builder at 0x7fbeb841d320>", "border_builder": "<function border_with_function_values_builder at 0x7fbebc896830>", "equation_builder": "<function first_order_equation_builder_builder_plus.<locals>.equation_builder at 0x7fbeb841d4d0>", "input_dim": 1, "output_dim": 1, "sol": "<function <lambda> at 0x7fbeb841d560>", "random_seed": 1, "N_f": 1000, "epochs": 2000, "clip_grad": 1, "learning_rate": 0.01, "model_builder": "NN[[10, 10, 10, 10, 10, 10, 10]]", "optimizers": [1, 1], "border_loss_multiplier": 1, "ode": "NL-ODE1"}, "losses": [… "errors": [68.24769356209269]}, "date": "07:32:39 09 May 2021"}
{"payload": {"model": {"config": {"name": "model_3", "layers": [{"class_name": "InputLayer", "config": {"batch_input_shape": [null, 1], "dtype": "float64", "sparse": false, "ragged": false, "name": "input_4"}, "name": "input_4", "inbound_nodes": []}, {"class_name": "Dense", "config": {"name": "dense_24", "trainable": true, "dtype": "float64", "units": 10, "activation": "tanh", "use_bias": true, "kernel_initializer": {"class_name": "GlorotUniform", "config": {"seed": null}}, "bias_initializer": {"class_name": "Zeros", "config": {}}, "kernel_regularizer": null, "bias_regularizer": null, "activity_regularizer": null, "kernel_constraint": null, "bias_constraint": null}, "name": "dense_24", "inbound_nodes": [[["input_4", 0, 0, {}]]]}, {"class_name": "Dense", "config": {"name": "dense_25", "trainable": true, "dtype": "float64", "units": 10, "activation": "tanh", "use_bias": true, "kernel_initializer": {"class_name": "GlorotUniform", "config": {"seed": null}}, "bias_initializer": {"class_name": "Zeros", "config": {}}, "kernel_regularizer": null, "bias_regularizer": null, "activity_regularizer": null, "kernel_constraint": null, "bias_constraint": null}, "name": "dense_25", "inbound_nodes": [[["dense_24", 0, 0, {}]]]}, {"class_name": "Dense", "config": {"name": "dense_26", "trainable": true, "dtype": "float64", "units": 10, "activation": "tanh", "use_bias": true, "kernel_initializer": {"class_name": "GlorotUniform", "config": {"seed": null}}, "bias_initializer": {"class_name": "Zeros", "config": {}}, "kernel_regularizer": null, "bias_regularizer": null, "activity_regularizer": null, "kernel_constraint": null, "bias_constraint": null}, "name": "dense_26", "inbound_nodes": [[["dense_25", 0, 0, {}]]]}, {"class_name": "Dense", "config": {"name": "dense_27", "trainable": true, "dtype": "float64", "units": 10, "activation": "tanh", "use_bias": true, "kernel_initializer": {"class_name": "GlorotUniform", "config": {"seed": null}}, "bias_initializer": {"class_name": "Zeros", "config": {}}, "kernel_regularizer": null, "bias_regularizer": null, "activity_regularizer": null, "kernel_constraint": null, "bias_constraint": null}, "name": "dense_27", "inbound_nodes": [[["dense_26", 0, 0, {}]]]}, {"class_name": "Dense", "config": {"name": "dense_28", "trainable": true, "dtype": "float64", "units": 10, "activation": "tanh", "use_bias": true, "kernel_initializer": {"class_name": "GlorotUniform", "config": {"seed": null}}, "bias_initializer": {"class_name": "Zeros", "config": {}}, "kernel_regularizer": null, "bias_regularizer": null, "activity_regularizer": null, "kernel_constraint": null, "bias_constraint": null}, "name": "dense_28", "inbound_nodes": [[["dense_27", 0, 0, {}]]]}, {"class_name": "Dense", "config": {"name": "dense_29", "trainable": true, "dtype": "float64", "units": 10, "activation": "tanh", "use_bias": true, "kernel_initializer": {"class_name": "GlorotUniform", "config": {"seed": null}}, "bias_initializer": {"class_name": "Zeros", "config": {}}, "kernel_regularizer": null, "bias_regularizer": null, "activity_regularizer": null, "kernel_constraint": null, "bias_constraint": null}, "name": "dense_29", "inbound_nodes": [[["dense_28", 0, 0, {}]]]}, {"class_name": "Dense", "config": {"name": "dense_30", "trainable": true, "dtype": "float64", "units": 10, "activation": "tanh", "use_bias": true, "kernel_initializer": {"class_name": "GlorotUniform", "config": {"seed": null}}, "bias_initializer": {"class_name": "Zeros", "config": {}}, "kernel_regularizer": null, "bias_regularizer": null, "activity_regularizer": null, "kernel_constraint": null, "bias_constraint": null}, "name": "dense_30", "inbound_nodes": [[["dense_29", 0, 0, {}]]]}, {"class_name": "Dense", "config": {"name": "dense_31", "trainable": true, "dtype": "float64", "units": 1, "activation": "linear", "use_bias": true, "kernel_initializer": {"class_name": "GlorotUniform", "config": {"seed": null}}, "bias_initializer": {"class_name": "Zeros", "config": {}}, "kernel_regularizer": null, "bias_regularizer": null, "activity_regularizer": null, "kernel_constraint": null, "bias_constraint": null}, "name": "dense_31", "inbound_nodes": [[["dense_30", 0, 0, {}]]]}], "input_layers": [["input_4", 0, 0]], "output_layers": [["dense_31", 0, 0]]}, "summary": ["Model: \"model_3\"", "_________________________________________________________________", "Layer (type)                 Output Shape              Param #   ", "=================================================================", "input_4 (InputLayer)         [(None, 1)]               0         ", "_________________________________________________________________", "dense_24 (Dense)             (None, 10)                20        ", "_________________________________________________________________", "dense_25 (Dense)             (None, 10)                110       ", "_________________________________________________________________", "dense_26 (Dense)             (None, 10)                110       ", "_________________________________________________________________", "dense_27 (Dense)             (None, 10)                110       ", "_________________________________________________________________", "dense_28 (Dense)             (None, 10)                110       ", "_________________________________________________________________", "dense_29 (Dense)             (None, 10)                110       ", "_________________________________________________________________", "dense_30 (Dense)             (None, 10)                110       ", "_________________________________________________________________", "dense_31 (Dense)             (None, 1)                 11        ", "=================================================================", "Total params: 691", "Trainable params: 691", "Non-trainable params: 0", "_________________________________________________________________"]}, "kwargs": {"border_xs": [[0.1]], "border_ys": [[20.1]], "inside_xs_builder": "<function linspace_inside_xs_builder_builder.<locals>._inside_xs_builder at 0x7fbeb841d5f0>", "border_builder": "<function border_with_function_values_builder at 0x7fbebc896830>", "equation_builder": "<function first_order_equation_builder_builder_plus.<locals>.equation_builder at 0x7fbeb841d7a0>", "input_dim": 1, "output_dim": 1, "sol": "<function <lambda> at 0x7fbeb841d830>", "random_seed": 1, "N_f": 1000, "epochs": 2000, "clip_grad": 1, "learning_rate": 0.01, "model_builder": "NN[[10, 10, 10, 10, 10, 10, 10]]", "optimizers": [1, 1], "border_loss_multiplier": 1, "ode": "NL-ODE2"}, "losses": [… "errors": [68.25348218904456]}, "date": "07:35:33 09 May 2021"}
{"payload": {"model": {"config": {"name": "model_4", "layers": [{"class_name": "InputLayer", "config": {"batch_input_shape": [null, 1], "dtype": "float64", "sparse": false, "ragged": false, "name": "input_5"}, "name": "input_5", "inbound_nodes": []}, {"class_name": "Dense", "config": {"name": "dense_32", "trainable": true, "dtype": "float64", "units": 10, "activation": "tanh", "use_bias": true, "kernel_initializer": {"class_name": "GlorotUniform", "config": {"seed": null}}, "bias_initializer": {"class_name": "Zeros", "config": {}}, "kernel_regularizer": null, "bias_regularizer": null, "activity_regularizer": null, "kernel_constraint": null, "bias_constraint": null}, "name": "dense_32", "inbound_nodes": [[["input_5", 0, 0, {}]]]}, {"class_name": "Dense", "config": {"name": "dense_33", "trainable": true, "dtype": "float64", "units": 10, "activation": "tanh", "use_bias": true, "kernel_initializer": {"class_name": "GlorotUniform", "config": {"seed": null}}, "bias_initializer": {"class_name": "Zeros", "config": {}}, "kernel_regularizer": null, "bias_regularizer": null, "activity_regularizer": null, "kernel_constraint": null, "bias_constraint": null}, "name": "dense_33", "inbound_nodes": [[["dense_32", 0, 0, {}]]]}, {"class_name": "Dense", "config": {"name": "dense_34", "trainable": true, "dtype": "float64", "units": 10, "activation": "tanh", "use_bias": true, "kernel_initializer": {"class_name": "GlorotUniform", "config": {"seed": null}}, "bias_initializer": {"class_name": "Zeros", "config": {}}, "kernel_regularizer": null, "bias_regularizer": null, "activity_regularizer": null, "kernel_constraint": null, "bias_constraint": null}, "name": "dense_34", "inbound_nodes": [[["dense_33", 0, 0, {}]]]}, {"class_name": "Dense", "config": {"name": "dense_35", "trainable": true, "dtype": "float64", "units": 10, "activation": "tanh", "use_bias": true, "kernel_initializer": {"class_name": "GlorotUniform", "config": {"seed": null}}, "bias_initializer": {"class_name": "Zeros", "config": {}}, "kernel_regularizer": null, "bias_regularizer": null, "activity_regularizer": null, "kernel_constraint": null, "bias_constraint": null}, "name": "dense_35", "inbound_nodes": [[["dense_34", 0, 0, {}]]]}, {"class_name": "Dense", "config": {"name": "dense_36", "trainable": true, "dtype": "float64", "units": 10, "activation": "tanh", "use_bias": true, "kernel_initializer": {"class_name": "GlorotUniform", "config": {"seed": null}}, "bias_initializer": {"class_name": "Zeros", "config": {}}, "kernel_regularizer": null, "bias_regularizer": null, "activity_regularizer": null, "kernel_constraint": null, "bias_constraint": null}, "name": "dense_36", "inbound_nodes": [[["dense_35", 0, 0, {}]]]}, {"class_name": "Dense", "config": {"name": "dense_37", "trainable": true, "dtype": "float64", "units": 10, "activation": "tanh", "use_bias": true, "kernel_initializer": {"class_name": "GlorotUniform", "config": {"seed": null}}, "bias_initializer": {"class_name": "Zeros", "config": {}}, "kernel_regularizer": null, "bias_regularizer": null, "activity_regularizer": null, "kernel_constraint": null, "bias_constraint": null}, "name": "dense_37", "inbound_nodes": [[["dense_36", 0, 0, {}]]]}, {"class_name": "Dense", "config": {"name": "dense_38", "trainable": true, "dtype": "float64", "units": 10, "activation": "tanh", "use_bias": true, "kernel_initializer": {"class_name": "GlorotUniform", "config": {"seed": null}}, "bias_initializer": {"class_name": "Zeros", "config": {}}, "kernel_regularizer": null, "bias_regularizer": null, "activity_regularizer": null, "kernel_constraint": null, "bias_constraint": null}, "name": "dense_38", "inbound_nodes": [[["dense_37", 0, 0, {}]]]}, {"class_name": "Dense", "config": {"name": "dense_39", "trainable": true, "dtype": "float64", "units": 1, "activation": "linear", "use_bias": true, "kernel_initializer": {"class_name": "GlorotUniform", "config": {"seed": null}}, "bias_initializer": {"class_name": "Zeros", "config": {}}, "kernel_regularizer": null, "bias_regularizer": null, "activity_regularizer": null, "kernel_constraint": null, "bias_constraint": null}, "name": "dense_39", "inbound_nodes": [[["dense_38", 0, 0, {}]]]}], "input_layers": [["input_5", 0, 0]], "output_layers": [["dense_39", 0, 0]]}, "summary": ["Model: \"model_4\"", "_________________________________________________________________", "Layer (type)                 Output Shape              Param #   ", "=================================================================", "input_5 (InputLayer)         [(None, 1)]               0         ", "_________________________________________________________________", "dense_32 (Dense)             (None, 10)                20        ", "_________________________________________________________________", "dense_33 (Dense)             (None, 10)                110       ", "_________________________________________________________________", "dense_34 (Dense)             (None, 10)                110       ", "_________________________________________________________________", "dense_35 (Dense)             (None, 10)                110       ", "_________________________________________________________________", "dense_36 (Dense)             (None, 10)                110       ", "_________________________________________________________________", "dense_37 (Dense)             (None, 10)                110       ", "_________________________________________________________________", "dense_38 (Dense)             (None, 10)                110       ", "_________________________________________________________________", "dense_39 (Dense)             (None, 1)                 11        ", "=================================================================", "Total params: 691", "Trainable params: 691", "Non-trainable params: 0", "_________________________________________________________________"]}, "kwargs": {"border_xs": [[0.1]], "border_ys": [[21.03504087643303]], "inside_xs_builder": "<function linspace_inside_xs_builder_builder.<locals>._inside_xs_builder at 0x7fbeb841d8c0>", "border_builder": "<function border_with_function_values_builder at 0x7fbebc896830>", "equation_builder": "<function first_order_equation_builder_builder_plus.<locals>.equation_builder at 0x7fbeb841da70>", "input_dim": 1, "output_dim": 1, "sol": "<function <lambda> at 0x7fbeb841db00>", "random_seed": 1, "N_f": 1000, "epochs": 2000, "clip_grad": 1, "learning_rate": 0.01, "model_builder": "NN[[10, 10, 10, 10, 10, 10, 10]]", "optimizers": [1, 1], "border_loss_multiplier": 1, "ode": "NL-ODE3"}, "losses": [… "errors": [71.52575623964528]}, "date": "07:38:49 09 May 2021"}
{"payload": {"model": {"config": {"name": "model_6", "layers": [{"class_name": "InputLayer", "config": {"batch_input_shape": [null, 1], "dtype": "float64", "sparse": false, "ragged": false, "name": "input_7"}, "name": "input_7", "inbound_nodes": []}, {"class_name": "Dense", "config": {"name": "dense_48", "trainable": true, "dtype": "float64", "units": 10, "activation": "tanh", "use_bias": true, "kernel_initializer": {"class_name": "GlorotUniform", "config": {"seed": null}}, "bias_initializer": {"class_name": "Zeros", "config": {}}, "kernel_regularizer": null, "bias_regularizer": null, "activity_regularizer": null, "kernel_constraint": null, "bias_constraint": null}, "name": "dense_48", "inbound_nodes": [[["input_7", 0, 0, {}]]]}, {"class_name": "Dense", "config": {"name": "dense_49", "trainable": true, "dtype": "float64", "units": 10, "activation": "tanh", "use_bias": true, "kernel_initializer": {"class_name": "GlorotUniform", "config": {"seed": null}}, "bias_initializer": {"class_name": "Zeros", "config": {}}, "kernel_regularizer": null, "bias_regularizer": null, "activity_regularizer": null, "kernel_constraint": null, "bias_constraint": null}, "name": "dense_49", "inbound_nodes": [[["dense_48", 0, 0, {}]]]}, {"class_name": "Dense", "config": {"name": "dense_50", "trainable": true, "dtype": "float64", "units": 10, "activation": "tanh", "use_bias": true, "kernel_initializer": {"class_name": "GlorotUniform", "config": {"seed": null}}, "bias_initializer": {"class_name": "Zeros", "config": {}}, "kernel_regularizer": null, "bias_regularizer": null, "activity_regularizer": null, "kernel_constraint": null, "bias_constraint": null}, "name": "dense_50", "inbound_nodes": [[["dense_49", 0, 0, {}]]]}, {"class_name": "Dense", "config": {"name": "dense_51", "trainable": true, "dtype": "float64", "units": 10, "activation": "tanh", "use_bias": true, "kernel_initializer": {"class_name": "GlorotUniform", "config": {"seed": null}}, "bias_initializer": {"class_name": "Zeros", "config": {}}, "kernel_regularizer": null, "bias_regularizer": null, "activity_regularizer": null, "kernel_constraint": null, "bias_constraint": null}, "name": "dense_51", "inbound_nodes": [[["dense_50", 0, 0, {}]]]}, {"class_name": "Dense", "config": {"name": "dense_52", "trainable": true, "dtype": "float64", "units": 10, "activation": "tanh", "use_bias": true, "kernel_initializer": {"class_name": "GlorotUniform", "config": {"seed": null}}, "bias_initializer": {"class_name": "Zeros", "config": {}}, "kernel_regularizer": null, "bias_regularizer": null, "activity_regularizer": null, "kernel_constraint": null, "bias_constraint": null}, "name": "dense_52", "inbound_nodes": [[["dense_51", 0, 0, {}]]]}, {"class_name": "Dense", "config": {"name": "dense_53", "trainable": true, "dtype": "float64", "units": 10, "activation": "tanh", "use_bias": true, "kernel_initializer": {"class_name": "GlorotUniform", "config": {"seed": null}}, "bias_initializer": {"class_name": "Zeros", "config": {}}, "kernel_regularizer": null, "bias_regularizer": null, "activity_regularizer": null, "kernel_constraint": null, "bias_constraint": null}, "name": "dense_53", "inbound_nodes": [[["dense_52", 0, 0, {}]]]}, {"class_name": "Dense", "config": {"name": "dense_54", "trainable": true, "dtype": "float64", "units": 10, "activation": "tanh", "use_bias": true, "kernel_initializer": {"class_name": "GlorotUniform", "config": {"seed": null}}, "bias_initializer": {"class_name": "Zeros", "config": {}}, "kernel_regularizer": null, "bias_regularizer": null, "activity_regularizer": null, "kernel_constraint": null, "bias_constraint": null}, "name": "dense_54", "inbound_nodes": [[["dense_53", 0, 0, {}]]]}, {"class_name": "Dense", "config": {"name": "dense_55", "trainable": true, "dtype": "float64", "units": 1, "activation": "linear", "use_bias": true, "kernel_initializer": {"class_name": "GlorotUniform", "config": {"seed": null}}, "bias_initializer": {"class_name": "Zeros", "config": {}}, "kernel_regularizer": null, "bias_regularizer": null, "activity_regularizer": null, "kernel_constraint": null, "bias_constraint": null}, "name": "dense_55", "inbound_nodes": [[["dense_54", 0, 0, {}]]]}], "input_layers": [["input_7", 0, 0]], "output_layers": [["dense_55", 0, 0]]}, "summary": ["Model: \"model_6\"", "_________________________________________________________________", "Layer (type)                 Output Shape              Param #   ", "=================================================================", "input_7 (InputLayer)         [(None, 1)]               0         ", "_________________________________________________________________", "dense_48 (Dense)             (None, 10)                20        ", "_________________________________________________________________", "dense_49 (Dense)             (None, 10)                110       ", "_________________________________________________________________", "dense_50 (Dense)             (None, 10)                110       ", "_________________________________________________________________", "dense_51 (Dense)             (None, 10)                110       ", "_________________________________________________________________", "dense_52 (Dense)             (None, 10)                110       ", "_________________________________________________________________", "dense_53 (Dense)             (None, 10)                110       ", "_________________________________________________________________", "dense_54 (Dense)             (None, 10)                110       ", "_________________________________________________________________", "dense_55 (Dense)             (None, 1)                 11        ", "=================================================================", "Total params: 691", "Trainable params: 691", "Non-trainable params: 0", "_________________________________________________________________"]}, "kwargs": {"border_xs": [[0.1]], "border_ys": [[21.03504087643303]], "inside_xs_builder": "<function linspace_inside_xs_builder_builder.<locals>._inside_xs_builder at 0x7fbeb8095710>", "border_builder": "<function border_with_function_values_builder at 0x7fbebc896830>", "equation_builder": "<function first_order_equation_builder_builder_plus.<locals>.equation_builder at 0x7fbeb8095cb0>", "input_dim": 1, "output_dim": 1, "sol": "<function <lambda> at 0x7fbeb8095050>", "random_seed": 1, "N_f": 1000, "epochs": 2000, "clip_grad": 1, "learning_rate": 0.01, "model_builder": "NN[[10, 10, 10, 10, 10, 10, 10]]", "optimizers": [1, 1], "border_loss_multiplier": 1, "ode": "NL-ODE4"}, "losses": [… "errors": [71.53392521305906]}, "date": "07:53:25 09 May 2021"}
{"payload": {"model": {"config": {"name": "model_7", "layers": [{"class_name": "InputLayer", "config": {"batch_input_shape": [null, 1], "dtype": "float64", "sparse": false, "ragged": false, "name": "input_8"}, "name": "input_8", "inbound_nodes": []}, {"class_name": "Dense", "config": {"name": "dense_56", "trainable": true, "dtype": "float64", "units": 10, "activation": "tanh", "use_bias": true, "kernel_initializer": {"class_name": "GlorotUniform", "config": {"seed": null}}, "bias_initializer": {"class_name": "Zeros", "config": {}}, "kernel_regularizer": null, "bias_regularizer": null, "activity_regularizer": null, "kernel_constraint": null, "bias_constraint": null}, "name": "dense_56", "inbound_nodes": [[["input_8", 0, 0, {}]]]}, {"class_name": "Dense", "config": {"name": "dense_57", "trainable": true, "dtype": "float64", "units": 10, "activation": "tanh", "use_bias": true, "kernel_initializer": {"class_name": "GlorotUniform", "config": {"seed": null}}, "bias_initializer": {"class_name": "Zeros", "config": {}}, "kernel_regularizer": null, "bias_regularizer": null, "activity_regularizer": null, "kernel_constraint": null, "bias_constraint": null}, "name": "dense_57", "inbound_nodes": [[["dense_56", 0, 0, {}]]]}, {"class_name": "Dense", "config": {"name": "dense_58", "trainable": true, "dtype": "float64", "units": 10, "activation": "tanh", "use_bias": true, "kernel_initializer": {"class_name": "GlorotUniform", "config": {"seed": null}}, "bias_initializer": {"class_name": "Zeros", "config": {}}, "kernel_regularizer": null, "bias_regularizer": null, "activity_regularizer": null, "kernel_constraint": null, "bias_constraint": null}, "name": "dense_58", "inbound_nodes": [[["dense_57", 0, 0, {}]]]}, {"class_name": "Dense", "config": {"name": "dense_59", "trainable": true, "dtype": "float64", "units": 10, "activation": "tanh", "use_bias": true, "kernel_initializer": {"class_name": "GlorotUniform", "config": {"seed": null}}, "bias_initializer": {"class_name": "Zeros", "config": {}}, "kernel_regularizer": null, "bias_regularizer": null, "activity_regularizer": null, "kernel_constraint": null, "bias_constraint": null}, "name": "dense_59", "inbound_nodes": [[["dense_58", 0, 0, {}]]]}, {"class_name": "Dense", "config": {"name": "dense_60", "trainable": true, "dtype": "float64", "units": 10, "activation": "tanh", "use_bias": true, "kernel_initializer": {"class_name": "GlorotUniform", "config": {"seed": null}}, "bias_initializer": {"class_name": "Zeros", "config": {}}, "kernel_regularizer": null, "bias_regularizer": null, "activity_regularizer": null, "kernel_constraint": null, "bias_constraint": null}, "name": "dense_60", "inbound_nodes": [[["dense_59", 0, 0, {}]]]}, {"class_name": "Dense", "config": {"name": "dense_61", "trainable": true, "dtype": "float64", "units": 10, "activation": "tanh", "use_bias": true, "kernel_initializer": {"class_name": "GlorotUniform", "config": {"seed": null}}, "bias_initializer": {"class_name": "Zeros", "config": {}}, "kernel_regularizer": null, "bias_regularizer": null, "activity_regularizer": null, "kernel_constraint": null, "bias_constraint": null}, "name": "dense_61", "inbound_nodes": [[["dense_60", 0, 0, {}]]]}, {"class_name": "Dense", "config": {"name": "dense_62", "trainable": true, "dtype": "float64", "units": 10, "activation": "tanh", "use_bias": true, "kernel_initializer": {"class_name": "GlorotUniform", "config": {"seed": null}}, "bias_initializer": {"class_name": "Zeros", "config": {}}, "kernel_regularizer": null, "bias_regularizer": null, "activity_regularizer": null, "kernel_constraint": null, "bias_constraint": null}, "name": "dense_62", "inbound_nodes": [[["dense_61", 0, 0, {}]]]}, {"class_name": "Dense", "config": {"name": "dense_63", "trainable": true, "dtype": "float64", "units": 1, "activation": "linear", "use_bias": true, "kernel_initializer": {"class_name": "GlorotUniform", "config": {"seed": null}}, "bias_initializer": {"class_name": "Zeros", "config": {}}, "kernel_regularizer": null, "bias_regularizer": null, "activity_regularizer": null, "kernel_constraint": null, "bias_constraint": null}, "name": "dense_63", "inbound_nodes": [[["dense_62", 0, 0, {}]]]}], "input_layers": [["input_8", 0, 0]], "output_layers": [["dense_63", 0, 0]]}, "summary": ["Model: \"model_7\"", "_________________________________________________________________", "Layer (type)                 Output Shape              Param #   ", "=================================================================", "input_8 (InputLayer)         [(None, 1)]               0         ", "_________________________________________________________________", "dense_56 (Dense)             (None, 10)                20        ", "_________________________________________________________________", "dense_57 (Dense)             (None, 10)                110       ", "_________________________________________________________________", "dense_58 (Dense)             (None, 10)                110       ", "_________________________________________________________________", "dense_59 (Dense)             (None, 10)                110       ", "_________________________________________________________________", "dense_60 (Dense)             (None, 10)                110       ", "_________________________________________________________________", "dense_61 (Dense)             (None, 10)                110       ", "_________________________________________________________________", "dense_62 (Dense)             (None, 10)                110       ", "_________________________________________________________________", "dense_63 (Dense)             (None, 1)                 11        ", "=================================================================", "Total params: 691", "Trainable params: 691", "Non-trainable params: 0", "_________________________________________________________________"]}, "kwargs": {"border_xs": [[1.0]], "border_ys": [[1.0], [0.0]], "inside_xs_builder": "<function linspace_inside_xs_builder_builder.<locals>._inside_xs_builder at 0x7fbeb80955f0>", "border_builder": "<function border_builder at 0x7fbebc896710>", "equation_builder": "<function second_order_equation_builder_builder_plus.<locals>.equation_builder at 0x7fbeb8095830>", "input_dim": 1, "output_dim": 1, "sol": "<function <lambda> at 0x7fbeb8095440>", "random_seed": 1, "N_f": 1000, "epochs": 2000, "clip_grad": 1, "learning_rate": 0.01, "model_builder": "NN[[10, 10, 10, 10, 10, 10, 10]]", "optimizers": [1, 1], "border_loss_multiplier": 1, "ode": "NL-ODEn1"}, "losses": [… "errors": [0.011748102608383205]}, "date": "07:54:27 09 May 2021"}
{"payload": {"model": {"config": {"name": "model_13", "layers": [{"class_name": "InputLayer", "config": {"batch_input_shape": [null, 1], "dtype": "float64", "sparse": false, "ragged": false, "name": "input_14"}, "name": "input_14", "inbound_nodes": []}, {"class_name": "Dense", "config": {"name": "dense_104", "trainable": true, "dtype": "float64", "units": 10, "activation": "tanh", "use_bias": true, "kernel_initializer": {"class_name": "GlorotUniform", "config": {"seed": null}}, "bias_initializer": {"class_name": "Zeros", "config": {}}, "kernel_regularizer": null, "bias_regularizer": null, "activity_regularizer": null, "kernel_constraint": null, "bias_constraint": null}, "name": "dense_104", "inbound_nodes": [[["input_14", 0, 0, {}]]]}, {"class_name": "Dense", "config": {"name": "dense_105", "trainable": true, "dtype": "float64", "units": 10, "activation": "tanh", "use_bias": true, "kernel_initializer": {"class_name": "GlorotUniform", "config": {"seed": null}}, "bias_initializer": {"class_name": "Zeros", "config": {}}, "kernel_regularizer": null, "bias_regularizer": null, "activity_regularizer": null, "kernel_constraint": null, "bias_constraint": null}, "name": "dense_105", "inbound_nodes": [[["dense_104", 0, 0, {}]]]}, {"class_name": "Dense", "config": {"name": "dense_106", "trainable": true, "dtype": "float64", "units": 10, "activation": "tanh", "use_bias": true, "kernel_initializer": {"class_name": "GlorotUniform", "config": {"seed": null}}, "bias_initializer": {"class_name": "Zeros", "config": {}}, "kernel_regularizer": null, "bias_regularizer": null, "activity_regularizer": null, "kernel_constraint": null, "bias_constraint": null}, "name": "dense_106", "inbound_nodes": [[["dense_105", 0, 0, {}]]]}, {"class_name": "Dense", "config": {"name": "dense_107", "trainable": true, "dtype": "float64", "units": 10, "activation": "tanh", "use_bias": true, "kernel_initializer": {"class_name": "GlorotUniform", "config": {"seed": null}}, "bias_initializer": {"class_name": "Zeros", "config": {}}, "kernel_regularizer": null, "bias_regularizer": null, "activity_regularizer": null, "kernel_constraint": null, "bias_constraint": null}, "name": "dense_107", "inbound_nodes": [[["dense_106", 0, 0, {}]]]}, {"class_name": "Dense", "config": {"name": "dense_108", "trainable": true, "dtype": "float64", "units": 10, "activation": "tanh", "use_bias": true, "kernel_initializer": {"class_name": "GlorotUniform", "config": {"seed": null}}, "bias_initializer": {"class_name": "Zeros", "config": {}}, "kernel_regularizer": null, "bias_regularizer": null, "activity_regularizer": null, "kernel_constraint": null, "bias_constraint": null}, "name": "dense_108", "inbound_nodes": [[["dense_107", 0, 0, {}]]]}, {"class_name": "Dense", "config": {"name": "dense_109", "trainable": true, "dtype": "float64", "units": 10, "activation": "tanh", "use_bias": true, "kernel_initializer": {"class_name": "GlorotUniform", "config": {"seed": null}}, "bias_initializer": {"class_name": "Zeros", "config": {}}, "kernel_regularizer": null, "bias_regularizer": null, "activity_regularizer": null, "kernel_constraint": null, "bias_constraint": null}, "name": "dense_109", "inbound_nodes": [[["dense_108", 0, 0, {}]]]}, {"class_name": "Dense", "config": {"name": "dense_110", "trainable": true, "dtype": "float64", "units": 10, "activation": "tanh", "use_bias": true, "kernel_initializer": {"class_name": "GlorotUniform", "config": {"seed": null}}, "bias_initializer": {"class_name": "Zeros", "config": {}}, "kernel_regularizer": null, "bias_regularizer": null, "activity_regularizer": null, "kernel_constraint": null, "bias_constraint": null}, "name": "dense_110", "inbound_nodes": [[["dense_109", 0, 0, {}]]]}, {"class_name": "Dense", "config": {"name": "dense_111", "trainable": true, "dtype": "float64", "units": 1, "activation": "linear", "use_bias": true, "kernel_initializer": {"class_name": "GlorotUniform", "config": {"seed": null}}, "bias_initializer": {"class_name": "Zeros", "config": {}}, "kernel_regularizer": null, "bias_regularizer": null, "activity_regularizer": null, "kernel_constraint": null, "bias_constraint": null}, "name": "dense_111", "inbound_nodes": [[["dense_110", 0, 0, {}]]]}], "input_layers": [["input_14", 0, 0]], "output_layers": [["dense_111", 0, 0]]}, "summary": ["Model: \"model_13\"", "_________________________________________________________________", "Layer (type)                 Output Shape              Param #   ", "=================================================================", "input_14 (InputLayer)        [(None, 1)]               0         ", "_________________________________________________________________", "dense_104 (Dense)            (None, 10)                20        ", "_________________________________________________________________", "dense_105 (Dense)            (None, 10)                110       ", "_________________________________________________________________", "dense_106 (Dense)            (None, 10)                110       ", "_________________________________________________________________", "dense_107 (Dense)            (None, 10)                110       ", "_________________________________________________________________", "dense_108 (Dense)            (None, 10)                110       ", "_________________________________________________________________", "dense_109 (Dense)            (None, 10)                110       ", "_________________________________________________________________", "dense_110 (Dense)            (None, 10)                110       ", "_________________________________________________________________", "dense_111 (Dense)            (None, 1)                 11        ", "=================================================================", "Total params: 691", "Trainable params: 691", "Non-trainable params: 0", "_________________________________________________________________"]}, "kwargs": {"border_xs": [[1.0]], "border_ys": [[0.0], [3.0]], "inside_xs_builder": "<function linspace_inside_xs_builder_builder.<locals>._inside_xs_builder at 0x7fbeb648c950>", "border_builder": "<function border_builder at 0x7fbebc896710>", "equation_builder": "<function second_order_equation_builder_builder_plus.<locals>.equation_builder at 0x7fbeb648ce60>", "input_dim": 1, "output_dim": 1, "sol": "<function <lambda> at 0x7fbeb648c050>", "random_seed": 1, "N_f": 1000, "epochs": 2000, "clip_grad": 1, "learning_rate": 0.01, "model_builder": "NN[[10, 10, 10, 10, 10, 10, 10]]", "optimizers": [1, 1], "border_loss_multiplier": 1, "ode": "NL-ODEn2"}, "losses": [… "errors": [1.5815058774002004]}, "date": "08:04:40 09 May 2021"}
{"payload": {"model": {"config": {"name": "model_22", "layers": [{"class_name": "InputLayer", "config": {"batch_input_shape": [null, 1], "dtype": "float64", "sparse": false, "ragged": false, "name": "input_23"}, "name": "input_23", "inbound_nodes": []}, {"class_name": "Dense", "config": {"name": "dense_176", "trainable": true, "dtype": "float64", "units": 10, "activation": "tanh", "use_bias": true, "kernel_initializer": {"class_name": "GlorotUniform", "config": {"seed": null}}, "bias_initializer": {"class_name": "Zeros", "config": {}}, "kernel_regularizer": null, "bias_regularizer": null, "activity_regularizer": null, "kernel_constraint": null, "bias_constraint": null}, "name": "dense_176", "inbound_nodes": [[["input_23", 0, 0, {}]]]}, {"class_name": "Dense", "config": {"name": "dense_177", "trainable": true, "dtype": "float64", "units": 10, "activation": "tanh", "use_bias": true, "kernel_initializer": {"class_name": "GlorotUniform", "config": {"seed": null}}, "bias_initializer": {"class_name": "Zeros", "config": {}}, "kernel_regularizer": null, "bias_regularizer": null, "activity_regularizer": null, "kernel_constraint": null, "bias_constraint": null}, "name": "dense_177", "inbound_nodes": [[["dense_176", 0, 0, {}]]]}, {"class_name": "Dense", "config": {"name": "dense_178", "trainable": true, "dtype": "float64", "units": 10, "activation": "tanh", "use_bias": true, "kernel_initializer": {"class_name": "GlorotUniform", "config": {"seed": null}}, "bias_initializer": {"class_name": "Zeros", "config": {}}, "kernel_regularizer": null, "bias_regularizer": null, "activity_regularizer": null, "kernel_constraint": null, "bias_constraint": null}, "name": "dense_178", "inbound_nodes": [[["dense_177", 0, 0, {}]]]}, {"class_name": "Dense", "config": {"name": "dense_179", "trainable": true, "dtype": "float64", "units": 10, "activation": "tanh", "use_bias": true, "kernel_initializer": {"class_name": "GlorotUniform", "config": {"seed": null}}, "bias_initializer": {"class_name": "Zeros", "config": {}}, "kernel_regularizer": null, "bias_regularizer": null, "activity_regularizer": null, "kernel_constraint": null, "bias_constraint": null}, "name": "dense_179", "inbound_nodes": [[["dense_178", 0, 0, {}]]]}, {"class_name": "Dense", "config": {"name": "dense_180", "trainable": true, "dtype": "float64", "units": 10, "activation": "tanh", "use_bias": true, "kernel_initializer": {"class_name": "GlorotUniform", "config": {"seed": null}}, "bias_initializer": {"class_name": "Zeros", "config": {}}, "kernel_regularizer": null, "bias_regularizer": null, "activity_regularizer": null, "kernel_constraint": null, "bias_constraint": null}, "name": "dense_180", "inbound_nodes": [[["dense_179", 0, 0, {}]]]}, {"class_name": "Dense", "config": {"name": "dense_181", "trainable": true, "dtype": "float64", "units": 10, "activation": "tanh", "use_bias": true, "kernel_initializer": {"class_name": "GlorotUniform", "config": {"seed": null}}, "bias_initializer": {"class_name": "Zeros", "config": {}}, "kernel_regularizer": null, "bias_regularizer": null, "activity_regularizer": null, "kernel_constraint": null, "bias_constraint": null}, "name": "dense_181", "inbound_nodes": [[["dense_180", 0, 0, {}]]]}, {"class_name": "Dense", "config": {"name": "dense_182", "trainable": true, "dtype": "float64", "units": 10, "activation": "tanh", "use_bias": true, "kernel_initializer": {"class_name": "GlorotUniform", "config": {"seed": null}}, "bias_initializer": {"class_name": "Zeros", "config": {}}, "kernel_regularizer": null, "bias_regularizer": null, "activity_regularizer": null, "kernel_constraint": null, "bias_constraint": null}, "name": "dense_182", "inbound_nodes": [[["dense_181", 0, 0, {}]]]}, {"class_name": "Dense", "config": {"name": "dense_183", "trainable": true, "dtype": "float64", "units": 2, "activation": "linear", "use_bias": true, "kernel_initializer": {"class_name": "GlorotUniform", "config": {"seed": null}}, "bias_initializer": {"class_name": "Zeros", "config": {}}, "kernel_regularizer": null, "bias_regularizer": null, "activity_regularizer": null, "kernel_constraint": null, "bias_constraint": null}, "name": "dense_183", "inbound_nodes": [[["dense_182", 0, 0, {}]]]}], "input_layers": [["input_23", 0, 0]], "output_layers": [["dense_183", 0, 0]]}, "summary": ["Model: \"model_22\"", "_________________________________________________________________", "Layer (type)                 Output Shape              Param #   ", "=================================================================", "input_23 (InputLayer)        [(None, 1)]               0         ", "_________________________________________________________________", "dense_176 (Dense)            (None, 10)                20        ", "_________________________________________________________________", "dense_177 (Dense)            (None, 10)                110       ", "_________________________________________________________________", "dense_178 (Dense)            (None, 10)                110       ", "_________________________________________________________________", "dense_179 (Dense)            (None, 10)                110       ", "_________________________________________________________________", "dense_180 (Dense)            (None, 10)                110       ", "_________________________________________________________________", "dense_181 (Dense)            (None, 10)                110       ", "_________________________________________________________________", "dense_182 (Dense)            (None, 10)                110       ", "_________________________________________________________________", "dense_183 (Dense)            (None, 2)                 22        ", "=================================================================", "Total params: 702", "Trainable params: 702", "Non-trainable params: 0", "_________________________________________________________________"]}, "kwargs": {"border_xs": [[0.0]], "border_ys": [0.0, 10.0], "inside_xs_builder": "<function linspace_inside_xs_builder_builder.<locals>._inside_xs_builder at 0x7fbebc73fef0>", "border_builder": "<function border_with_function_values_builder at 0x7fbebc896830>", "equation_builder": "<function first_order_equation_builder_builder_plus.<locals>.equation_builder at 0x7fbeb8548ef0>", "input_dim": 1, "output_dim": 2, "sol": "<function <lambda> at 0x7fbeb60cac20>", "random_seed": 1, "N_f": 1000, "epochs": 2000, "clip_grad": 1, "learning_rate": 0.01, "model_builder": "NN[[10, 10, 10, 10, 10, 10, 10]]", "optimizers": [1, 1], "border_loss_multiplier": 1, "ode": "SODE1"}, "losses": [… "errors": [90.64161944935428]}, "date": "08:17:29 09 May 2021"}
{"payload": {"model": {"config": {"name": "model_23", "layers": [{"class_name": "InputLayer", "config": {"batch_input_shape": [null, 1], "dtype": "float64", "sparse": false, "ragged": false, "name": "input_24"}, "name": "input_24", "inbound_nodes": []}, {"class_name": "Dense", "config": {"name": "dense_184", "trainable": true, "dtype": "float64", "units": 10, "activation": "tanh", "use_bias": true, "kernel_initializer": {"class_name": "GlorotUniform", "config": {"seed": null}}, "bias_initializer": {"class_name": "Zeros", "config": {}}, "kernel_regularizer": null, "bias_regularizer": null, "activity_regularizer": null, "kernel_constraint": null, "bias_constraint": null}, "name": "dense_184", "inbound_nodes": [[["input_24", 0, 0, {}]]]}, {"class_name": "Dense", "config": {"name": "dense_185", "trainable": true, "dtype": "float64", "units": 10, "activation": "tanh", "use_bias": true, "kernel_initializer": {"class_name": "GlorotUniform", "config": {"seed": null}}, "bias_initializer": {"class_name": "Zeros", "config": {}}, "kernel_regularizer": null, "bias_regularizer": null, "activity_regularizer": null, "kernel_constraint": null, "bias_constraint": null}, "name": "dense_185", "inbound_nodes": [[["dense_184", 0, 0, {}]]]}, {"class_name": "Dense", "config": {"name": "dense_186", "trainable": true, "dtype": "float64", "units": 10, "activation": "tanh", "use_bias": true, "kernel_initializer": {"class_name": "GlorotUniform", "config": {"seed": null}}, "bias_initializer": {"class_name": "Zeros", "config": {}}, "kernel_regularizer": null, "bias_regularizer": null, "activity_regularizer": null, "kernel_constraint": null, "bias_constraint": null}, "name": "dense_186", "inbound_nodes": [[["dense_185", 0, 0, {}]]]}, {"class_name": "Dense", "config": {"name": "dense_187", "trainable": true, "dtype": "float64", "units": 10, "activation": "tanh", "use_bias": true, "kernel_initializer": {"class_name": "GlorotUniform", "config": {"seed": null}}, "bias_initializer": {"class_name": "Zeros", "config": {}}, "kernel_regularizer": null, "bias_regularizer": null, "activity_regularizer": null, "kernel_constraint": null, "bias_constraint": null}, "name": "dense_187", "inbound_nodes": [[["dense_186", 0, 0, {}]]]}, {"class_name": "Dense", "config": {"name": "dense_188", "trainable": true, "dtype": "float64", "units": 10, "activation": "tanh", "use_bias": true, "kernel_initializer": {"class_name": "GlorotUniform", "config": {"seed": null}}, "bias_initializer": {"class_name": "Zeros", "config": {}}, "kernel_regularizer": null, "bias_regularizer": null, "activity_regularizer": null, "kernel_constraint": null, "bias_constraint": null}, "name": "dense_188", "inbound_nodes": [[["dense_187", 0, 0, {}]]]}, {"class_name": "Dense", "config": {"name": "dense_189", "trainable": true, "dtype": "float64", "units": 10, "activation": "tanh", "use_bias": true, "kernel_initializer": {"class_name": "GlorotUniform", "config": {"seed": null}}, "bias_initializer": {"class_name": "Zeros", "config": {}}, "kernel_regularizer": null, "bias_regularizer": null, "activity_regularizer": null, "kernel_constraint": null, "bias_constraint": null}, "name": "dense_189", "inbound_nodes": [[["dense_188", 0, 0, {}]]]}, {"class_name": "Dense", "config": {"name": "dense_190", "trainable": true, "dtype": "float64", "units": 10, "activation": "tanh", "use_bias": true, "kernel_initializer": {"class_name": "GlorotUniform", "config": {"seed": null}}, "bias_initializer": {"class_name": "Zeros", "config": {}}, "kernel_regularizer": null, "bias_regularizer": null, "activity_regularizer": null, "kernel_constraint": null, "bias_constraint": null}, "name": "dense_190", "inbound_nodes": [[["dense_189", 0, 0, {}]]]}, {"class_name": "Dense", "config": {"name": "dense_191", "trainable": true, "dtype": "float64", "units": 3, "activation": "linear", "use_bias": true, "kernel_initializer": {"class_name": "GlorotUniform", "config": {"seed": null}}, "bias_initializer": {"class_name": "Zeros", "config": {}}, "kernel_regularizer": null, "bias_regularizer": null, "activity_regularizer": null, "kernel_constraint": null, "bias_constraint": null}, "name": "dense_191", "inbound_nodes": [[["dense_190", 0, 0, {}]]]}], "input_layers": [["input_24", 0, 0]], "output_layers": [["dense_191", 0, 0]]}, "summary": ["Model: \"model_23\"", "_________________________________________________________________", "Layer (type)                 Output Shape              Param #   ", "=================================================================", "input_24 (InputLayer)        [(None, 1)]               0         ", "_________________________________________________________________", "dense_184 (Dense)            (None, 10)                20        ", "_________________________________________________________________", "dense_185 (Dense)            (None, 10)                110       ", "_________________________________________________________________", "dense_186 (Dense)            (None, 10)                110       ", "_________________________________________________________________", "dense_187 (Dense)            (None, 10)                110       ", "_________________________________________________________________", "dense_188 (Dense)            (None, 10)                110       ", "_________________________________________________________________", "dense_189 (Dense)            (None, 10)                110       ", "_________________________________________________________________", "dense_190 (Dense)            (None, 10)                110       ", "_________________________________________________________________", "dense_191 (Dense)            (None, 3)                 33        ", "=================================================================", "Total params: 713", "Trainable params: 713", "Non-trainable params: 0", "_________________________________________________________________"]}, "kwargs": {"border_xs": [[0]], "border_ys": [[0, 1, 1]], "inside_xs_builder": "<function linspace_inside_xs_builder_builder.<locals>._inside_xs_builder at 0x7fbeb60caa70>", "border_builder": "<function border_with_function_values_builder at 0x7fbebc896830>", "equation_builder": "<function first_order_equation_builder_builder_plus.<locals>.equation_builder at 0x7fbeb60ca560>", "input_dim": 1, "output_dim": 3, "sol": "<function <lambda> at 0x7fbeb60ca170>", "random_seed": 1, "N_f": 1000, "epochs": 2000, "clip_grad": 1, "learning_rate": 0.01, "model_builder": "NN[[10, 10, 10, 10, 10, 10, 10]]", "optimizers": [1, 1], "border_loss_multiplier": 1, "ode": "SODE2"}, "losses": [… "errors": [1.286051248439008]}, "date": "08:18:22 09 May 2021"}
{"payload": {"model": {"config": {"name": "model_24", "layers": [{"class_name": "InputLayer", "config": {"batch_input_shape": [null, 1], "dtype": "float64", "sparse": false, "ragged": false, "name": "input_25"}, "name": "input_25", "inbound_nodes": []}, {"class_name": "Dense", "config": {"name": "dense_192", "trainable": true, "dtype": "float64", "units": 10, "activation": "tanh", "use_bias": true, "kernel_initializer": {"class_name": "GlorotUniform", "config": {"seed": null}}, "bias_initializer": {"class_name": "Zeros", "config": {}}, "kernel_regularizer": null, "bias_regularizer": null, "activity_regularizer": null, "kernel_constraint": null, "bias_constraint": null}, "name": "dense_192", "inbound_nodes": [[["input_25", 0, 0, {}]]]}, {"class_name": "Dense", "config": {"name": "dense_193", "trainable": true, "dtype": "float64", "units": 10, "activation": "tanh", "use_bias": true, "kernel_initializer": {"class_name": "GlorotUniform", "config": {"seed": null}}, "bias_initializer": {"class_name": "Zeros", "config": {}}, "kernel_regularizer": null, "bias_regularizer": null, "activity_regularizer": null, "kernel_constraint": null, "bias_constraint": null}, "name": "dense_193", "inbound_nodes": [[["dense_192", 0, 0, {}]]]}, {"class_name": "Dense", "config": {"name": "dense_194", "trainable": true, "dtype": "float64", "units": 10, "activation": "tanh", "use_bias": true, "kernel_initializer": {"class_name": "GlorotUniform", "config": {"seed": null}}, "bias_initializer": {"class_name": "Zeros", "config": {}}, "kernel_regularizer": null, "bias_regularizer": null, "activity_regularizer": null, "kernel_constraint": null, "bias_constraint": null}, "name": "dense_194", "inbound_nodes": [[["dense_193", 0, 0, {}]]]}, {"class_name": "Dense", "config": {"name": "dense_195", "trainable": true, "dtype": "float64", "units": 10, "activation": "tanh", "use_bias": true, "kernel_initializer": {"class_name": "GlorotUniform", "config": {"seed": null}}, "bias_initializer": {"class_name": "Zeros", "config": {}}, "kernel_regularizer": null, "bias_regularizer": null, "activity_regularizer": null, "kernel_constraint": null, "bias_constraint": null}, "name": "dense_195", "inbound_nodes": [[["dense_194", 0, 0, {}]]]}, {"class_name": "Dense", "config": {"name": "dense_196", "trainable": true, "dtype": "float64", "units": 10, "activation": "tanh", "use_bias": true, "kernel_initializer": {"class_name": "GlorotUniform", "config": {"seed": null}}, "bias_initializer": {"class_name": "Zeros", "config": {}}, "kernel_regularizer": null, "bias_regularizer": null, "activity_regularizer": null, "kernel_constraint": null, "bias_constraint": null}, "name": "dense_196", "inbound_nodes": [[["dense_195", 0, 0, {}]]]}, {"class_name": "Dense", "config": {"name": "dense_197", "trainable": true, "dtype": "float64", "units": 10, "activation": "tanh", "use_bias": true, "kernel_initializer": {"class_name": "GlorotUniform", "config": {"seed": null}}, "bias_initializer": {"class_name": "Zeros", "config": {}}, "kernel_regularizer": null, "bias_regularizer": null, "activity_regularizer": null, "kernel_constraint": null, "bias_constraint": null}, "name": "dense_197", "inbound_nodes": [[["dense_196", 0, 0, {}]]]}, {"class_name": "Dense", "config": {"name": "dense_198", "trainable": true, "dtype": "float64", "units": 10, "activation": "tanh", "use_bias": true, "kernel_initializer": {"class_name": "GlorotUniform", "config": {"seed": null}}, "bias_initializer": {"class_name": "Zeros", "config": {}}, "kernel_regularizer": null, "bias_regularizer": null, "activity_regularizer": null, "kernel_constraint": null, "bias_constraint": null}, "name": "dense_198", "inbound_nodes": [[["dense_197", 0, 0, {}]]]}, {"class_name": "Dense", "config": {"name": "dense_199", "trainable": true, "dtype": "float64", "units": 3, "activation": "linear", "use_bias": true, "kernel_initializer": {"class_name": "GlorotUniform", "config": {"seed": null}}, "bias_initializer": {"class_name": "Zeros", "config": {}}, "kernel_regularizer": null, "bias_regularizer": null, "activity_regularizer": null, "kernel_constraint": null, "bias_constraint": null}, "name": "dense_199", "inbound_nodes": [[["dense_198", 0, 0, {}]]]}], "input_layers": [["input_25", 0, 0]], "output_layers": [["dense_199", 0, 0]]}, "summary": ["Model: \"model_24\"", "_________________________________________________________________", "Layer (type)                 Output Shape              Param #   ", "=================================================================", "input_25 (InputLayer)        [(None, 1)]               0         ", "_________________________________________________________________", "dense_192 (Dense)            (None, 10)                20        ", "_________________________________________________________________", "dense_193 (Dense)            (None, 10)                110       ", "_________________________________________________________________", "dense_194 (Dense)            (None, 10)                110       ", "_________________________________________________________________", "dense_195 (Dense)            (None, 10)                110       ", "_________________________________________________________________", "dense_196 (Dense)            (None, 10)                110       ", "_________________________________________________________________", "dense_197 (Dense)            (None, 10)                110       ", "_________________________________________________________________", "dense_198 (Dense)            (None, 10)                110       ", "_________________________________________________________________", "dense_199 (Dense)            (None, 3)                 33        ", "=================================================================", "Total params: 713", "Trainable params: 713", "Non-trainable params: 0", "_________________________________________________________________"]}, "kwargs": {"border_xs": [[0]], "border_ys": [[1, 0, 0]], "inside_xs_builder": "<function linspace_inside_xs_builder_builder.<locals>._inside_xs_builder at 0x7fbeb60cab00>", "border_builder": "<function border_with_function_values_builder at 0x7fbebc896830>", "equation_builder": "<function first_order_equation_builder_builder_plus.<locals>.equation_builder at 0x7fbeb60cab90>", "input_dim": 1, "output_dim": 3, "error_f": "<function <lambda> at 0x7fbeb60ca4d0>", "random_seed": 1, "N_f": 1000, "epochs": 2000, "clip_grad": 1, "learning_rate": 0.01, "model_builder": "NN[[10, 10, 10, 10, 10, 10, 10]]", "optimizers": [1, 1], "border_loss_multiplier": 1, "ode": "SODE3"}, "losses": [… "errors": [-1.0]}, "date": "08:21:54 09 May 2021"}
{"payload": {"model": {"config": {"name": "model_26", "layers": [{"class_name": "InputLayer", "config": {"batch_input_shape": [null, 2], "dtype": "float64", "sparse": false, "ragged": false, "name": "input_27"}, "name": "input_27", "inbound_nodes": []}, {"class_name": "Dense", "config": {"name": "dense_208", "trainable": true, "dtype": "float64", "units": 10, "activation": "tanh", "use_bias": true, "kernel_initializer": {"class_name": "GlorotUniform", "config": {"seed": null}}, "bias_initializer": {"class_name": "Zeros", "config": {}}, "kernel_regularizer": null, "bias_regularizer": null, "activity_regularizer": null, "kernel_constraint": null, "bias_constraint": null}, "name": "dense_208", "inbound_nodes": [[["input_27", 0, 0, {}]]]}, {"class_name": "Dense", "config": {"name": "dense_209", "trainable": true, "dtype": "float64", "units": 10, "activation": "tanh", "use_bias": true, "kernel_initializer": {"class_name": "GlorotUniform", "config": {"seed": null}}, "bias_initializer": {"class_name": "Zeros", "config": {}}, "kernel_regularizer": null, "bias_regularizer": null, "activity_regularizer": null, "kernel_constraint": null, "bias_constraint": null}, "name": "dense_209", "inbound_nodes": [[["dense_208", 0, 0, {}]]]}, {"class_name": "Dense", "config": {"name": "dense_210", "trainable": true, "dtype": "float64", "units": 10, "activation": "tanh", "use_bias": true, "kernel_initializer": {"class_name": "GlorotUniform", "config": {"seed": null}}, "bias_initializer": {"class_name": "Zeros", "config": {}}, "kernel_regularizer": null, "bias_regularizer": null, "activity_regularizer": null, "kernel_constraint": null, "bias_constraint": null}, "name": "dense_210", "inbound_nodes": [[["dense_209", 0, 0, {}]]]}, {"class_name": "Dense", "config": {"name": "dense_211", "trainable": true, "dtype": "float64", "units": 10, "activation": "tanh", "use_bias": true, "kernel_initializer": {"class_name": "GlorotUniform", "config": {"seed": null}}, "bias_initializer": {"class_name": "Zeros", "config": {}}, "kernel_regularizer": null, "bias_regularizer": null, "activity_regularizer": null, "kernel_constraint": null, "bias_constraint": null}, "name": "dense_211", "inbound_nodes": [[["dense_210", 0, 0, {}]]]}, {"class_name": "Dense", "config": {"name": "dense_212", "trainable": true, "dtype": "float64", "units": 10, "activation": "tanh", "use_bias": true, "kernel_initializer": {"class_name": "GlorotUniform", "config": {"seed": null}}, "bias_initializer": {"class_name": "Zeros", "config": {}}, "kernel_regularizer": null, "bias_regularizer": null, "activity_regularizer": null, "kernel_constraint": null, "bias_constraint": null}, "name": "dense_212", "inbound_nodes": [[["dense_211", 0, 0, {}]]]}, {"class_name": "Dense", "config": {"name": "dense_213", "trainable": true, "dtype": "float64", "units": 10, "activation": "tanh", "use_bias": true, "kernel_initializer": {"class_name": "GlorotUniform", "config": {"seed": null}}, "bias_initializer": {"class_name": "Zeros", "config": {}}, "kernel_regularizer": null, "bias_regularizer": null, "activity_regularizer": null, "kernel_constraint": null, "bias_constraint": null}, "name": "dense_213", "inbound_nodes": [[["dense_212", 0, 0, {}]]]}, {"class_name": "Dense", "config": {"name": "dense_214", "trainable": true, "dtype": "float64", "units": 10, "activation": "tanh", "use_bias": true, "kernel_initializer": {"class_name": "GlorotUniform", "config": {"seed": null}}, "bias_initializer": {"class_name": "Zeros", "config": {}}, "kernel_regularizer": null, "bias_regularizer": null, "activity_regularizer": null, "kernel_constraint": null, "bias_constraint": null}, "name": "dense_214", "inbound_nodes": [[["dense_213", 0, 0, {}]]]}, {"class_name": "Dense", "config": {"name": "dense_215", "trainable": true, "dtype": "float64", "units": 1, "activation": "linear", "use_bias": true, "kernel_initializer": {"class_name": "GlorotUniform", "config": {"seed": null}}, "bias_initializer": {"class_name": "Zeros", "config": {}}, "kernel_regularizer": null, "bias_regularizer": null, "activity_regularizer": null, "kernel_constraint": null, "bias_constraint": null}, "name": "dense_215", "inbound_nodes": [[["dense_214", 0, 0, {}]]]}], "input_layers": [["input_27", 0, 0]], "output_layers": [["dense_215", 0, 0]]}, "summary": ["Model: \"model_26\"", "_________________________________________________________________", "Layer (type)                 Output Shape              Param #   ", "=================================================================", "input_27 (InputLayer)        [(None, 2)]               0         ", "_________________________________________________________________", "dense_208 (Dense)            (None, 10)                30        ", "_________________________________________________________________", "dense_209 (Dense)            (None, 10)                110       ", "_________________________________________________________________", "dense_210 (Dense)            (None, 10)                110       ", "_________________________________________________________________", "dense_211 (Dense)            (None, 10)                110       ", "_________________________________________________________________", "dense_212 (Dense)            (None, 10)                110       ", "_________________________________________________________________", "dense_213 (Dense)            (None, 10)                110       ", "_________________________________________________________________", "dense_214 (Dense)            (None, 10)                110       ", "_________________________________________________________________", "dense_215 (Dense)            (None, 1)                 11        ", "=================================================================", "Total params: 701", "Trainable params: 701", "Non-trainable params: 0", "_________________________________________________________________"]}, "kwargs": {"border_xs": [[… "border_ys": [… "inside_xs_builder": "<function linspace_inside_xs_builder_builder.<locals>._inside_xs_builder at 0x7fbeb68cc7a0>", "border_builder": "<function border_with_function_values_builder at 0x7fbebc896830>", "equation_builder": "<function first_order_equation_builder_builder_plus.<locals>.equation_builder at 0x7fbeb68ccef0>", "input_dim": 2, "output_dim": 1, "sol": "<function <lambda> at 0x7fbeb68cc8c0>", "random_seed": 1, "N_f": 1000, "epochs": 2000, "clip_grad": 1, "learning_rate": 0.01, "model_builder": "NN[[10, 10, 10, 10, 10, 10, 10]]", "optimizers": [1, 1], "border_loss_multiplier": 1, "ode": "PDE1"}, "losses": [… "errors": [0.1562521864707205]}, "date": "08:29:37 09 May 2021"}
{"payload": {"model": {"config": {"name": "model_28", "layers": [{"class_name": "InputLayer", "config": {"batch_input_shape": [null, 2], "dtype": "float64", "sparse": false, "ragged": false, "name": "input_29"}, "name": "input_29", "inbound_nodes": []}, {"class_name": "Dense", "config": {"name": "dense_224", "trainable": true, "dtype": "float64", "units": 10, "activation": "tanh", "use_bias": true, "kernel_initializer": {"class_name": "GlorotUniform", "config": {"seed": null}}, "bias_initializer": {"class_name": "Zeros", "config": {}}, "kernel_regularizer": null, "bias_regularizer": null, "activity_regularizer": null, "kernel_constraint": null, "bias_constraint": null}, "name": "dense_224", "inbound_nodes": [[["input_29", 0, 0, {}]]]}, {"class_name": "Dense", "config": {"name": "dense_225", "trainable": true, "dtype": "float64", "units": 10, "activation": "tanh", "use_bias": true, "kernel_initializer": {"class_name": "GlorotUniform", "config": {"seed": null}}, "bias_initializer": {"class_name": "Zeros", "config": {}}, "kernel_regularizer": null, "bias_regularizer": null, "activity_regularizer": null, "kernel_constraint": null, "bias_constraint": null}, "name": "dense_225", "inbound_nodes": [[["dense_224", 0, 0, {}]]]}, {"class_name": "Dense", "config": {"name": "dense_226", "trainable": true, "dtype": "float64", "units": 10, "activation": "tanh", "use_bias": true, "kernel_initializer": {"class_name": "GlorotUniform", "config": {"seed": null}}, "bias_initializer": {"class_name": "Zeros", "config": {}}, "kernel_regularizer": null, "bias_regularizer": null, "activity_regularizer": null, "kernel_constraint": null, "bias_constraint": null}, "name": "dense_226", "inbound_nodes": [[["dense_225", 0, 0, {}]]]}, {"class_name": "Dense", "config": {"name": "dense_227", "trainable": true, "dtype": "float64", "units": 10, "activation": "tanh", "use_bias": true, "kernel_initializer": {"class_name": "GlorotUniform", "config": {"seed": null}}, "bias_initializer": {"class_name": "Zeros", "config": {}}, "kernel_regularizer": null, "bias_regularizer": null, "activity_regularizer": null, "kernel_constraint": null, "bias_constraint": null}, "name": "dense_227", "inbound_nodes": [[["dense_226", 0, 0, {}]]]}, {"class_name": "Dense", "config": {"name": "dense_228", "trainable": true, "dtype": "float64", "units": 10, "activation": "tanh", "use_bias": true, "kernel_initializer": {"class_name": "GlorotUniform", "config": {"seed": null}}, "bias_initializer": {"class_name": "Zeros", "config": {}}, "kernel_regularizer": null, "bias_regularizer": null, "activity_regularizer": null, "kernel_constraint": null, "bias_constraint": null}, "name": "dense_228", "inbound_nodes": [[["dense_227", 0, 0, {}]]]}, {"class_name": "Dense", "config": {"name": "dense_229", "trainable": true, "dtype": "float64", "units": 10, "activation": "tanh", "use_bias": true, "kernel_initializer": {"class_name": "GlorotUniform", "config": {"seed": null}}, "bias_initializer": {"class_name": "Zeros", "config": {}}, "kernel_regularizer": null, "bias_regularizer": null, "activity_regularizer": null, "kernel_constraint": null, "bias_constraint": null}, "name": "dense_229", "inbound_nodes": [[["dense_228", 0, 0, {}]]]}, {"class_name": "Dense", "config": {"name": "dense_230", "trainable": true, "dtype": "float64", "units": 10, "activation": "tanh", "use_bias": true, "kernel_initializer": {"class_name": "GlorotUniform", "config": {"seed": null}}, "bias_initializer": {"class_name": "Zeros", "config": {}}, "kernel_regularizer": null, "bias_regularizer": null, "activity_regularizer": null, "kernel_constraint": null, "bias_constraint": null}, "name": "dense_230", "inbound_nodes": [[["dense_229", 0, 0, {}]]]}, {"class_name": "Dense", "config": {"name": "dense_231", "trainable": true, "dtype": "float64", "units": 1, "activation": "linear", "use_bias": true, "kernel_initializer": {"class_name": "GlorotUniform", "config": {"seed": null}}, "bias_initializer": {"class_name": "Zeros", "config": {}}, "kernel_regularizer": null, "bias_regularizer": null, "activity_regularizer": null, "kernel_constraint": null, "bias_constraint": null}, "name": "dense_231", "inbound_nodes": [[["dense_230", 0, 0, {}]]]}], "input_layers": [["input_29", 0, 0]], "output_layers": [["dense_231", 0, 0]]}, "summary": ["Model: \"model_28\"", "_________________________________________________________________", "Layer (type)                 Output Shape              Param #   ", "=================================================================", "input_29 (InputLayer)        [(None, 2)]               0         ", "_________________________________________________________________", "dense_224 (Dense)            (None, 10)                30        ", "_________________________________________________________________", "dense_225 (Dense)            (None, 10)                110       ", "_________________________________________________________________", "dense_226 (Dense)            (None, 10)                110       ", "_________________________________________________________________", "dense_227 (Dense)            (None, 10)                110       ", "_________________________________________________________________", "dense_228 (Dense)            (None, 10)                110       ", "_________________________________________________________________", "dense_229 (Dense)            (None, 10)                110       ", "_________________________________________________________________", "dense_230 (Dense)            (None, 10)                110       ", "_________________________________________________________________", "dense_231 (Dense)            (None, 1)                 11        ", "=================================================================", "Total params: 701", "Trainable params: 701", "Non-trainable params: 0", "_________________________________________________________________"]}, "kwargs": {"border_xs": [[… "border_ys": [… "inside_xs_builder": "<function linspace_inside_xs_builder_builder.<locals>._inside_xs_builder at 0x7fbeb5e8b5f0>", "border_builder": "<function border_with_function_values_builder at 0x7fbebc896830>", "equation_builder": "<function first_order_equation_builder_builder_plus.<locals>.equation_builder at 0x7fbeb5e8bd40>", "input_dim": 2, "output_dim": 1, "sol": "<function <lambda> at 0x7fbeb5e8bc20>", "random_seed": 1, "N_f": 1000, "epochs": 2000, "clip_grad": 1, "learning_rate": 0.01, "model_builder": "NN[[10, 10, 10, 10, 10, 10, 10]]", "optimizers": [1, 1], "border_loss_multiplier": 1, "ode": "PDE2"}, "losses": [… "errors": [0.912093159832008]}, "date": "08:34:01 09 May 2021"}
{"payload": {"model": {"config": {"name": "model_30", "layers": [{"class_name": "InputLayer", "config": {"batch_input_shape": [null, 2], "dtype": "float64", "sparse": false, "ragged": false, "name": "input_31"}, "name": "input_31", "inbound_nodes": []}, {"class_name": "Dense", "config": {"name": "dense_240", "trainable": true, "dtype": "float64", "units": 10, "activation": "tanh", "use_bias": true, "kernel_initializer": {"class_name": "GlorotUniform", "config": {"seed": null}}, "bias_initializer": {"class_name": "Zeros", "config": {}}, "kernel_regularizer": null, "bias_regularizer": null, "activity_regularizer": null, "kernel_constraint": null, "bias_constraint": null}, "name": "dense_240", "inbound_nodes": [[["input_31", 0, 0, {}]]]}, {"class_name": "Dense", "config": {"name": "dense_241", "trainable": true, "dtype": "float64", "units": 10, "activation": "tanh", "use_bias": true, "kernel_initializer": {"class_name": "GlorotUniform", "config": {"seed": null}}, "bias_initializer": {"class_name": "Zeros", "config": {}}, "kernel_regularizer": null, "bias_regularizer": null, "activity_regularizer": null, "kernel_constraint": null, "bias_constraint": null}, "name": "dense_241", "inbound_nodes": [[["dense_240", 0, 0, {}]]]}, {"class_name": "Dense", "config": {"name": "dense_242", "trainable": true, "dtype": "float64", "units": 10, "activation": "tanh", "use_bias": true, "kernel_initializer": {"class_name": "GlorotUniform", "config": {"seed": null}}, "bias_initializer": {"class_name": "Zeros", "config": {}}, "kernel_regularizer": null, "bias_regularizer": null, "activity_regularizer": null, "kernel_constraint": null, "bias_constraint": null}, "name": "dense_242", "inbound_nodes": [[["dense_241", 0, 0, {}]]]}, {"class_name": "Dense", "config": {"name": "dense_243", "trainable": true, "dtype": "float64", "units": 10, "activation": "tanh", "use_bias": true, "kernel_initializer": {"class_name": "GlorotUniform", "config": {"seed": null}}, "bias_initializer": {"class_name": "Zeros", "config": {}}, "kernel_regularizer": null, "bias_regularizer": null, "activity_regularizer": null, "kernel_constraint": null, "bias_constraint": null}, "name": "dense_243", "inbound_nodes": [[["dense_242", 0, 0, {}]]]}, {"class_name": "Dense", "config": {"name": "dense_244", "trainable": true, "dtype": "float64", "units": 10, "activation": "tanh", "use_bias": true, "kernel_initializer": {"class_name": "GlorotUniform", "config": {"seed": null}}, "bias_initializer": {"class_name": "Zeros", "config": {}}, "kernel_regularizer": null, "bias_regularizer": null, "activity_regularizer": null, "kernel_constraint": null, "bias_constraint": null}, "name": "dense_244", "inbound_nodes": [[["dense_243", 0, 0, {}]]]}, {"class_name": "Dense", "config": {"name": "dense_245", "trainable": true, "dtype": "float64", "units": 10, "activation": "tanh", "use_bias": true, "kernel_initializer": {"class_name": "GlorotUniform", "config": {"seed": null}}, "bias_initializer": {"class_name": "Zeros", "config": {}}, "kernel_regularizer": null, "bias_regularizer": null, "activity_regularizer": null, "kernel_constraint": null, "bias_constraint": null}, "name": "dense_245", "inbound_nodes": [[["dense_244", 0, 0, {}]]]}, {"class_name": "Dense", "config": {"name": "dense_246", "trainable": true, "dtype": "float64", "units": 10, "activation": "tanh", "use_bias": true, "kernel_initializer": {"class_name": "GlorotUniform", "config": {"seed": null}}, "bias_initializer": {"class_name": "Zeros", "config": {}}, "kernel_regularizer": null, "bias_regularizer": null, "activity_regularizer": null, "kernel_constraint": null, "bias_constraint": null}, "name": "dense_246", "inbound_nodes": [[["dense_245", 0, 0, {}]]]}, {"class_name": "Dense", "config": {"name": "dense_247", "trainable": true, "dtype": "float64", "units": 1, "activation": "linear", "use_bias": true, "kernel_initializer": {"class_name": "GlorotUniform", "config": {"seed": null}}, "bias_initializer": {"class_name": "Zeros", "config": {}}, "kernel_regularizer": null, "bias_regularizer": null, "activity_regularizer": null, "kernel_constraint": null, "bias_constraint": null}, "name": "dense_247", "inbound_nodes": [[["dense_246", 0, 0, {}]]]}], "input_layers": [["input_31", 0, 0]], "output_layers": [["dense_247", 0, 0]]}, "summary": ["Model: \"model_30\"", "_________________________________________________________________", "Layer (type)                 Output Shape              Param #   ", "=================================================================", "input_31 (InputLayer)        [(None, 2)]               0         ", "_________________________________________________________________", "dense_240 (Dense)            (None, 10)                30        ", "_________________________________________________________________", "dense_241 (Dense)            (None, 10)                110       ", "_________________________________________________________________", "dense_242 (Dense)            (None, 10)                110       ", "_________________________________________________________________", "dense_243 (Dense)            (None, 10)                110       ", "_________________________________________________________________", "dense_244 (Dense)            (None, 10)                110       ", "_________________________________________________________________", "dense_245 (Dense)            (None, 10)                110       ", "_________________________________________________________________", "dense_246 (Dense)            (None, 10)                110       ", "_________________________________________________________________", "dense_247 (Dense)            (None, 1)                 11        ", "=================================================================", "Total params: 701", "Trainable params: 701", "Non-trainable params: 0", "_________________________________________________________________"]}, "kwargs": {"border_xs": [[… "border_ys": [[… "inside_xs_builder": "<function linspace_inside_xs_builder_builder.<locals>._inside_xs_builder at 0x7fbeb68c3cb0>", "border_builder": "<function border_with_function_values_builder at 0x7fbebc896830>", "equation_builder": "<function second_order_equation_builder_builder_plus.<locals>.equation_builder at 0x7fbeb68c3dd0>", "input_dim": 2, "output_dim": 1, "error_f": "<function error_stored.<locals>.error_f at 0x7fbeb68c33b0>", "random_seed": 1, "N_f": 1000, "epochs": 2000, "clip_grad": 1, "learning_rate": 0.01, "model_builder": "NN[[10, 10, 10, 10, 10, 10, 10]]", "optimizers": [1, 1], "border_loss_multiplier": 1, "ode": "PDE6"}, "losses": [… "errors": [1.0616530695075195]}, "date": "08:39:09 09 May 2021"}
