{"payload": {"model": {"config": {"name": "model_32", "layers": [{"class_name": "InputLayer", "config": {"batch_input_shape": [null, 1], "dtype": "float64", "sparse": false, "ragged": false, "name": "input_33"}, "name": "input_33", "inbound_nodes": []}, {"class_name": "Dense", "config": {"name": "dense_256", "trainable": true, "dtype": "float64", "units": 10, "activation": "tanh", "use_bias": true, "kernel_initializer": {"class_name": "GlorotUniform", "config": {"seed": null}}, "bias_initializer": {"class_name": "Zeros", "config": {}}, "kernel_regularizer": null, "bias_regularizer": null, "activity_regularizer": null, "kernel_constraint": null, "bias_constraint": null}, "name": "dense_256", "inbound_nodes": [[["input_33", 0, 0, {}]]]}, {"class_name": "Dense", "config": {"name": "dense_257", "trainable": true, "dtype": "float64", "units": 10, "activation": "tanh", "use_bias": true, "kernel_initializer": {"class_name": "GlorotUniform", "config": {"seed": null}}, "bias_initializer": {"class_name": "Zeros", "config": {}}, "kernel_regularizer": null, "bias_regularizer": null, "activity_regularizer": null, "kernel_constraint": null, "bias_constraint": null}, "name": "dense_257", "inbound_nodes": [[["dense_256", 0, 0, {}]]]}, {"class_name": "Dense", "config": {"name": "dense_258", "trainable": true, "dtype": "float64", "units": 10, "activation": "tanh", "use_bias": true, "kernel_initializer": {"class_name": "GlorotUniform", "config": {"seed": null}}, "bias_initializer": {"class_name": "Zeros", "config": {}}, "kernel_regularizer": null, "bias_regularizer": null, "activity_regularizer": null, "kernel_constraint": null, "bias_constraint": null}, "name": "dense_258", "inbound_nodes": [[["dense_257", 0, 0, {}]]]}, {"class_name": "Dense", "config": {"name": "dense_259", "trainable": true, "dtype": "float64", "units": 10, "activation": "tanh", "use_bias": true, "kernel_initializer": {"class_name": "GlorotUniform", "config": {"seed": null}}, "bias_initializer": {"class_name": "Zeros", "config": {}}, "kernel_regularizer": null, "bias_regularizer": null, "activity_regularizer": null, "kernel_constraint": null, "bias_constraint": null}, "name": "dense_259", "inbound_nodes": [[["dense_258", 0, 0, {}]]]}, {"class_name": "Dense", "config": {"name": "dense_260", "trainable": true, "dtype": "float64", "units": 10, "activation": "tanh", "use_bias": true, "kernel_initializer": {"class_name": "GlorotUniform", "config": {"seed": null}}, "bias_initializer": {"class_name": "Zeros", "config": {}}, "kernel_regularizer": null, "bias_regularizer": null, "activity_regularizer": null, "kernel_constraint": null, "bias_constraint": null}, "name": "dense_260", "inbound_nodes": [[["dense_259", 0, 0, {}]]]}, {"class_name": "Dense", "config": {"name": "dense_261", "trainable": true, "dtype": "float64", "units": 10, "activation": "tanh", "use_bias": true, "kernel_initializer": {"class_name": "GlorotUniform", "config": {"seed": null}}, "bias_initializer": {"class_name": "Zeros", "config": {}}, "kernel_regularizer": null, "bias_regularizer": null, "activity_regularizer": null, "kernel_constraint": null, "bias_constraint": null}, "name": "dense_261", "inbound_nodes": [[["dense_260", 0, 0, {}]]]}, {"class_name": "Dense", "config": {"name": "dense_262", "trainable": true, "dtype": "float64", "units": 10, "activation": "tanh", "use_bias": true, "kernel_initializer": {"class_name": "GlorotUniform", "config": {"seed": null}}, "bias_initializer": {"class_name": "Zeros", "config": {}}, "kernel_regularizer": null, "bias_regularizer": null, "activity_regularizer": null, "kernel_constraint": null, "bias_constraint": null}, "name": "dense_262", "inbound_nodes": [[["dense_261", 0, 0, {}]]]}, {"class_name": "Dense", "config": {"name": "dense_263", "trainable": true, "dtype": "float64", "units": 1, "activation": "linear", "use_bias": true, "kernel_initializer": {"class_name": "GlorotUniform", "config": {"seed": null}}, "bias_initializer": {"class_name": "Zeros", "config": {}}, "kernel_regularizer": null, "bias_regularizer": null, "activity_regularizer": null, "kernel_constraint": null, "bias_constraint": null}, "name": "dense_263", "inbound_nodes": [[["dense_262", 0, 0, {}]]]}], "input_layers": [["input_33", 0, 0]], "output_layers": [["dense_263", 0, 0]]}, "summary": ["Model: \"model_32\"", "_________________________________________________________________", "Layer (type)                 Output Shape              Param #   ", "=================================================================", "input_33 (InputLayer)        [(None, 1)]               0         ", "_________________________________________________________________", "dense_256 (Dense)            (None, 10)                20        ", "_________________________________________________________________", "dense_257 (Dense)            (None, 10)                110       ", "_________________________________________________________________", "dense_258 (Dense)            (None, 10)                110       ", "_________________________________________________________________", "dense_259 (Dense)            (None, 10)                110       ", "_________________________________________________________________", "dense_260 (Dense)            (None, 10)                110       ", "_________________________________________________________________", "dense_261 (Dense)            (None, 10)                110       ", "_________________________________________________________________", "dense_262 (Dense)            (None, 10)                110       ", "_________________________________________________________________", "dense_263 (Dense)            (None, 1)                 11        ", "=================================================================", "Total params: 691", "Trainable params: 691", "Non-trainable params: 0", "_________________________________________________________________"]}, "kwargs": {"border_xs": [[0.0]], "border_ys": [[1.0]], "inside_xs_builder": "<function linspace_inside_xs_builder_builder.<locals>._inside_xs_builder at 0x7fbeb65d5d40>", "border_builder": "<function border_with_function_values_builder at 0x7fbeb64d3560>", "equation_builder": "<function first_order_equation_builder_builder.<locals>.equation_builder at 0x7fbeb63f1c20>", "input_dim": 1, "output_dim": 1, "sol": "<function <lambda> at 0x7fbebc896320>", "random_seed": 1, "N_f": 1000, "epochs": 2000, "clip_grad": 1, "learning_rate": 0.01, "model_builder": "NN[[10, 10, 10, 10, 10, 10, 10]]", "optimizers": [1, 1], "border_loss_multiplier": 1, "ode": "L-ODE1"}, "losses": [… "errors": [5.2106047811631876e-09]}, "date": "08:50:31 09 May 2021"}
{"payload": {"model": {"config": {"name": "model_33", "layers": [{"class_name": "InputLayer", "config": {"batch_input_shape": [null, 1], "dtype": "float64", "sparse": false, "ragged": false, "name": "input_34"}, "name": "input_34", "inbound_nodes": []}, {"class_name": "Dense", "config": {"name": "dense_264", "trainable": true, "dtype": "float64", "units": 10, "activation": "tanh", "use_bias": true, "kernel_initializer": {"class_name": "GlorotUniform", "config": {"seed": null}}, "bias_initializer": {"class_name": "Zeros", "config": {}}, "kernel_regularizer": null, "bias_regularizer": null, "activity_regularizer": null, "kernel_constraint": null, "bias_constraint": null}, "name": "dense_264", "inbound_nodes": [[["input_34", 0, 0, {}]]]}, {"class_name": "Dense", "config": {"name": "dense_265", "trainable": true, "dtype": "float64", "units": 10, "activation": "tanh", "use_bias": true, "kernel_initializer": {"class_name": "GlorotUniform", "config": {"seed": null}}, "bias_initializer": {"class_name": "Zeros", "config": {}}, "kernel_regularizer": null, "bias_regularizer": null, "activity_regularizer": null, "kernel_constraint": null, "bias_constraint": null}, "name": "dense_265", "inbound_nodes": [[["dense_264", 0, 0, {}]]]}, {"class_name": "Dense", "config": {"name": "dense_266", "trainable": true, "dtype": "float64", "units": 10, "activation": "tanh", "use_bias": true, "kernel_initializer": {"class_name": "GlorotUniform", "config": {"seed": null}}, "bias_initializer": {"class_name": "Zeros", "config": {}}, "kernel_regularizer": null, "bias_regularizer": null, "activity_regularizer": null, "kernel_constraint": null, "bias_constraint": null}, "name": "dense_266", "inbound_nodes": [[["dense_265", 0, 0, {}]]]}, {"class_name": "Dense", "config": {"name": "dense_267", "trainable": true, "dtype": "float64", "units": 10, "activation": "tanh", "use_bias": true, "kernel_initializer": {"class_name": "GlorotUniform", "config": {"seed": null}}, "bias_initializer": {"class_name": "Zeros", "config": {}}, "kernel_regularizer": null, "bias_regularizer": null, "activity_regularizer": null, "kernel_constraint": null, "bias_constraint": null}, "name": "dense_267", "inbound_nodes": [[["dense_266", 0, 0, {}]]]}, {"class_name": "Dense", "config": {"name": "dense_268", "trainable": true, "dtype": "float64", "units": 10, "activation": "tanh", "use_bias": true, "kernel_initializer": {"class_name": "GlorotUniform", "config": {"seed": null}}, "bias_initializer": {"class_name": "Zeros", "config": {}}, "kernel_regularizer": null, "bias_regularizer": null, "activity_regularizer": null, "kernel_constraint": null, "bias_constraint": null}, "name": "dense_268", "inbound_nodes": [[["dense_267", 0, 0, {}]]]}, {"class_name": "Dense", "config": {"name": "dense_269", "trainable": true, "dtype": "float64", "units": 10, "activation": "tanh", "use_bias": true, "kernel_initializer": {"class_name": "GlorotUniform", "config": {"seed": null}}, "bias_initializer": {"class_name": "Zeros", "config": {}}, "kernel_regularizer": null, "bias_regularizer": null, "activity_regularizer": null, "kernel_constraint": null, "bias_constraint": null}, "name": "dense_269", "inbound_nodes": [[["dense_268", 0, 0, {}]]]}, {"class_name": "Dense", "config": {"name": "dense_270", "trainable": true, "dtype": "float64", "units": 10, "activation": "tanh", "use_bias": true, "kernel_initializer": {"class_name": "GlorotUniform", "config": {"seed": null}}, "bias_initializer": {"class_name": "Zeros", "config": {}}, "kernel_regularizer": null, "bias_regularizer": null, "activity_regularizer": null, "kernel_constraint": null, "bias_constraint": null}, "name": "dense_270", "inbound_nodes": [[["dense_269", 0, 0, {}]]]}, {"class_name": "Dense", "config": {"name": "dense_271", "trainable": true, "dtype": "float64", "units": 1, "activation": "linear", "use_bias": true, "kernel_initializer": {"class_name": "GlorotUniform", "config": {"seed": null}}, "bias_initializer": {"class_name": "Zeros", "config": {}}, "kernel_regularizer": null, "bias_regularizer": null, "activity_regularizer": null, "kernel_constraint": null, "bias_constraint": null}, "name": "dense_271", "inbound_nodes": [[["dense_270", 0, 0, {}]]]}], "input_layers": [["input_34", 0, 0]], "output_layers": [["dense_271", 0, 0]]}, "summary": ["Model: \"model_33\"", "_________________________________________________________________", "Layer (type)                 Output Shape              Param #   ", "=================================================================", "input_34 (InputLayer)        [(None, 1)]               0         ", "_________________________________________________________________", "dense_264 (Dense)            (None, 10)                20        ", "_________________________________________________________________", "dense_265 (Dense)            (None, 10)                110       ", "_________________________________________________________________", "dense_266 (Dense)            (None, 10)                110       ", "_________________________________________________________________", "dense_267 (Dense)            (None, 10)                110       ", "_________________________________________________________________", "dense_268 (Dense)            (None, 10)                110       ", "_________________________________________________________________", "dense_269 (Dense)            (None, 10)                110       ", "_________________________________________________________________", "dense_270 (Dense)            (None, 10)                110       ", "_________________________________________________________________", "dense_271 (Dense)            (None, 1)                 11        ", "=================================================================", "Total params: 691", "Trainable params: 691", "Non-trainable params: 0", "_________________________________________________________________"]}, "kwargs": {"border_xs": [[0.0]], "border_ys": [[1.0]], "inside_xs_builder": "<function linspace_inside_xs_builder_builder.<locals>._inside_xs_builder at 0x7fbebc896b00>", "border_builder": "<function border_with_function_values_builder at 0x7fbeb64d3560>", "equation_builder": "<function first_order_equation_builder_builder.<locals>.equation_builder at 0x7fbebc896c20>", "input_dim": 1, "output_dim": 1, "sol": "<function <lambda> at 0x7fbeb64ea200>", "random_seed": 1, "N_f": 1000, "epochs": 2000, "clip_grad": 1, "learning_rate": 0.01, "model_builder": "NN[[10, 10, 10, 10, 10, 10, 10]]", "optimizers": [1, 1], "border_loss_multiplier": 1, "ode": "L-ODE2"}, "losses": [… "errors": [6.146966387503645e-09]}, "date": "08:51:16 09 May 2021"}
{"payload": {"model": {"config": {"name": "model_34", "layers": [{"class_name": "InputLayer", "config": {"batch_input_shape": [null, 1], "dtype": "float64", "sparse": false, "ragged": false, "name": "input_35"}, "name": "input_35", "inbound_nodes": []}, {"class_name": "Dense", "config": {"name": "dense_272", "trainable": true, "dtype": "float64", "units": 10, "activation": "tanh", "use_bias": true, "kernel_initializer": {"class_name": "GlorotUniform", "config": {"seed": null}}, "bias_initializer": {"class_name": "Zeros", "config": {}}, "kernel_regularizer": null, "bias_regularizer": null, "activity_regularizer": null, "kernel_constraint": null, "bias_constraint": null}, "name": "dense_272", "inbound_nodes": [[["input_35", 0, 0, {}]]]}, {"class_name": "Dense", "config": {"name": "dense_273", "trainable": true, "dtype": "float64", "units": 10, "activation": "tanh", "use_bias": true, "kernel_initializer": {"class_name": "GlorotUniform", "config": {"seed": null}}, "bias_initializer": {"class_name": "Zeros", "config": {}}, "kernel_regularizer": null, "bias_regularizer": null, "activity_regularizer": null, "kernel_constraint": null, "bias_constraint": null}, "name": "dense_273", "inbound_nodes": [[["dense_272", 0, 0, {}]]]}, {"class_name": "Dense", "config": {"name": "dense_274", "trainable": true, "dtype": "float64", "units": 10, "activation": "tanh", "use_bias": true, "kernel_initializer": {"class_name": "GlorotUniform", "config": {"seed": null}}, "bias_initializer": {"class_name": "Zeros", "config": {}}, "kernel_regularizer": null, "bias_regularizer": null, "activity_regularizer": null, "kernel_constraint": null, "bias_constraint": null}, "name": "dense_274", "inbound_nodes": [[["dense_273", 0, 0, {}]]]}, {"class_name": "Dense", "config": {"name": "dense_275", "trainable": true, "dtype": "float64", "units": 10, "activation": "tanh", "use_bias": true, "kernel_initializer": {"class_name": "GlorotUniform", "config": {"seed": null}}, "bias_initializer": {"class_name": "Zeros", "config": {}}, "kernel_regularizer": null, "bias_regularizer": null, "activity_regularizer": null, "kernel_constraint": null, "bias_constraint": null}, "name": "dense_275", "inbound_nodes": [[["dense_274", 0, 0, {}]]]}, {"class_name": "Dense", "config": {"name": "dense_276", "trainable": true, "dtype": "float64", "units": 10, "activation": "tanh", "use_bias": true, "kernel_initializer": {"class_name": "GlorotUniform", "config": {"seed": null}}, "bias_initializer": {"class_name": "Zeros", "config": {}}, "kernel_regularizer": null, "bias_regularizer": null, "activity_regularizer": null, "kernel_constraint": null, "bias_constraint": null}, "name": "dense_276", "inbound_nodes": [[["dense_275", 0, 0, {}]]]}, {"class_name": "Dense", "config": {"name": "dense_277", "trainable": true, "dtype": "float64", "units": 10, "activation": "tanh", "use_bias": true, "kernel_initializer": {"class_name": "GlorotUniform", "config": {"seed": null}}, "bias_initializer": {"class_name": "Zeros", "config": {}}, "kernel_regularizer": null, "bias_regularizer": null, "activity_regularizer": null, "kernel_constraint": null, "bias_constraint": null}, "name": "dense_277", "inbound_nodes": [[["dense_276", 0, 0, {}]]]}, {"class_name": "Dense", "config": {"name": "dense_278", "trainable": true, "dtype": "float64", "units": 10, "activation": "tanh", "use_bias": true, "kernel_initializer": {"class_name": "GlorotUniform", "config": {"seed": null}}, "bias_initializer": {"class_name": "Zeros", "config": {}}, "kernel_regularizer": null, "bias_regularizer": null, "activity_regularizer": null, "kernel_constraint": null, "bias_constraint": null}, "name": "dense_278", "inbound_nodes": [[["dense_277", 0, 0, {}]]]}, {"class_name": "Dense", "config": {"name": "dense_279", "trainable": true, "dtype": "float64", "units": 1, "activation": "linear", "use_bias": true, "kernel_initializer": {"class_name": "GlorotUniform", "config": {"seed": null}}, "bias_initializer": {"class_name": "Zeros", "config": {}}, "kernel_regularizer": null, "bias_regularizer": null, "activity_regularizer": null, "kernel_constraint": null, "bias_constraint": null}, "name": "dense_279", "inbound_nodes": [[["dense_278", 0, 0, {}]]]}], "input_layers": [["input_35", 0, 0]], "output_layers": [["dense_279", 0, 0]]}, "summary": ["Model: \"model_34\"", "_________________________________________________________________", "Layer (type)                 Output Shape              Param #   ", "=================================================================", "input_35 (InputLayer)        [(None, 1)]               0         ", "_________________________________________________________________", "dense_272 (Dense)            (None, 10)                20        ", "_________________________________________________________________", "dense_273 (Dense)            (None, 10)                110       ", "_________________________________________________________________", "dense_274 (Dense)            (None, 10)                110       ", "_________________________________________________________________", "dense_275 (Dense)            (None, 10)                110       ", "_________________________________________________________________", "dense_276 (Dense)            (None, 10)                110       ", "_________________________________________________________________", "dense_277 (Dense)            (None, 10)                110       ", "_________________________________________________________________", "dense_278 (Dense)            (None, 10)                110       ", "_________________________________________________________________", "dense_279 (Dense)            (None, 1)                 11        ", "=================================================================", "Total params: 691", "Trainable params: 691", "Non-trainable params: 0", "_________________________________________________________________"]}, "kwargs": {"border_xs": [[0.0]], "border_ys": [[1.0]], "inside_xs_builder": "<function linspace_inside_xs_builder_builder.<locals>._inside_xs_builder at 0x7fbeb64ea0e0>", "border_builder": "<function border_with_function_values_builder at 0x7fbeb64d3560>", "equation_builder": "<function first_order_equation_builder_builder.<locals>.equation_builder at 0x7fbeb64eaef0>", "input_dim": 1, "output_dim": 1, "sol": "<function <lambda> at 0x7fbeb64ea4d0>", "random_seed": 1, "N_f": 1000, "epochs": 2000, "clip_grad": 1, "learning_rate": 0.01, "model_builder": "NN[[10, 10, 10, 10, 10, 10, 10]]", "optimizers": [1, 1], "border_loss_multiplier": 1, "ode": "L-ODE3"}, "losses": [… "errors": [3.527852055786017e-08]}, "date": "08:52:02 09 May 2021"}
{"payload": {"model": {"config": {"name": "model_35", "layers": [{"class_name": "InputLayer", "config": {"batch_input_shape": [null, 1], "dtype": "float64", "sparse": false, "ragged": false, "name": "input_36"}, "name": "input_36", "inbound_nodes": []}, {"class_name": "Dense", "config": {"name": "dense_280", "trainable": true, "dtype": "float64", "units": 10, "activation": "tanh", "use_bias": true, "kernel_initializer": {"class_name": "GlorotUniform", "config": {"seed": null}}, "bias_initializer": {"class_name": "Zeros", "config": {}}, "kernel_regularizer": null, "bias_regularizer": null, "activity_regularizer": null, "kernel_constraint": null, "bias_constraint": null}, "name": "dense_280", "inbound_nodes": [[["input_36", 0, 0, {}]]]}, {"class_name": "Dense", "config": {"name": "dense_281", "trainable": true, "dtype": "float64", "units": 10, "activation": "tanh", "use_bias": true, "kernel_initializer": {"class_name": "GlorotUniform", "config": {"seed": null}}, "bias_initializer": {"class_name": "Zeros", "config": {}}, "kernel_regularizer": null, "bias_regularizer": null, "activity_regularizer": null, "kernel_constraint": null, "bias_constraint": null}, "name": "dense_281", "inbound_nodes": [[["dense_280", 0, 0, {}]]]}, {"class_name": "Dense", "config": {"name": "dense_282", "trainable": true, "dtype": "float64", "units": 10, "activation": "tanh", "use_bias": true, "kernel_initializer": {"class_name": "GlorotUniform", "config": {"seed": null}}, "bias_initializer": {"class_name": "Zeros", "config": {}}, "kernel_regularizer": null, "bias_regularizer": null, "activity_regularizer": null, "kernel_constraint": null, "bias_constraint": null}, "name": "dense_282", "inbound_nodes": [[["dense_281", 0, 0, {}]]]}, {"class_name": "Dense", "config": {"name": "dense_283", "trainable": true, "dtype": "float64", "units": 10, "activation": "tanh", "use_bias": true, "kernel_initializer": {"class_name": "GlorotUniform", "config": {"seed": null}}, "bias_initializer": {"class_name": "Zeros", "config": {}}, "kernel_regularizer": null, "bias_regularizer": null, "activity_regularizer": null, "kernel_constraint": null, "bias_constraint": null}, "name": "dense_283", "inbound_nodes": [[["dense_282", 0, 0, {}]]]}, {"class_name": "Dense", "config": {"name": "dense_284", "trainable": true, "dtype": "float64", "units": 10, "activation": "tanh", "use_bias": true, "kernel_initializer": {"class_name": "GlorotUniform", "config": {"seed": null}}, "bias_initializer": {"class_name": "Zeros", "config": {}}, "kernel_regularizer": null, "bias_regularizer": null, "activity_regularizer": null, "kernel_constraint": null, "bias_constraint": null}, "name": "dense_284", "inbound_nodes": [[["dense_283", 0, 0, {}]]]}, {"class_name": "Dense", "config": {"name": "dense_285", "trainable": true, "dtype": "float64", "units": 10, "activation": "tanh", "use_bias": true, "kernel_initializer": {"class_name": "GlorotUniform", "config": {"seed": null}}, "bias_initializer": {"class_name": "Zeros", "config": {}}, "kernel_regularizer": null, "bias_regularizer": null, "activity_regularizer": null, "kernel_constraint": null, "bias_constraint": null}, "name": "dense_285", "inbound_nodes": [[["dense_284", 0, 0, {}]]]}, {"class_name": "Dense", "config": {"name": "dense_286", "trainable": true, "dtype": "float64", "units": 10, "activation": "tanh", "use_bias": true, "kernel_initializer": {"class_name": "GlorotUniform", "config": {"seed": null}}, "bias_initializer": {"class_name": "Zeros", "config": {}}, "kernel_regularizer": null, "bias_regularizer": null, "activity_regularizer": null, "kernel_constraint": null, "bias_constraint": null}, "name": "dense_286", "inbound_nodes": [[["dense_285", 0, 0, {}]]]}, {"class_name": "Dense", "config": {"name": "dense_287", "trainable": true, "dtype": "float64", "units": 1, "activation": "linear", "use_bias": true, "kernel_initializer": {"class_name": "GlorotUniform", "config": {"seed": null}}, "bias_initializer": {"class_name": "Zeros", "config": {}}, "kernel_regularizer": null, "bias_regularizer": null, "activity_regularizer": null, "kernel_constraint": null, "bias_constraint": null}, "name": "dense_287", "inbound_nodes": [[["dense_286", 0, 0, {}]]]}], "input_layers": [["input_36", 0, 0]], "output_layers": [["dense_287", 0, 0]]}, "summary": ["Model: \"model_35\"", "_________________________________________________________________", "Layer (type)                 Output Shape              Param #   ", "=================================================================", "input_36 (InputLayer)        [(None, 1)]               0         ", "_________________________________________________________________", "dense_280 (Dense)            (None, 10)                20        ", "_________________________________________________________________", "dense_281 (Dense)            (None, 10)                110       ", "_________________________________________________________________", "dense_282 (Dense)            (None, 10)                110       ", "_________________________________________________________________", "dense_283 (Dense)            (None, 10)                110       ", "_________________________________________________________________", "dense_284 (Dense)            (None, 10)                110       ", "_________________________________________________________________", "dense_285 (Dense)            (None, 10)                110       ", "_________________________________________________________________", "dense_286 (Dense)            (None, 10)                110       ", "_________________________________________________________________", "dense_287 (Dense)            (None, 1)                 11        ", "=================================================================", "Total params: 691", "Trainable params: 691", "Non-trainable params: 0", "_________________________________________________________________"]}, "kwargs": {"border_xs": [[0.0]], "border_ys": [[1.0]], "inside_xs_builder": "<function linspace_inside_xs_builder_builder.<locals>._inside_xs_builder at 0x7fbeb64ea050>", "border_builder": "<function border_with_function_values_builder at 0x7fbeb64d3560>", "equation_builder": "<function first_order_equation_builder_builder.<locals>.equation_builder at 0x7fbeb64ea8c0>", "input_dim": 1, "output_dim": 1, "sol": "<function <lambda> at 0x7fbeb64ead40>", "random_seed": 1, "N_f": 1000, "epochs": 2000, "clip_grad": 1, "learning_rate": 0.01, "model_builder": "NN[[10, 10, 10, 10, 10, 10, 10]]", "optimizers": [1, 1], "border_loss_multiplier": 1, "ode": "L-ODE4"}, "losses": [… "errors": [23591323.633786034]}, "date": "08:52:49 09 May 2021"}
{"payload": {"model": {"config": {"name": "model_36", "layers": [{"class_name": "InputLayer", "config": {"batch_input_shape": [null, 1], "dtype": "float64", "sparse": false, "ragged": false, "name": "input_37"}, "name": "input_37", "inbound_nodes": []}, {"class_name": "Dense", "config": {"name": "dense_288", "trainable": true, "dtype": "float64", "units": 10, "activation": "tanh", "use_bias": true, "kernel_initializer": {"class_name": "GlorotUniform", "config": {"seed": null}}, "bias_initializer": {"class_name": "Zeros", "config": {}}, "kernel_regularizer": null, "bias_regularizer": null, "activity_regularizer": null, "kernel_constraint": null, "bias_constraint": null}, "name": "dense_288", "inbound_nodes": [[["input_37", 0, 0, {}]]]}, {"class_name": "Dense", "config": {"name": "dense_289", "trainable": true, "dtype": "float64", "units": 10, "activation": "tanh", "use_bias": true, "kernel_initializer": {"class_name": "GlorotUniform", "config": {"seed": null}}, "bias_initializer": {"class_name": "Zeros", "config": {}}, "kernel_regularizer": null, "bias_regularizer": null, "activity_regularizer": null, "kernel_constraint": null, "bias_constraint": null}, "name": "dense_289", "inbound_nodes": [[["dense_288", 0, 0, {}]]]}, {"class_name": "Dense", "config": {"name": "dense_290", "trainable": true, "dtype": "float64", "units": 10, "activation": "tanh", "use_bias": true, "kernel_initializer": {"class_name": "GlorotUniform", "config": {"seed": null}}, "bias_initializer": {"class_name": "Zeros", "config": {}}, "kernel_regularizer": null, "bias_regularizer": null, "activity_regularizer": null, "kernel_constraint": null, "bias_constraint": null}, "name": "dense_290", "inbound_nodes": [[["dense_289", 0, 0, {}]]]}, {"class_name": "Dense", "config": {"name": "dense_291", "trainable": true, "dtype": "float64", "units": 10, "activation": "tanh", "use_bias": true, "kernel_initializer": {"class_name": "GlorotUniform", "config": {"seed": null}}, "bias_initializer": {"class_name": "Zeros", "config": {}}, "kernel_regularizer": null, "bias_regularizer": null, "activity_regularizer": null, "kernel_constraint": null, "bias_constraint": null}, "name": "dense_291", "inbound_nodes": [[["dense_290", 0, 0, {}]]]}, {"class_name": "Dense", "config": {"name": "dense_292", "trainable": true, "dtype": "float64", "units": 10, "activation": "tanh", "use_bias": true, "kernel_initializer": {"class_name": "GlorotUniform", "config": {"seed": null}}, "bias_initializer": {"class_name": "Zeros", "config": {}}, "kernel_regularizer": null, "bias_regularizer": null, "activity_regularizer": null, "kernel_constraint": null, "bias_constraint": null}, "name": "dense_292", "inbound_nodes": [[["dense_291", 0, 0, {}]]]}, {"class_name": "Dense", "config": {"name": "dense_293", "trainable": true, "dtype": "float64", "units": 10, "activation": "tanh", "use_bias": true, "kernel_initializer": {"class_name": "GlorotUniform", "config": {"seed": null}}, "bias_initializer": {"class_name": "Zeros", "config": {}}, "kernel_regularizer": null, "bias_regularizer": null, "activity_regularizer": null, "kernel_constraint": null, "bias_constraint": null}, "name": "dense_293", "inbound_nodes": [[["dense_292", 0, 0, {}]]]}, {"class_name": "Dense", "config": {"name": "dense_294", "trainable": true, "dtype": "float64", "units": 10, "activation": "tanh", "use_bias": true, "kernel_initializer": {"class_name": "GlorotUniform", "config": {"seed": null}}, "bias_initializer": {"class_name": "Zeros", "config": {}}, "kernel_regularizer": null, "bias_regularizer": null, "activity_regularizer": null, "kernel_constraint": null, "bias_constraint": null}, "name": "dense_294", "inbound_nodes": [[["dense_293", 0, 0, {}]]]}, {"class_name": "Dense", "config": {"name": "dense_295", "trainable": true, "dtype": "float64", "units": 1, "activation": "linear", "use_bias": true, "kernel_initializer": {"class_name": "GlorotUniform", "config": {"seed": null}}, "bias_initializer": {"class_name": "Zeros", "config": {}}, "kernel_regularizer": null, "bias_regularizer": null, "activity_regularizer": null, "kernel_constraint": null, "bias_constraint": null}, "name": "dense_295", "inbound_nodes": [[["dense_294", 0, 0, {}]]]}], "input_layers": [["input_37", 0, 0]], "output_layers": [["dense_295", 0, 0]]}, "summary": ["Model: \"model_36\"", "_________________________________________________________________", "Layer (type)                 Output Shape              Param #   ", "=================================================================", "input_37 (InputLayer)        [(None, 1)]               0         ", "_________________________________________________________________", "dense_288 (Dense)            (None, 10)                20        ", "_________________________________________________________________", "dense_289 (Dense)            (None, 10)                110       ", "_________________________________________________________________", "dense_290 (Dense)            (None, 10)                110       ", "_________________________________________________________________", "dense_291 (Dense)            (None, 10)                110       ", "_________________________________________________________________", "dense_292 (Dense)            (None, 10)                110       ", "_________________________________________________________________", "dense_293 (Dense)            (None, 10)                110       ", "_________________________________________________________________", "dense_294 (Dense)            (None, 10)                110       ", "_________________________________________________________________", "dense_295 (Dense)            (None, 1)                 11        ", "=================================================================", "Total params: 691", "Trainable params: 691", "Non-trainable params: 0", "_________________________________________________________________"]}, "kwargs": {"border_xs": [[0.0]], "border_ys": [[1.0]], "inside_xs_builder": "<function linspace_inside_xs_builder_builder.<locals>._inside_xs_builder at 0x7fbeb64ea7a0>", "border_builder": "<function border_with_function_values_builder at 0x7fbeb64d3560>", "equation_builder": "<function first_order_equation_builder_builder.<locals>.equation_builder at 0x7fbeb636b830>", "input_dim": 1, "output_dim": 1, "sol": "<function <lambda> at 0x7fbeb636b680>", "random_seed": 1, "N_f": 1000, "epochs": 2000, "clip_grad": 1, "learning_rate": 0.01, "model_builder": "NN[[10, 10, 10, 10, 10, 10, 10]]", "optimizers": [1, 1], "border_loss_multiplier": 1, "ode": "L-ODE5"}, "losses": [… "errors": [2.99819370587065e-09]}, "date": "08:53:37 09 May 2021"}
{"payload": {"model": {"config": {"name": "model_37", "layers": [{"class_name": "InputLayer", "config": {"batch_input_shape": [null, 1], "dtype": "float64", "sparse": false, "ragged": false, "name": "input_38"}, "name": "input_38", "inbound_nodes": []}, {"class_name": "Dense", "config": {"name": "dense_296", "trainable": true, "dtype": "float64", "units": 10, "activation": "tanh", "use_bias": true, "kernel_initializer": {"class_name": "GlorotUniform", "config": {"seed": null}}, "bias_initializer": {"class_name": "Zeros", "config": {}}, "kernel_regularizer": null, "bias_regularizer": null, "activity_regularizer": null, "kernel_constraint": null, "bias_constraint": null}, "name": "dense_296", "inbound_nodes": [[["input_38", 0, 0, {}]]]}, {"class_name": "Dense", "config": {"name": "dense_297", "trainable": true, "dtype": "float64", "units": 10, "activation": "tanh", "use_bias": true, "kernel_initializer": {"class_name": "GlorotUniform", "config": {"seed": null}}, "bias_initializer": {"class_name": "Zeros", "config": {}}, "kernel_regularizer": null, "bias_regularizer": null, "activity_regularizer": null, "kernel_constraint": null, "bias_constraint": null}, "name": "dense_297", "inbound_nodes": [[["dense_296", 0, 0, {}]]]}, {"class_name": "Dense", "config": {"name": "dense_298", "trainable": true, "dtype": "float64", "units": 10, "activation": "tanh", "use_bias": true, "kernel_initializer": {"class_name": "GlorotUniform", "config": {"seed": null}}, "bias_initializer": {"class_name": "Zeros", "config": {}}, "kernel_regularizer": null, "bias_regularizer": null, "activity_regularizer": null, "kernel_constraint": null, "bias_constraint": null}, "name": "dense_298", "inbound_nodes": [[["dense_297", 0, 0, {}]]]}, {"class_name": "Dense", "config": {"name": "dense_299", "trainable": true, "dtype": "float64", "units": 10, "activation": "tanh", "use_bias": true, "kernel_initializer": {"class_name": "GlorotUniform", "config": {"seed": null}}, "bias_initializer": {"class_name": "Zeros", "config": {}}, "kernel_regularizer": null, "bias_regularizer": null, "activity_regularizer": null, "kernel_constraint": null, "bias_constraint": null}, "name": "dense_299", "inbound_nodes": [[["dense_298", 0, 0, {}]]]}, {"class_name": "Dense", "config": {"name": "dense_300", "trainable": true, "dtype": "float64", "units": 10, "activation": "tanh", "use_bias": true, "kernel_initializer": {"class_name": "GlorotUniform", "config": {"seed": null}}, "bias_initializer": {"class_name": "Zeros", "config": {}}, "kernel_regularizer": null, "bias_regularizer": null, "activity_regularizer": null, "kernel_constraint": null, "bias_constraint": null}, "name": "dense_300", "inbound_nodes": [[["dense_299", 0, 0, {}]]]}, {"class_name": "Dense", "config": {"name": "dense_301", "trainable": true, "dtype": "float64", "units": 10, "activation": "tanh", "use_bias": true, "kernel_initializer": {"class_name": "GlorotUniform", "config": {"seed": null}}, "bias_initializer": {"class_name": "Zeros", "config": {}}, "kernel_regularizer": null, "bias_regularizer": null, "activity_regularizer": null, "kernel_constraint": null, "bias_constraint": null}, "name": "dense_301", "inbound_nodes": [[["dense_300", 0, 0, {}]]]}, {"class_name": "Dense", "config": {"name": "dense_302", "trainable": true, "dtype": "float64", "units": 10, "activation": "tanh", "use_bias": true, "kernel_initializer": {"class_name": "GlorotUniform", "config": {"seed": null}}, "bias_initializer": {"class_name": "Zeros", "config": {}}, "kernel_regularizer": null, "bias_regularizer": null, "activity_regularizer": null, "kernel_constraint": null, "bias_constraint": null}, "name": "dense_302", "inbound_nodes": [[["dense_301", 0, 0, {}]]]}, {"class_name": "Dense", "config": {"name": "dense_303", "trainable": true, "dtype": "float64", "units": 1, "activation": "linear", "use_bias": true, "kernel_initializer": {"class_name": "GlorotUniform", "config": {"seed": null}}, "bias_initializer": {"class_name": "Zeros", "config": {}}, "kernel_regularizer": null, "bias_regularizer": null, "activity_regularizer": null, "kernel_constraint": null, "bias_constraint": null}, "name": "dense_303", "inbound_nodes": [[["dense_302", 0, 0, {}]]]}], "input_layers": [["input_38", 0, 0]], "output_layers": [["dense_303", 0, 0]]}, "summary": ["Model: \"model_37\"", "_________________________________________________________________", "Layer (type)                 Output Shape              Param #   ", "=================================================================", "input_38 (InputLayer)        [(None, 1)]               0         ", "_________________________________________________________________", "dense_296 (Dense)            (None, 10)                20        ", "_________________________________________________________________", "dense_297 (Dense)            (None, 10)                110       ", "_________________________________________________________________", "dense_298 (Dense)            (None, 10)                110       ", "_________________________________________________________________", "dense_299 (Dense)            (None, 10)                110       ", "_________________________________________________________________", "dense_300 (Dense)            (None, 10)                110       ", "_________________________________________________________________", "dense_301 (Dense)            (None, 10)                110       ", "_________________________________________________________________", "dense_302 (Dense)            (None, 10)                110       ", "_________________________________________________________________", "dense_303 (Dense)            (None, 1)                 11        ", "=================================================================", "Total params: 691", "Trainable params: 691", "Non-trainable params: 0", "_________________________________________________________________"]}, "kwargs": {"border_xs": [[0.0]], "border_ys": [0.0, 10.0], "inside_xs_builder": "<function linspace_inside_xs_builder_builder.<locals>._inside_xs_builder at 0x7fbeb636b0e0>", "border_builder": "<function border_builder at 0x7fbeb6d8ac20>", "equation_builder": "<function second_order_equation_builder_builder.<locals>.equation_builder at 0x7fbeb636b320>", "input_dim": 1, "output_dim": 1, "sol": "<function <lambda> at 0x7fbeb636bc20>", "random_seed": 1, "N_f": 1000, "epochs": 2000, "clip_grad": 1, "learning_rate": 0.01, "model_builder": "NN[[10, 10, 10, 10, 10, 10, 10]]", "optimizers": [1, 1], "border_loss_multiplier": 1, "ode": "L-ODEn1"}, "losses": [… "errors": [1.5014432612945928e-06]}, "date": "08:57:23 09 May 2021"}
{"payload": {"model": {"config": {"name": "model_38", "layers": [{"class_name": "InputLayer", "config": {"batch_input_shape": [null, 1], "dtype": "float64", "sparse": false, "ragged": false, "name": "input_39"}, "name": "input_39", "inbound_nodes": []}, {"class_name": "Dense", "config": {"name": "dense_304", "trainable": true, "dtype": "float64", "units": 10, "activation": "tanh", "use_bias": true, "kernel_initializer": {"class_name": "GlorotUniform", "config": {"seed": null}}, "bias_initializer": {"class_name": "Zeros", "config": {}}, "kernel_regularizer": null, "bias_regularizer": null, "activity_regularizer": null, "kernel_constraint": null, "bias_constraint": null}, "name": "dense_304", "inbound_nodes": [[["input_39", 0, 0, {}]]]}, {"class_name": "Dense", "config": {"name": "dense_305", "trainable": true, "dtype": "float64", "units": 10, "activation": "tanh", "use_bias": true, "kernel_initializer": {"class_name": "GlorotUniform", "config": {"seed": null}}, "bias_initializer": {"class_name": "Zeros", "config": {}}, "kernel_regularizer": null, "bias_regularizer": null, "activity_regularizer": null, "kernel_constraint": null, "bias_constraint": null}, "name": "dense_305", "inbound_nodes": [[["dense_304", 0, 0, {}]]]}, {"class_name": "Dense", "config": {"name": "dense_306", "trainable": true, "dtype": "float64", "units": 10, "activation": "tanh", "use_bias": true, "kernel_initializer": {"class_name": "GlorotUniform", "config": {"seed": null}}, "bias_initializer": {"class_name": "Zeros", "config": {}}, "kernel_regularizer": null, "bias_regularizer": null, "activity_regularizer": null, "kernel_constraint": null, "bias_constraint": null}, "name": "dense_306", "inbound_nodes": [[["dense_305", 0, 0, {}]]]}, {"class_name": "Dense", "config": {"name": "dense_307", "trainable": true, "dtype": "float64", "units": 10, "activation": "tanh", "use_bias": true, "kernel_initializer": {"class_name": "GlorotUniform", "config": {"seed": null}}, "bias_initializer": {"class_name": "Zeros", "config": {}}, "kernel_regularizer": null, "bias_regularizer": null, "activity_regularizer": null, "kernel_constraint": null, "bias_constraint": null}, "name": "dense_307", "inbound_nodes": [[["dense_306", 0, 0, {}]]]}, {"class_name": "Dense", "config": {"name": "dense_308", "trainable": true, "dtype": "float64", "units": 10, "activation": "tanh", "use_bias": true, "kernel_initializer": {"class_name": "GlorotUniform", "config": {"seed": null}}, "bias_initializer": {"class_name": "Zeros", "config": {}}, "kernel_regularizer": null, "bias_regularizer": null, "activity_regularizer": null, "kernel_constraint": null, "bias_constraint": null}, "name": "dense_308", "inbound_nodes": [[["dense_307", 0, 0, {}]]]}, {"class_name": "Dense", "config": {"name": "dense_309", "trainable": true, "dtype": "float64", "units": 10, "activation": "tanh", "use_bias": true, "kernel_initializer": {"class_name": "GlorotUniform", "config": {"seed": null}}, "bias_initializer": {"class_name": "Zeros", "config": {}}, "kernel_regularizer": null, "bias_regularizer": null, "activity_regularizer": null, "kernel_constraint": null, "bias_constraint": null}, "name": "dense_309", "inbound_nodes": [[["dense_308", 0, 0, {}]]]}, {"class_name": "Dense", "config": {"name": "dense_310", "trainable": true, "dtype": "float64", "units": 10, "activation": "tanh", "use_bias": true, "kernel_initializer": {"class_name": "GlorotUniform", "config": {"seed": null}}, "bias_initializer": {"class_name": "Zeros", "config": {}}, "kernel_regularizer": null, "bias_regularizer": null, "activity_regularizer": null, "kernel_constraint": null, "bias_constraint": null}, "name": "dense_310", "inbound_nodes": [[["dense_309", 0, 0, {}]]]}, {"class_name": "Dense", "config": {"name": "dense_311", "trainable": true, "dtype": "float64", "units": 1, "activation": "linear", "use_bias": true, "kernel_initializer": {"class_name": "GlorotUniform", "config": {"seed": null}}, "bias_initializer": {"class_name": "Zeros", "config": {}}, "kernel_regularizer": null, "bias_regularizer": null, "activity_regularizer": null, "kernel_constraint": null, "bias_constraint": null}, "name": "dense_311", "inbound_nodes": [[["dense_310", 0, 0, {}]]]}], "input_layers": [["input_39", 0, 0]], "output_layers": [["dense_311", 0, 0]]}, "summary": ["Model: \"model_38\"", "_________________________________________________________________", "Layer (type)                 Output Shape              Param #   ", "=================================================================", "input_39 (InputLayer)        [(None, 1)]               0         ", "_________________________________________________________________", "dense_304 (Dense)            (None, 10)                20        ", "_________________________________________________________________", "dense_305 (Dense)            (None, 10)                110       ", "_________________________________________________________________", "dense_306 (Dense)            (None, 10)                110       ", "_________________________________________________________________", "dense_307 (Dense)            (None, 10)                110       ", "_________________________________________________________________", "dense_308 (Dense)            (None, 10)                110       ", "_________________________________________________________________", "dense_309 (Dense)            (None, 10)                110       ", "_________________________________________________________________", "dense_310 (Dense)            (None, 10)                110       ", "_________________________________________________________________", "dense_311 (Dense)            (None, 1)                 11        ", "=================================================================", "Total params: 691", "Trainable params: 691", "Non-trainable params: 0", "_________________________________________________________________"]}, "kwargs": {"border_xs": [[0.0]], "border_ys": [1.0, 0.0], "inside_xs_builder": "<function linspace_inside_xs_builder_builder.<locals>._inside_xs_builder at 0x7fbeb636b440>", "border_builder": "<function border_builder at 0x7fbeb6d8ac20>", "equation_builder": "<function second_order_equation_builder_builder.<locals>.equation_builder at 0x7fbeb636bb90>", "input_dim": 1, "output_dim": 1, "sol": "<function <lambda> at 0x7fbeb636bf80>", "random_seed": 1, "N_f": 1000, "epochs": 2000, "clip_grad": 1, "learning_rate": 0.01, "model_builder": "NN[[10, 10, 10, 10, 10, 10, 10]]", "optimizers": [1, 1], "border_loss_multiplier": 1, "ode": "L-ODEn2"}, "losses": [… "errors": [0.10842936028857668]}, "date": "08:59:18 09 May 2021"}
{"payload": {"model": {"config": {"name": "model_39", "layers": [{"class_name": "InputLayer", "config": {"batch_input_shape": [null, 1], "dtype": "float64", "sparse": false, "ragged": false, "name": "input_40"}, "name": "input_40", "inbound_nodes": []}, {"class_name": "Dense", "config": {"name": "dense_312", "trainable": true, "dtype": "float64", "units": 10, "activation": "tanh", "use_bias": true, "kernel_initializer": {"class_name": "GlorotUniform", "config": {"seed": null}}, "bias_initializer": {"class_name": "Zeros", "config": {}}, "kernel_regularizer": null, "bias_regularizer": null, "activity_regularizer": null, "kernel_constraint": null, "bias_constraint": null}, "name": "dense_312", "inbound_nodes": [[["input_40", 0, 0, {}]]]}, {"class_name": "Dense", "config": {"name": "dense_313", "trainable": true, "dtype": "float64", "units": 10, "activation": "tanh", "use_bias": true, "kernel_initializer": {"class_name": "GlorotUniform", "config": {"seed": null}}, "bias_initializer": {"class_name": "Zeros", "config": {}}, "kernel_regularizer": null, "bias_regularizer": null, "activity_regularizer": null, "kernel_constraint": null, "bias_constraint": null}, "name": "dense_313", "inbound_nodes": [[["dense_312", 0, 0, {}]]]}, {"class_name": "Dense", "config": {"name": "dense_314", "trainable": true, "dtype": "float64", "units": 10, "activation": "tanh", "use_bias": true, "kernel_initializer": {"class_name": "GlorotUniform", "config": {"seed": null}}, "bias_initializer": {"class_name": "Zeros", "config": {}}, "kernel_regularizer": null, "bias_regularizer": null, "activity_regularizer": null, "kernel_constraint": null, "bias_constraint": null}, "name": "dense_314", "inbound_nodes": [[["dense_313", 0, 0, {}]]]}, {"class_name": "Dense", "config": {"name": "dense_315", "trainable": true, "dtype": "float64", "units": 10, "activation": "tanh", "use_bias": true, "kernel_initializer": {"class_name": "GlorotUniform", "config": {"seed": null}}, "bias_initializer": {"class_name": "Zeros", "config": {}}, "kernel_regularizer": null, "bias_regularizer": null, "activity_regularizer": null, "kernel_constraint": null, "bias_constraint": null}, "name": "dense_315", "inbound_nodes": [[["dense_314", 0, 0, {}]]]}, {"class_name": "Dense", "config": {"name": "dense_316", "trainable": true, "dtype": "float64", "units": 10, "activation": "tanh", "use_bias": true, "kernel_initializer": {"class_name": "GlorotUniform", "config": {"seed": null}}, "bias_initializer": {"class_name": "Zeros", "config": {}}, "kernel_regularizer": null, "bias_regularizer": null, "activity_regularizer": null, "kernel_constraint": null, "bias_constraint": null}, "name": "dense_316", "inbound_nodes": [[["dense_315", 0, 0, {}]]]}, {"class_name": "Dense", "config": {"name": "dense_317", "trainable": true, "dtype": "float64", "units": 10, "activation": "tanh", "use_bias": true, "kernel_initializer": {"class_name": "GlorotUniform", "config": {"seed": null}}, "bias_initializer": {"class_name": "Zeros", "config": {}}, "kernel_regularizer": null, "bias_regularizer": null, "activity_regularizer": null, "kernel_constraint": null, "bias_constraint": null}, "name": "dense_317", "inbound_nodes": [[["dense_316", 0, 0, {}]]]}, {"class_name": "Dense", "config": {"name": "dense_318", "trainable": true, "dtype": "float64", "units": 10, "activation": "tanh", "use_bias": true, "kernel_initializer": {"class_name": "GlorotUniform", "config": {"seed": null}}, "bias_initializer": {"class_name": "Zeros", "config": {}}, "kernel_regularizer": null, "bias_regularizer": null, "activity_regularizer": null, "kernel_constraint": null, "bias_constraint": null}, "name": "dense_318", "inbound_nodes": [[["dense_317", 0, 0, {}]]]}, {"class_name": "Dense", "config": {"name": "dense_319", "trainable": true, "dtype": "float64", "units": 1, "activation": "linear", "use_bias": true, "kernel_initializer": {"class_name": "GlorotUniform", "config": {"seed": null}}, "bias_initializer": {"class_name": "Zeros", "config": {}}, "kernel_regularizer": null, "bias_regularizer": null, "activity_regularizer": null, "kernel_constraint": null, "bias_constraint": null}, "name": "dense_319", "inbound_nodes": [[["dense_318", 0, 0, {}]]]}], "input_layers": [["input_40", 0, 0]], "output_layers": [["dense_319", 0, 0]]}, "summary": ["Model: \"model_39\"", "_________________________________________________________________", "Layer (type)                 Output Shape              Param #   ", "=================================================================", "input_40 (InputLayer)        [(None, 1)]               0         ", "_________________________________________________________________", "dense_312 (Dense)            (None, 10)                20        ", "_________________________________________________________________", "dense_313 (Dense)            (None, 10)                110       ", "_________________________________________________________________", "dense_314 (Dense)            (None, 10)                110       ", "_________________________________________________________________", "dense_315 (Dense)            (None, 10)                110       ", "_________________________________________________________________", "dense_316 (Dense)            (None, 10)                110       ", "_________________________________________________________________", "dense_317 (Dense)            (None, 10)                110       ", "_________________________________________________________________", "dense_318 (Dense)            (None, 10)                110       ", "_________________________________________________________________", "dense_319 (Dense)            (None, 1)                 11        ", "=================================================================", "Total params: 691", "Trainable params: 691", "Non-trainable params: 0", "_________________________________________________________________"]}, "kwargs": {"border_xs": [[0.0], [1.0]], "border_ys": [[0.0], [0.6889381730850401]], "inside_xs_builder": "<function linspace_inside_xs_builder_builder.<locals>._inside_xs_builder at 0x7fbeb636b290>", "border_builder": "<function border_with_function_values_builder at 0x7fbeb64d3560>", "equation_builder": "<function second_order_equation_builder_builder.<locals>.equation_builder at 0x7fbeb636b950>", "input_dim": 1, "output_dim": 1, "sol": "<function <lambda> at 0x7fbeb636be60>", "random_seed": 1, "N_f": 1000, "epochs": 2000, "clip_grad": 1, "learning_rate": 0.01, "model_builder": "NN[[10, 10, 10, 10, 10, 10, 10]]", "optimizers": [1, 1], "border_loss_multiplier": 1, "ode": "L-ODEn3"}, "losses": [… "errors": [4.917504529790759e-10]}, "date": "09:00:20 09 May 2021"}
{"payload": {"model": {"config": {"name": "model_40", "layers": [{"class_name": "InputLayer", "config": {"batch_input_shape": [null, 1], "dtype": "float64", "sparse": false, "ragged": false, "name": "input_41"}, "name": "input_41", "inbound_nodes": []}, {"class_name": "Dense", "config": {"name": "dense_320", "trainable": true, "dtype": "float64", "units": 10, "activation": "tanh", "use_bias": true, "kernel_initializer": {"class_name": "GlorotUniform", "config": {"seed": null}}, "bias_initializer": {"class_name": "Zeros", "config": {}}, "kernel_regularizer": null, "bias_regularizer": null, "activity_regularizer": null, "kernel_constraint": null, "bias_constraint": null}, "name": "dense_320", "inbound_nodes": [[["input_41", 0, 0, {}]]]}, {"class_name": "Dense", "config": {"name": "dense_321", "trainable": true, "dtype": "float64", "units": 10, "activation": "tanh", "use_bias": true, "kernel_initializer": {"class_name": "GlorotUniform", "config": {"seed": null}}, "bias_initializer": {"class_name": "Zeros", "config": {}}, "kernel_regularizer": null, "bias_regularizer": null, "activity_regularizer": null, "kernel_constraint": null, "bias_constraint": null}, "name": "dense_321", "inbound_nodes": [[["dense_320", 0, 0, {}]]]}, {"class_name": "Dense", "config": {"name": "dense_322", "trainable": true, "dtype": "float64", "units": 10, "activation": "tanh", "use_bias": true, "kernel_initializer": {"class_name": "GlorotUniform", "config": {"seed": null}}, "bias_initializer": {"class_name": "Zeros", "config": {}}, "kernel_regularizer": null, "bias_regularizer": null, "activity_regularizer": null, "kernel_constraint": null, "bias_constraint": null}, "name": "dense_322", "inbound_nodes": [[["dense_321", 0, 0, {}]]]}, {"class_name": "Dense", "config": {"name": "dense_323", "trainable": true, "dtype": "float64", "units": 10, "activation": "tanh", "use_bias": true, "kernel_initializer": {"class_name": "GlorotUniform", "config": {"seed": null}}, "bias_initializer": {"class_name": "Zeros", "config": {}}, "kernel_regularizer": null, "bias_regularizer": null, "activity_regularizer": null, "kernel_constraint": null, "bias_constraint": null}, "name": "dense_323", "inbound_nodes": [[["dense_322", 0, 0, {}]]]}, {"class_name": "Dense", "config": {"name": "dense_324", "trainable": true, "dtype": "float64", "units": 10, "activation": "tanh", "use_bias": true, "kernel_initializer": {"class_name": "GlorotUniform", "config": {"seed": null}}, "bias_initializer": {"class_name": "Zeros", "config": {}}, "kernel_regularizer": null, "bias_regularizer": null, "activity_regularizer": null, "kernel_constraint": null, "bias_constraint": null}, "name": "dense_324", "inbound_nodes": [[["dense_323", 0, 0, {}]]]}, {"class_name": "Dense", "config": {"name": "dense_325", "trainable": true, "dtype": "float64", "units": 10, "activation": "tanh", "use_bias": true, "kernel_initializer": {"class_name": "GlorotUniform", "config": {"seed": null}}, "bias_initializer": {"class_name": "Zeros", "config": {}}, "kernel_regularizer": null, "bias_regularizer": null, "activity_regularizer": null, "kernel_constraint": null, "bias_constraint": null}, "name": "dense_325", "inbound_nodes": [[["dense_324", 0, 0, {}]]]}, {"class_name": "Dense", "config": {"name": "dense_326", "trainable": true, "dtype": "float64", "units": 10, "activation": "tanh", "use_bias": true, "kernel_initializer": {"class_name": "GlorotUniform", "config": {"seed": null}}, "bias_initializer": {"class_name": "Zeros", "config": {}}, "kernel_regularizer": null, "bias_regularizer": null, "activity_regularizer": null, "kernel_constraint": null, "bias_constraint": null}, "name": "dense_326", "inbound_nodes": [[["dense_325", 0, 0, {}]]]}, {"class_name": "Dense", "config": {"name": "dense_327", "trainable": true, "dtype": "float64", "units": 1, "activation": "linear", "use_bias": true, "kernel_initializer": {"class_name": "GlorotUniform", "config": {"seed": null}}, "bias_initializer": {"class_name": "Zeros", "config": {}}, "kernel_regularizer": null, "bias_regularizer": null, "activity_regularizer": null, "kernel_constraint": null, "bias_constraint": null}, "name": "dense_327", "inbound_nodes": [[["dense_326", 0, 0, {}]]]}], "input_layers": [["input_41", 0, 0]], "output_layers": [["dense_327", 0, 0]]}, "summary": ["Model: \"model_40\"", "_________________________________________________________________", "Layer (type)                 Output Shape              Param #   ", "=================================================================", "input_41 (InputLayer)        [(None, 1)]               0         ", "_________________________________________________________________", "dense_320 (Dense)            (None, 10)                20        ", "_________________________________________________________________", "dense_321 (Dense)            (None, 10)                110       ", "_________________________________________________________________", "dense_322 (Dense)            (None, 10)                110       ", "_________________________________________________________________", "dense_323 (Dense)            (None, 10)                110       ", "_________________________________________________________________", "dense_324 (Dense)            (None, 10)                110       ", "_________________________________________________________________", "dense_325 (Dense)            (None, 10)                110       ", "_________________________________________________________________", "dense_326 (Dense)            (None, 10)                110       ", "_________________________________________________________________", "dense_327 (Dense)            (None, 1)                 11        ", "=================================================================", "Total params: 691", "Trainable params: 691", "Non-trainable params: 0", "_________________________________________________________________"]}, "kwargs": {"border_xs": [[0.1]], "border_ys": [[20.1]], "inside_xs_builder": "<function linspace_inside_xs_builder_builder.<locals>._inside_xs_builder at 0x7fbeb636b200>", "border_builder": "<function border_with_function_values_builder at 0x7fbeb64d3560>", "equation_builder": "<function first_order_equation_builder_builder.<locals>.equation_builder at 0x7fbeb636b170>", "input_dim": 1, "output_dim": 1, "sol": "<function <lambda> at 0x7fbeb636bcb0>", "random_seed": 1, "N_f": 1000, "epochs": 2000, "clip_grad": 1, "learning_rate": 0.01, "model_builder": "NN[[10, 10, 10, 10, 10, 10, 10]]", "optimizers": [1, 1], "border_loss_multiplier": 1, "ode": "NL-ODE1"}, "losses": [NaN, NaN, NaN, NaN, NaN, NaN, NaN, NaN, NaN, NaN, NaN, NaN, NaN, NaN, NaN, NaN, NaN, NaN, NaN, NaN, NaN, NaN, NaN, NaN, NaN, NaN, NaN, NaN, NaN, NaN, NaN, NaN, NaN, NaN, NaN, NaN, NaN, NaN, NaN, NaN, NaN, NaN, NaN, NaN, NaN, NaN, NaN, NaN, NaN, NaN, NaN, NaN, NaN, NaN, NaN, NaN, NaN, NaN, NaN, NaN, NaN, NaN, NaN, NaN, NaN, NaN, NaN, NaN, NaN, NaN, NaN, NaN, NaN, NaN, NaN, NaN, NaN, NaN, NaN, NaN, NaN, NaN, NaN, NaN, NaN, NaN, NaN, NaN, NaN, NaN, NaN, NaN, NaN, NaN, NaN, NaN, NaN, NaN, NaN, NaN, NaN, NaN, NaN, NaN, NaN, NaN, NaN, NaN, NaN, NaN, NaN, NaN, NaN, NaN, NaN, NaN, NaN, NaN, NaN, NaN, NaN, NaN, NaN, NaN, NaN, NaN, NaN, NaN, NaN, NaN, NaN, NaN, NaN, NaN, NaN, NaN, NaN, NaN, NaN, NaN, NaN, NaN, NaN, NaN, NaN, NaN, NaN, NaN, NaN, NaN, NaN, NaN, NaN, NaN, NaN, NaN, NaN, NaN, NaN, NaN, NaN, NaN, NaN, NaN, NaN, NaN, NaN, NaN, NaN, NaN, NaN, NaN, NaN, NaN, NaN, NaN, NaN, NaN, NaN, NaN, NaN, NaN, NaN, NaN, NaN, NaN, NaN, NaN, NaN, NaN, NaN, NaN, NaN, NaN, NaN, NaN, NaN, NaN, NaN, NaN, NaN, NaN, NaN, NaN, NaN, NaN, NaN, NaN, NaN, NaN, NaN, NaN, NaN, NaN, NaN, NaN, NaN, NaN, NaN, NaN, NaN, NaN, NaN, NaN, NaN, NaN, NaN, NaN, NaN, NaN, NaN, NaN, NaN, NaN, NaN, NaN, NaN, NaN, NaN, NaN, NaN, NaN, NaN, NaN, NaN, NaN, NaN, NaN, NaN, NaN, NaN, NaN, NaN, NaN, NaN, NaN, NaN, NaN, NaN, NaN, NaN, NaN, NaN, NaN, NaN, NaN, NaN, NaN, NaN, NaN, NaN, NaN, NaN, NaN, NaN, NaN, NaN, NaN, NaN, NaN, NaN, NaN, NaN, NaN, NaN, NaN, NaN, NaN, NaN, NaN, NaN, NaN, NaN, NaN, NaN, NaN, NaN, NaN, NaN, NaN, NaN, NaN, NaN, NaN, NaN, NaN, NaN, NaN, NaN, NaN, NaN, NaN, NaN, NaN, NaN, NaN, NaN, NaN, NaN, NaN, NaN, NaN, NaN, NaN, NaN, NaN, NaN, NaN, NaN, NaN, NaN, NaN, NaN, NaN, NaN, NaN, NaN, NaN, NaN, NaN, NaN, NaN, NaN, NaN, NaN, NaN, NaN, NaN, NaN, NaN, NaN, NaN, NaN, NaN, NaN, NaN, NaN, NaN, NaN, NaN, NaN, NaN, NaN, NaN, NaN, NaN, NaN, NaN, NaN, NaN, NaN, NaN, NaN, NaN, NaN, NaN, NaN, NaN, NaN, NaN, NaN, NaN, NaN, NaN, NaN, NaN, NaN, NaN, NaN, NaN, NaN, NaN, NaN, NaN, NaN, NaN, NaN, NaN, NaN, NaN, NaN, NaN, NaN, NaN, NaN, NaN, NaN, NaN, NaN, NaN, NaN, NaN, NaN, NaN, NaN, NaN, NaN, NaN, NaN, NaN, NaN, NaN, NaN, NaN, NaN, NaN, NaN, NaN, NaN, NaN, NaN, NaN, NaN, NaN, NaN, NaN, NaN, NaN, NaN, NaN, NaN, NaN, NaN, NaN, NaN, NaN, NaN, NaN, NaN, NaN, NaN, NaN, NaN, NaN, NaN, NaN, NaN, NaN, NaN, NaN, NaN, NaN, NaN, NaN, NaN, NaN, NaN, NaN, NaN, NaN, NaN, NaN, NaN, NaN, NaN, NaN, NaN, NaN, NaN, NaN, NaN, NaN, NaN, NaN, NaN, NaN, NaN, NaN, NaN, NaN, NaN, NaN, NaN, NaN, NaN, NaN, NaN, NaN, NaN, NaN, NaN, NaN, NaN, NaN, NaN, NaN, NaN, NaN, NaN, NaN, NaN, NaN, NaN, NaN, NaN, NaN, NaN, NaN, NaN, NaN, NaN, NaN, NaN, NaN, NaN, NaN, NaN, NaN, NaN, NaN, NaN, NaN, NaN, NaN, NaN, NaN, NaN, NaN, NaN, NaN, NaN, NaN, NaN, NaN, NaN, NaN, NaN, NaN, NaN, NaN, NaN, NaN, NaN, NaN, NaN, NaN, NaN, NaN, NaN, NaN, NaN, NaN, NaN, NaN, NaN, NaN, NaN, NaN, NaN, NaN, NaN, NaN, NaN, NaN, NaN, NaN, NaN, NaN, NaN, NaN, NaN, NaN, NaN, NaN, NaN, NaN, NaN, NaN, NaN, NaN, NaN, NaN, NaN, NaN, NaN, NaN, NaN, NaN, NaN, NaN, NaN, NaN, NaN, NaN, NaN, NaN, NaN, NaN, NaN, NaN, NaN, NaN, NaN, NaN, NaN, NaN, NaN, NaN, NaN, NaN, NaN, NaN, NaN, NaN, NaN, NaN, NaN, NaN, NaN, NaN, NaN, NaN, NaN, NaN, NaN, NaN, NaN, NaN, NaN, NaN, NaN, NaN, NaN, NaN, NaN, NaN, NaN, NaN, NaN, NaN, NaN, NaN, NaN, NaN, NaN, NaN, NaN, NaN, NaN, NaN, NaN, NaN, NaN, NaN, NaN, NaN, NaN, NaN, NaN, NaN, NaN, NaN, NaN, NaN, NaN, NaN, NaN, NaN, NaN, NaN, NaN, NaN, NaN, NaN, NaN, NaN, NaN, NaN, NaN, NaN, NaN, NaN, NaN, NaN, NaN, NaN, NaN, NaN, NaN, NaN, NaN, NaN, NaN, NaN, NaN, NaN, NaN, NaN, NaN, NaN, NaN, NaN, NaN, NaN, NaN, NaN, NaN, NaN, NaN, NaN, NaN, NaN, NaN, NaN, NaN, NaN, NaN, NaN, NaN, NaN, NaN, NaN, NaN, NaN, NaN, NaN, NaN, NaN, NaN, NaN, NaN, NaN, NaN, NaN, NaN, NaN, NaN, NaN, NaN, NaN, NaN, NaN, NaN, NaN, NaN, NaN, NaN, NaN, NaN, NaN, NaN, NaN, NaN, NaN, NaN, NaN, NaN, NaN, NaN, NaN, NaN, NaN, NaN, NaN, NaN, NaN, NaN, NaN, NaN, NaN, NaN, NaN, NaN, NaN, NaN, NaN, NaN, NaN, NaN, NaN, NaN, NaN, NaN, NaN, NaN, NaN, NaN, NaN, NaN, NaN, NaN, NaN, NaN, NaN, NaN, NaN, NaN, NaN, NaN, NaN, NaN, NaN, NaN, NaN, NaN, NaN, NaN, NaN, NaN, NaN, NaN, NaN, NaN, NaN, NaN, NaN, NaN, NaN, NaN, NaN, NaN, NaN, NaN, NaN, NaN, NaN, NaN, NaN, NaN, NaN, NaN, NaN, NaN, NaN, NaN, NaN, NaN, NaN, NaN, NaN, NaN, NaN, NaN, NaN, NaN, NaN, NaN, NaN, NaN, NaN, NaN, NaN, NaN, NaN, NaN, NaN, NaN, NaN, NaN, NaN, NaN, NaN, NaN, NaN, NaN, NaN, NaN, NaN, NaN, NaN, NaN, NaN, NaN, NaN, NaN, NaN, NaN, NaN, NaN, NaN, NaN, NaN, NaN, NaN, NaN, NaN, NaN, NaN, NaN, NaN, NaN, NaN, NaN, NaN, NaN, NaN, NaN, NaN, NaN, NaN, NaN, NaN, NaN, NaN, NaN, NaN, NaN, NaN, NaN, NaN, NaN, NaN, NaN, NaN, NaN, NaN, NaN, NaN, NaN, NaN, NaN, NaN, NaN, NaN, NaN, NaN, NaN, NaN, NaN, NaN, NaN, NaN, NaN, NaN, NaN, NaN, NaN, NaN, NaN, NaN, NaN, NaN, NaN, NaN, NaN, NaN, NaN, NaN, NaN, NaN, NaN, NaN, NaN, NaN, NaN, NaN, NaN, NaN, NaN, NaN, NaN, NaN, NaN, NaN, NaN, NaN, NaN, NaN, NaN, NaN, NaN, NaN, NaN, NaN, NaN, NaN, NaN, NaN, NaN, NaN, NaN, NaN, NaN, NaN, NaN, NaN, NaN, NaN, NaN, NaN, NaN, NaN, NaN, NaN, NaN, NaN, NaN, NaN, NaN, NaN, NaN, NaN, NaN, NaN, NaN, NaN, NaN, NaN, NaN, NaN, NaN, NaN, NaN, NaN, NaN, NaN, NaN, NaN, NaN, NaN, NaN, NaN, NaN, NaN, NaN, NaN, NaN, NaN, NaN, NaN, NaN, NaN, NaN, NaN, NaN, NaN, NaN, NaN, NaN, NaN, NaN, NaN, NaN, NaN, NaN, NaN, NaN, NaN, NaN, NaN, NaN, NaN, NaN, NaN, NaN, NaN, NaN, NaN, NaN, NaN, NaN, NaN, NaN, NaN, NaN, NaN, NaN, NaN, NaN, NaN, NaN, NaN, NaN, NaN, NaN, NaN, NaN, NaN, NaN, NaN, NaN, NaN, NaN, NaN, NaN, NaN, NaN, NaN, NaN, NaN, NaN, NaN, NaN, NaN, NaN, NaN, NaN, NaN, NaN, NaN, NaN, NaN, NaN, NaN, NaN, NaN, NaN, NaN, NaN, NaN, NaN, NaN, NaN, NaN, NaN, NaN, NaN, NaN, NaN, NaN, NaN, NaN, NaN, NaN, NaN, NaN, NaN, NaN, NaN, NaN, NaN, NaN, NaN, NaN, NaN, NaN, NaN, NaN, NaN, NaN, NaN, NaN, NaN, NaN, NaN, NaN, NaN, NaN, NaN, NaN, NaN, NaN, NaN, NaN, NaN, NaN, NaN, NaN, NaN, NaN, NaN, NaN, NaN, NaN, NaN, NaN, NaN, NaN, NaN, NaN, NaN, NaN, NaN, NaN, NaN, NaN, NaN, NaN, NaN, NaN, NaN, NaN, NaN, NaN, NaN, NaN, NaN, NaN, NaN, NaN, NaN, NaN, NaN, NaN, NaN, NaN, NaN, NaN, NaN, NaN, NaN, NaN, NaN, NaN, NaN, NaN, NaN, NaN, NaN, NaN, NaN, NaN, NaN, NaN, NaN, NaN, NaN, NaN, NaN, NaN, NaN, NaN, NaN, NaN, NaN, NaN, NaN, NaN, NaN, NaN, NaN, NaN, NaN, NaN, NaN, NaN, NaN, NaN, NaN, NaN, NaN, NaN, NaN, NaN, NaN, NaN, NaN, NaN, NaN, NaN, NaN, NaN, NaN, NaN, NaN, NaN, NaN, NaN, NaN, NaN, NaN, NaN, NaN, NaN, NaN, NaN, NaN, NaN, NaN, NaN, NaN, NaN, NaN, NaN, NaN, NaN, NaN, NaN, NaN, NaN, NaN, NaN, NaN, NaN, NaN, NaN, NaN, NaN, NaN, NaN, NaN, NaN, NaN, NaN, NaN, NaN, NaN, NaN, NaN, NaN, NaN, NaN, NaN, NaN, NaN, NaN, NaN, NaN, NaN, NaN, NaN, NaN, NaN, NaN, NaN, NaN, NaN, NaN, NaN, NaN, NaN, NaN, NaN, NaN, NaN, NaN, NaN, NaN, NaN, NaN, NaN, NaN, NaN, NaN, NaN, NaN, NaN, NaN, NaN, NaN, NaN, NaN, NaN, NaN, NaN, NaN, NaN, NaN, NaN, NaN, NaN, NaN, NaN, NaN, NaN, NaN, NaN, NaN, NaN, NaN, NaN, NaN, NaN, NaN, NaN, NaN, NaN, NaN, NaN, NaN, NaN, NaN, NaN, NaN, NaN, NaN, NaN, NaN, NaN, NaN, NaN, NaN, NaN, NaN, NaN, NaN, NaN, NaN, NaN, NaN, NaN, NaN, NaN, NaN, NaN, NaN, NaN, NaN, NaN, NaN, NaN, NaN, NaN, NaN, NaN, NaN, NaN, NaN, NaN, NaN, NaN, NaN, NaN, NaN, NaN, NaN, NaN, NaN, NaN, NaN, NaN, NaN, NaN, NaN, NaN, NaN, NaN, NaN, NaN, NaN, NaN, NaN, NaN, NaN, NaN, NaN, NaN, NaN, NaN, NaN, NaN, NaN, NaN, NaN, NaN, NaN, NaN, NaN, NaN, NaN, NaN, NaN, NaN, NaN, NaN, NaN, NaN, NaN, NaN, NaN, NaN, NaN, NaN, NaN, NaN, NaN, NaN, NaN, NaN, NaN, NaN, NaN, NaN, NaN, NaN, NaN, NaN, NaN, NaN, NaN, NaN, NaN, NaN, NaN, NaN, NaN, NaN, NaN, NaN, NaN, NaN, NaN, NaN, NaN, NaN, NaN, NaN, NaN, NaN, NaN, NaN, NaN, NaN, NaN, NaN, NaN, NaN, NaN, NaN, NaN, NaN, NaN, NaN, NaN, NaN, NaN, NaN, NaN, NaN, NaN, NaN, NaN, NaN, NaN, NaN, NaN, NaN, NaN, NaN, NaN, NaN, NaN, NaN, NaN, NaN, NaN, NaN, NaN, NaN, NaN, NaN, NaN, NaN, NaN, NaN, NaN, NaN, NaN, NaN, NaN, NaN, NaN, NaN, NaN, NaN, NaN, NaN, NaN, NaN, NaN, NaN, NaN, NaN, NaN, NaN, NaN, NaN, NaN, NaN, NaN, NaN, NaN, NaN, NaN, NaN, NaN, NaN, NaN, NaN, NaN, NaN, NaN, NaN, NaN, NaN, NaN, NaN, NaN, NaN, NaN, NaN, NaN, NaN, NaN, NaN, NaN, NaN, NaN, NaN, NaN, NaN, NaN, NaN, NaN, NaN, NaN, NaN, NaN, NaN, NaN, NaN, NaN, NaN, NaN, NaN, NaN, NaN, NaN, NaN, NaN, NaN, NaN, NaN, NaN, NaN, NaN, NaN, NaN, NaN, NaN, NaN, NaN, NaN, NaN, NaN, NaN, NaN, NaN, NaN, NaN, NaN, NaN, NaN, NaN, NaN, NaN, NaN, NaN, NaN, NaN, NaN, NaN, NaN, NaN, NaN, NaN, NaN, NaN, NaN, NaN, NaN, NaN, NaN, NaN, NaN, NaN, NaN, NaN, NaN, NaN, NaN, NaN, NaN, NaN, NaN, NaN, NaN, NaN, NaN, NaN, NaN, NaN, NaN, NaN, NaN, NaN, NaN, NaN, NaN, NaN, NaN, NaN, NaN, NaN, NaN, NaN, NaN, NaN, NaN, NaN, NaN, NaN, NaN, NaN, NaN, NaN, NaN, NaN, NaN, NaN, NaN, NaN, NaN, NaN, NaN, NaN, NaN, NaN, NaN, NaN, NaN, NaN, NaN, NaN, NaN, NaN, NaN, NaN, NaN, NaN, NaN, NaN, NaN, NaN, NaN, NaN, NaN, NaN, NaN, NaN, NaN, NaN, NaN, NaN, NaN, NaN, NaN, NaN, NaN, NaN, NaN, NaN, NaN, NaN, NaN, NaN, NaN, NaN, NaN, NaN, NaN, NaN, NaN, NaN, NaN, NaN, NaN, NaN, NaN, NaN, NaN, NaN, NaN, NaN, NaN, NaN, NaN, NaN, NaN, NaN, NaN, NaN, NaN, NaN, NaN, NaN, NaN, NaN, NaN, NaN, NaN, NaN, NaN, NaN, NaN, NaN, NaN, NaN, NaN, NaN, NaN, NaN, NaN, NaN, NaN, NaN, NaN, NaN, NaN, NaN, NaN, NaN, NaN, NaN, NaN, NaN, NaN, NaN, NaN, NaN, NaN, NaN, NaN, NaN, NaN, NaN, NaN, NaN, NaN, NaN, NaN, NaN, NaN, NaN, NaN, NaN, NaN, NaN, NaN, NaN, NaN, NaN, NaN, NaN, NaN, NaN, NaN, NaN, NaN, NaN, NaN, NaN, NaN, NaN, NaN, NaN, NaN, NaN, NaN, NaN, NaN, NaN, NaN, NaN, NaN, NaN, NaN, NaN, NaN, NaN, NaN, NaN, NaN, NaN, NaN, NaN, NaN, NaN, NaN, NaN, NaN, NaN, NaN, NaN, NaN, NaN, NaN, NaN, NaN, NaN, NaN, NaN, NaN, NaN, NaN, NaN, NaN, NaN, NaN, NaN, NaN, NaN, NaN, NaN, NaN, NaN, NaN, NaN, NaN, NaN, NaN, NaN, NaN, NaN, NaN, NaN, NaN, NaN, NaN, NaN, NaN, NaN, NaN, NaN, NaN, NaN, NaN, NaN, NaN, NaN, NaN, NaN, NaN, NaN, NaN, NaN, NaN, NaN, NaN, NaN, NaN, NaN, NaN, NaN, NaN, NaN, NaN, NaN, NaN, NaN, NaN, NaN, NaN, NaN, NaN, NaN, NaN, NaN, NaN, NaN, NaN, NaN, NaN, NaN, NaN, NaN, NaN, NaN, NaN, NaN, NaN, NaN, NaN, NaN, NaN, NaN, NaN, NaN, NaN, NaN, NaN, NaN, NaN, NaN, NaN, NaN, NaN, NaN, NaN, NaN, NaN], "errors": [NaN]}, "date": "09:01:01 09 May 2021"}
{"payload": {"model": {"config": {"name": "model_41", "layers": [{"class_name": "InputLayer", "config": {"batch_input_shape": [null, 1], "dtype": "float64", "sparse": false, "ragged": false, "name": "input_42"}, "name": "input_42", "inbound_nodes": []}, {"class_name": "Dense", "config": {"name": "dense_328", "trainable": true, "dtype": "float64", "units": 10, "activation": "tanh", "use_bias": true, "kernel_initializer": {"class_name": "GlorotUniform", "config": {"seed": null}}, "bias_initializer": {"class_name": "Zeros", "config": {}}, "kernel_regularizer": null, "bias_regularizer": null, "activity_regularizer": null, "kernel_constraint": null, "bias_constraint": null}, "name": "dense_328", "inbound_nodes": [[["input_42", 0, 0, {}]]]}, {"class_name": "Dense", "config": {"name": "dense_329", "trainable": true, "dtype": "float64", "units": 10, "activation": "tanh", "use_bias": true, "kernel_initializer": {"class_name": "GlorotUniform", "config": {"seed": null}}, "bias_initializer": {"class_name": "Zeros", "config": {}}, "kernel_regularizer": null, "bias_regularizer": null, "activity_regularizer": null, "kernel_constraint": null, "bias_constraint": null}, "name": "dense_329", "inbound_nodes": [[["dense_328", 0, 0, {}]]]}, {"class_name": "Dense", "config": {"name": "dense_330", "trainable": true, "dtype": "float64", "units": 10, "activation": "tanh", "use_bias": true, "kernel_initializer": {"class_name": "GlorotUniform", "config": {"seed": null}}, "bias_initializer": {"class_name": "Zeros", "config": {}}, "kernel_regularizer": null, "bias_regularizer": null, "activity_regularizer": null, "kernel_constraint": null, "bias_constraint": null}, "name": "dense_330", "inbound_nodes": [[["dense_329", 0, 0, {}]]]}, {"class_name": "Dense", "config": {"name": "dense_331", "trainable": true, "dtype": "float64", "units": 10, "activation": "tanh", "use_bias": true, "kernel_initializer": {"class_name": "GlorotUniform", "config": {"seed": null}}, "bias_initializer": {"class_name": "Zeros", "config": {}}, "kernel_regularizer": null, "bias_regularizer": null, "activity_regularizer": null, "kernel_constraint": null, "bias_constraint": null}, "name": "dense_331", "inbound_nodes": [[["dense_330", 0, 0, {}]]]}, {"class_name": "Dense", "config": {"name": "dense_332", "trainable": true, "dtype": "float64", "units": 10, "activation": "tanh", "use_bias": true, "kernel_initializer": {"class_name": "GlorotUniform", "config": {"seed": null}}, "bias_initializer": {"class_name": "Zeros", "config": {}}, "kernel_regularizer": null, "bias_regularizer": null, "activity_regularizer": null, "kernel_constraint": null, "bias_constraint": null}, "name": "dense_332", "inbound_nodes": [[["dense_331", 0, 0, {}]]]}, {"class_name": "Dense", "config": {"name": "dense_333", "trainable": true, "dtype": "float64", "units": 10, "activation": "tanh", "use_bias": true, "kernel_initializer": {"class_name": "GlorotUniform", "config": {"seed": null}}, "bias_initializer": {"class_name": "Zeros", "config": {}}, "kernel_regularizer": null, "bias_regularizer": null, "activity_regularizer": null, "kernel_constraint": null, "bias_constraint": null}, "name": "dense_333", "inbound_nodes": [[["dense_332", 0, 0, {}]]]}, {"class_name": "Dense", "config": {"name": "dense_334", "trainable": true, "dtype": "float64", "units": 10, "activation": "tanh", "use_bias": true, "kernel_initializer": {"class_name": "GlorotUniform", "config": {"seed": null}}, "bias_initializer": {"class_name": "Zeros", "config": {}}, "kernel_regularizer": null, "bias_regularizer": null, "activity_regularizer": null, "kernel_constraint": null, "bias_constraint": null}, "name": "dense_334", "inbound_nodes": [[["dense_333", 0, 0, {}]]]}, {"class_name": "Dense", "config": {"name": "dense_335", "trainable": true, "dtype": "float64", "units": 1, "activation": "linear", "use_bias": true, "kernel_initializer": {"class_name": "GlorotUniform", "config": {"seed": null}}, "bias_initializer": {"class_name": "Zeros", "config": {}}, "kernel_regularizer": null, "bias_regularizer": null, "activity_regularizer": null, "kernel_constraint": null, "bias_constraint": null}, "name": "dense_335", "inbound_nodes": [[["dense_334", 0, 0, {}]]]}], "input_layers": [["input_42", 0, 0]], "output_layers": [["dense_335", 0, 0]]}, "summary": ["Model: \"model_41\"", "_________________________________________________________________", "Layer (type)                 Output Shape              Param #   ", "=================================================================", "input_42 (InputLayer)        [(None, 1)]               0         ", "_________________________________________________________________", "dense_328 (Dense)            (None, 10)                20        ", "_________________________________________________________________", "dense_329 (Dense)            (None, 10)                110       ", "_________________________________________________________________", "dense_330 (Dense)            (None, 10)                110       ", "_________________________________________________________________", "dense_331 (Dense)            (None, 10)                110       ", "_________________________________________________________________", "dense_332 (Dense)            (None, 10)                110       ", "_________________________________________________________________", "dense_333 (Dense)            (None, 10)                110       ", "_________________________________________________________________", "dense_334 (Dense)            (None, 10)                110       ", "_________________________________________________________________", "dense_335 (Dense)            (None, 1)                 11        ", "=================================================================", "Total params: 691", "Trainable params: 691", "Non-trainable params: 0", "_________________________________________________________________"]}, "kwargs": {"border_xs": [[0.1]], "border_ys": [[20.1]], "inside_xs_builder": "<function linspace_inside_xs_builder_builder.<locals>._inside_xs_builder at 0x7fbeb636b710>", "border_builder": "<function border_with_function_values_builder at 0x7fbeb64d3560>", "equation_builder": "<function first_order_equation_builder_builder.<locals>.equation_builder at 0x7fbeb636b5f0>", "input_dim": 1, "output_dim": 1, "sol": "<function <lambda> at 0x7fbeb636b4d0>", "random_seed": 1, "N_f": 1000, "epochs": 2000, "clip_grad": 1, "learning_rate": 0.01, "model_builder": "NN[[10, 10, 10, 10, 10, 10, 10]]", "optimizers": [1, 1], "border_loss_multiplier": 1, "ode": "NL-ODE2"}, "losses": [… "errors": [4.733578140219342e-07]}, "date": "09:01:59 09 May 2021"}
{"payload": {"model": {"config": {"name": "model_42", "layers": [{"class_name": "InputLayer", "config": {"batch_input_shape": [null, 1], "dtype": "float64", "sparse": false, "ragged": false, "name": "input_43"}, "name": "input_43", "inbound_nodes": []}, {"class_name": "Dense", "config": {"name": "dense_336", "trainable": true, "dtype": "float64", "units": 10, "activation": "tanh", "use_bias": true, "kernel_initializer": {"class_name": "GlorotUniform", "config": {"seed": null}}, "bias_initializer": {"class_name": "Zeros", "config": {}}, "kernel_regularizer": null, "bias_regularizer": null, "activity_regularizer": null, "kernel_constraint": null, "bias_constraint": null}, "name": "dense_336", "inbound_nodes": [[["input_43", 0, 0, {}]]]}, {"class_name": "Dense", "config": {"name": "dense_337", "trainable": true, "dtype": "float64", "units": 10, "activation": "tanh", "use_bias": true, "kernel_initializer": {"class_name": "GlorotUniform", "config": {"seed": null}}, "bias_initializer": {"class_name": "Zeros", "config": {}}, "kernel_regularizer": null, "bias_regularizer": null, "activity_regularizer": null, "kernel_constraint": null, "bias_constraint": null}, "name": "dense_337", "inbound_nodes": [[["dense_336", 0, 0, {}]]]}, {"class_name": "Dense", "config": {"name": "dense_338", "trainable": true, "dtype": "float64", "units": 10, "activation": "tanh", "use_bias": true, "kernel_initializer": {"class_name": "GlorotUniform", "config": {"seed": null}}, "bias_initializer": {"class_name": "Zeros", "config": {}}, "kernel_regularizer": null, "bias_regularizer": null, "activity_regularizer": null, "kernel_constraint": null, "bias_constraint": null}, "name": "dense_338", "inbound_nodes": [[["dense_337", 0, 0, {}]]]}, {"class_name": "Dense", "config": {"name": "dense_339", "trainable": true, "dtype": "float64", "units": 10, "activation": "tanh", "use_bias": true, "kernel_initializer": {"class_name": "GlorotUniform", "config": {"seed": null}}, "bias_initializer": {"class_name": "Zeros", "config": {}}, "kernel_regularizer": null, "bias_regularizer": null, "activity_regularizer": null, "kernel_constraint": null, "bias_constraint": null}, "name": "dense_339", "inbound_nodes": [[["dense_338", 0, 0, {}]]]}, {"class_name": "Dense", "config": {"name": "dense_340", "trainable": true, "dtype": "float64", "units": 10, "activation": "tanh", "use_bias": true, "kernel_initializer": {"class_name": "GlorotUniform", "config": {"seed": null}}, "bias_initializer": {"class_name": "Zeros", "config": {}}, "kernel_regularizer": null, "bias_regularizer": null, "activity_regularizer": null, "kernel_constraint": null, "bias_constraint": null}, "name": "dense_340", "inbound_nodes": [[["dense_339", 0, 0, {}]]]}, {"class_name": "Dense", "config": {"name": "dense_341", "trainable": true, "dtype": "float64", "units": 10, "activation": "tanh", "use_bias": true, "kernel_initializer": {"class_name": "GlorotUniform", "config": {"seed": null}}, "bias_initializer": {"class_name": "Zeros", "config": {}}, "kernel_regularizer": null, "bias_regularizer": null, "activity_regularizer": null, "kernel_constraint": null, "bias_constraint": null}, "name": "dense_341", "inbound_nodes": [[["dense_340", 0, 0, {}]]]}, {"class_name": "Dense", "config": {"name": "dense_342", "trainable": true, "dtype": "float64", "units": 10, "activation": "tanh", "use_bias": true, "kernel_initializer": {"class_name": "GlorotUniform", "config": {"seed": null}}, "bias_initializer": {"class_name": "Zeros", "config": {}}, "kernel_regularizer": null, "bias_regularizer": null, "activity_regularizer": null, "kernel_constraint": null, "bias_constraint": null}, "name": "dense_342", "inbound_nodes": [[["dense_341", 0, 0, {}]]]}, {"class_name": "Dense", "config": {"name": "dense_343", "trainable": true, "dtype": "float64", "units": 1, "activation": "linear", "use_bias": true, "kernel_initializer": {"class_name": "GlorotUniform", "config": {"seed": null}}, "bias_initializer": {"class_name": "Zeros", "config": {}}, "kernel_regularizer": null, "bias_regularizer": null, "activity_regularizer": null, "kernel_constraint": null, "bias_constraint": null}, "name": "dense_343", "inbound_nodes": [[["dense_342", 0, 0, {}]]]}], "input_layers": [["input_43", 0, 0]], "output_layers": [["dense_343", 0, 0]]}, "summary": ["Model: \"model_42\"", "_________________________________________________________________", "Layer (type)                 Output Shape              Param #   ", "=================================================================", "input_43 (InputLayer)        [(None, 1)]               0         ", "_________________________________________________________________", "dense_336 (Dense)            (None, 10)                20        ", "_________________________________________________________________", "dense_337 (Dense)            (None, 10)                110       ", "_________________________________________________________________", "dense_338 (Dense)            (None, 10)                110       ", "_________________________________________________________________", "dense_339 (Dense)            (None, 10)                110       ", "_________________________________________________________________", "dense_340 (Dense)            (None, 10)                110       ", "_________________________________________________________________", "dense_341 (Dense)            (None, 10)                110       ", "_________________________________________________________________", "dense_342 (Dense)            (None, 10)                110       ", "_________________________________________________________________", "dense_343 (Dense)            (None, 1)                 11        ", "=================================================================", "Total params: 691", "Trainable params: 691", "Non-trainable params: 0", "_________________________________________________________________"]}, "kwargs": {"border_xs": [[0.1]], "border_ys": [[21.03504087643303]], "inside_xs_builder": "<function linspace_inside_xs_builder_builder.<locals>._inside_xs_builder at 0x7fbeb636ba70>", "border_builder": "<function border_with_function_values_builder at 0x7fbeb64d3560>", "equation_builder": "<function first_order_equation_builder_builder.<locals>.equation_builder at 0x7fbeb852e680>", "input_dim": 1, "output_dim": 1, "sol": "<function <lambda> at 0x7fbeb852e710>", "random_seed": 1, "N_f": 1000, "epochs": 2000, "clip_grad": 1, "learning_rate": 0.01, "model_builder": "NN[[10, 10, 10, 10, 10, 10, 10]]", "optimizers": [1, 1], "border_loss_multiplier": 1, "ode": "NL-ODE3"}, "losses": [Infinity, NaN, NaN, NaN, NaN, NaN, NaN, NaN, NaN, NaN, NaN, NaN, NaN, NaN, NaN, NaN, NaN, NaN, NaN, NaN, NaN, NaN, NaN, NaN, NaN, NaN, NaN, NaN, NaN, NaN, NaN, NaN, NaN, NaN, NaN, NaN, NaN, NaN, NaN, NaN, NaN, NaN, NaN, NaN, NaN, NaN, NaN, NaN, NaN, NaN, NaN, NaN, NaN, NaN, NaN, NaN, NaN, NaN, NaN, NaN, NaN, NaN, NaN, NaN, NaN, NaN, NaN, NaN, NaN, NaN, NaN, NaN, NaN, NaN, NaN, NaN, NaN, NaN, NaN, NaN, NaN, NaN, NaN, NaN, NaN, NaN, NaN, NaN, NaN, NaN, NaN, NaN, NaN, NaN, NaN, NaN, NaN, NaN, NaN, NaN, NaN, NaN, NaN, NaN, NaN, NaN, NaN, NaN, NaN, NaN, NaN, NaN, NaN, NaN, NaN, NaN, NaN, NaN, NaN, NaN, NaN, NaN, NaN, NaN, NaN, NaN, NaN, NaN, NaN, NaN, NaN, NaN, NaN, NaN, NaN, NaN, NaN, NaN, NaN, NaN, NaN, NaN, NaN, NaN, NaN, NaN, NaN, NaN, NaN, NaN, NaN, NaN, NaN, NaN, NaN, NaN, NaN, NaN, NaN, NaN, NaN, NaN, NaN, NaN, NaN, NaN, NaN, NaN, NaN, NaN, NaN, NaN, NaN, NaN, NaN, NaN, NaN, NaN, NaN, NaN, NaN, NaN, NaN, NaN, NaN, NaN, NaN, NaN, NaN, NaN, NaN, NaN, NaN, NaN, NaN, NaN, NaN, NaN, NaN, NaN, NaN, NaN, NaN, NaN, NaN, NaN, NaN, NaN, NaN, NaN, NaN, NaN, NaN, NaN, NaN, NaN, NaN, NaN, NaN, NaN, NaN, NaN, NaN, NaN, NaN, NaN, NaN, NaN, NaN, NaN, NaN, NaN, NaN, NaN, NaN, NaN, NaN, NaN, NaN, NaN, NaN, NaN, NaN, NaN, NaN, NaN, NaN, NaN, NaN, NaN, NaN, NaN, NaN, NaN, NaN, NaN, NaN, NaN, NaN, NaN, NaN, NaN, NaN, NaN, NaN, NaN, NaN, NaN, NaN, NaN, NaN, NaN, NaN, NaN, NaN, NaN, NaN, NaN, NaN, NaN, NaN, NaN, NaN, NaN, NaN, NaN, NaN, NaN, NaN, NaN, NaN, NaN, NaN, NaN, NaN, NaN, NaN, NaN, NaN, NaN, NaN, NaN, NaN, NaN, NaN, NaN, NaN, NaN, NaN, NaN, NaN, NaN, NaN, NaN, NaN, NaN, NaN, NaN, NaN, NaN, NaN, NaN, NaN, NaN, NaN, NaN, NaN, NaN, NaN, NaN, NaN, NaN, NaN, NaN, NaN, NaN, NaN, NaN, NaN, NaN, NaN, NaN, NaN, NaN, NaN, NaN, NaN, NaN, NaN, NaN, NaN, NaN, NaN, NaN, NaN, NaN, NaN, NaN, NaN, NaN, NaN, NaN, NaN, NaN, NaN, NaN, NaN, NaN, NaN, NaN, NaN, NaN, NaN, NaN, NaN, NaN, NaN, NaN, NaN, NaN, NaN, NaN, NaN, NaN, NaN, NaN, NaN, NaN, NaN, NaN, NaN, NaN, NaN, NaN, NaN, NaN, NaN, NaN, NaN, NaN, NaN, NaN, NaN, NaN, NaN, NaN, NaN, NaN, NaN, NaN, NaN, NaN, NaN, NaN, NaN, NaN, NaN, NaN, NaN, NaN, NaN, NaN, NaN, NaN, NaN, NaN, NaN, NaN, NaN, NaN, NaN, NaN, NaN, NaN, NaN, NaN, NaN, NaN, NaN, NaN, NaN, NaN, NaN, NaN, NaN, NaN, NaN, NaN, NaN, NaN, NaN, NaN, NaN, NaN, NaN, NaN, NaN, NaN, NaN, NaN, NaN, NaN, NaN, NaN, NaN, NaN, NaN, NaN, NaN, NaN, NaN, NaN, NaN, NaN, NaN, NaN, NaN, NaN, NaN, NaN, NaN, NaN, NaN, NaN, NaN, NaN, NaN, NaN, NaN, NaN, NaN, NaN, NaN, NaN, NaN, NaN, NaN, NaN, NaN, NaN, NaN, NaN, NaN, NaN, NaN, NaN, NaN, NaN, NaN, NaN, NaN, NaN, NaN, NaN, NaN, NaN, NaN, NaN, NaN, NaN, NaN, NaN, NaN, NaN, NaN, NaN, NaN, NaN, NaN, NaN, NaN, NaN, NaN, NaN, NaN, NaN, NaN, NaN, NaN, NaN, NaN, NaN, NaN, NaN, NaN, NaN, NaN, NaN, NaN, NaN, NaN, NaN, NaN, NaN, NaN, NaN, NaN, NaN, NaN, NaN, NaN, NaN, NaN, NaN, NaN, NaN, NaN, NaN, NaN, NaN, NaN, NaN, NaN, NaN, NaN, NaN, NaN, NaN, NaN, NaN, NaN, NaN, NaN, NaN, NaN, NaN, NaN, NaN, NaN, NaN, NaN, NaN, NaN, NaN, NaN, NaN, NaN, NaN, NaN, NaN, NaN, NaN, NaN, NaN, NaN, NaN, NaN, NaN, NaN, NaN, NaN, NaN, NaN, NaN, NaN, NaN, NaN, NaN, NaN, NaN, NaN, NaN, NaN, NaN, NaN, NaN, NaN, NaN, NaN, NaN, NaN, NaN, NaN, NaN, NaN, NaN, NaN, NaN, NaN, NaN, NaN, NaN, NaN, NaN, NaN, NaN, NaN, NaN, NaN, NaN, NaN, NaN, NaN, NaN, NaN, NaN, NaN, NaN, NaN, NaN, NaN, NaN, NaN, NaN, NaN, NaN, NaN, NaN, NaN, NaN, NaN, NaN, NaN, NaN, NaN, NaN, NaN, NaN, NaN, NaN, NaN, NaN, NaN, NaN, NaN, NaN, NaN, NaN, NaN, NaN, NaN, NaN, NaN, NaN, NaN, NaN, NaN, NaN, NaN, NaN, NaN, NaN, NaN, NaN, NaN, NaN, NaN, NaN, NaN, NaN, NaN, NaN, NaN, NaN, NaN, NaN, NaN, NaN, NaN, NaN, NaN, NaN, NaN, NaN, NaN, NaN, NaN, NaN, NaN, NaN, NaN, NaN, NaN, NaN, NaN, NaN, NaN, NaN, NaN, NaN, NaN, NaN, NaN, NaN, NaN, NaN, NaN, NaN, NaN, NaN, NaN, NaN, NaN, NaN, NaN, NaN, NaN, NaN, NaN, NaN, NaN, NaN, NaN, NaN, NaN, NaN, NaN, NaN, NaN, NaN, NaN, NaN, NaN, NaN, NaN, NaN, NaN, NaN, NaN, NaN, NaN, NaN, NaN, NaN, NaN, NaN, NaN, NaN, NaN, NaN, NaN, NaN, NaN, NaN, NaN, NaN, NaN, NaN, NaN, NaN, NaN, NaN, NaN, NaN, NaN, NaN, NaN, NaN, NaN, NaN, NaN, NaN, NaN, NaN, NaN, NaN, NaN, NaN, NaN, NaN, NaN, NaN, NaN, NaN, NaN, NaN, NaN, NaN, NaN, NaN, NaN, NaN, NaN, NaN, NaN, NaN, NaN, NaN, NaN, NaN, NaN, NaN, NaN, NaN, NaN, NaN, NaN, NaN, NaN, NaN, NaN, NaN, NaN, NaN, NaN, NaN, NaN, NaN, NaN, NaN, NaN, NaN, NaN, NaN, NaN, NaN, NaN, NaN, NaN, NaN, NaN, NaN, NaN, NaN, NaN, NaN, NaN, NaN, NaN, NaN, NaN, NaN, NaN, NaN, NaN, NaN, NaN, NaN, NaN, NaN, NaN, NaN, NaN, NaN, NaN, NaN, NaN, NaN, NaN, NaN, NaN, NaN, NaN, NaN, NaN, NaN, NaN, NaN, NaN, NaN, NaN, NaN, NaN, NaN, NaN, NaN, NaN, NaN, NaN, NaN, NaN, NaN, NaN, NaN, NaN, NaN, NaN, NaN, NaN, NaN, NaN, NaN, NaN, NaN, NaN, NaN, NaN, NaN, NaN, NaN, NaN, NaN, NaN, NaN, NaN, NaN, NaN, NaN, NaN, NaN, NaN, NaN, NaN, NaN, NaN, NaN, NaN, NaN, NaN, NaN, NaN, NaN, NaN, NaN, NaN, NaN, NaN, NaN, NaN, NaN, NaN, NaN, NaN, NaN, NaN, NaN, NaN, NaN, NaN, NaN, NaN, NaN, NaN, NaN, NaN, NaN, NaN, NaN, NaN, NaN, NaN, NaN, NaN, NaN, NaN, NaN, NaN, NaN, NaN, NaN, NaN, NaN, NaN, NaN, NaN, NaN, NaN, NaN, NaN, NaN, NaN, NaN, NaN, NaN, NaN, NaN, NaN, NaN, NaN, NaN, NaN, NaN, NaN, NaN, NaN, NaN, NaN, NaN, NaN, NaN, NaN, NaN, NaN, NaN, NaN, NaN, NaN, NaN, NaN, NaN, NaN, NaN, NaN, NaN, NaN, NaN, NaN, NaN, NaN, NaN, NaN, NaN, NaN, NaN, NaN, NaN, NaN, NaN, NaN, NaN, NaN, NaN, NaN, NaN, NaN, NaN, NaN, NaN, NaN, NaN, NaN, NaN, NaN, NaN, NaN, NaN, NaN, NaN, NaN, NaN, NaN, NaN, NaN, NaN, NaN, NaN, NaN, NaN, NaN, NaN, NaN, NaN, NaN, NaN, NaN, NaN, NaN, NaN, NaN, NaN, NaN, NaN, NaN, NaN, NaN, NaN, NaN, NaN, NaN, NaN, NaN, NaN, NaN, NaN, NaN, NaN, NaN, NaN, NaN, NaN, NaN, NaN, NaN, NaN, NaN, NaN, NaN, NaN, NaN, NaN, NaN, NaN, NaN, NaN, NaN, NaN, NaN, NaN, NaN, NaN, NaN, NaN, NaN, NaN, NaN, NaN, NaN, NaN, NaN, NaN, NaN, NaN, NaN, NaN, NaN, NaN, NaN, NaN, NaN, NaN, NaN, NaN, NaN, NaN, NaN, NaN, NaN, NaN, NaN, NaN, NaN, NaN, NaN, NaN, NaN, NaN, NaN, NaN, NaN, NaN, NaN, NaN, NaN, NaN, NaN, NaN, NaN, NaN, NaN, NaN, NaN, NaN, NaN, NaN, NaN, NaN, NaN, NaN, NaN, NaN, NaN, NaN, NaN, NaN, NaN, NaN, NaN, NaN, NaN, NaN, NaN, NaN, NaN, NaN, NaN, NaN, NaN, NaN, NaN, NaN, NaN, NaN, NaN, NaN, NaN, NaN, NaN, NaN, NaN, NaN, NaN, NaN, NaN, NaN, NaN, NaN, NaN, NaN, NaN, NaN, NaN, NaN, NaN, NaN, NaN, NaN, NaN, NaN, NaN, NaN, NaN, NaN, NaN, NaN, NaN, NaN, NaN, NaN, NaN, NaN, NaN, NaN, NaN, NaN, NaN, NaN, NaN, NaN, NaN, NaN, NaN, NaN, NaN, NaN, NaN, NaN, NaN, NaN, NaN, NaN, NaN, NaN, NaN, NaN, NaN, NaN, NaN, NaN, NaN, NaN, NaN, NaN, NaN, NaN, NaN, NaN, NaN, NaN, NaN, NaN, NaN, NaN, NaN, NaN, NaN, NaN, NaN, NaN, NaN, NaN, NaN, NaN, NaN, NaN, NaN, NaN, NaN, NaN, NaN, NaN, NaN, NaN, NaN, NaN, NaN, NaN, NaN, NaN, NaN, NaN, NaN, NaN, NaN, NaN, NaN, NaN, NaN, NaN, NaN, NaN, NaN, NaN, NaN, NaN, NaN, NaN, NaN, NaN, NaN, NaN, NaN, NaN, NaN, NaN, NaN, NaN, NaN, NaN, NaN, NaN, NaN, NaN, NaN, NaN, NaN, NaN, NaN, NaN, NaN, NaN, NaN, NaN, NaN, NaN, NaN, NaN, NaN, NaN, NaN, NaN, NaN, NaN, NaN, NaN, NaN, NaN, NaN, NaN, NaN, NaN, NaN, NaN, NaN, NaN, NaN, NaN, NaN, NaN, NaN, NaN, NaN, NaN, NaN, NaN, NaN, NaN, NaN, NaN, NaN, NaN, NaN, NaN, NaN, NaN, NaN, NaN, NaN, NaN, NaN, NaN, NaN, NaN, NaN, NaN, NaN, NaN, NaN, NaN, NaN, NaN, NaN, NaN, NaN, NaN, NaN, NaN, NaN, NaN, NaN, NaN, NaN, NaN, NaN, NaN, NaN, NaN, NaN, NaN, NaN, NaN, NaN, NaN, NaN, NaN, NaN, NaN, NaN, NaN, NaN, NaN, NaN, NaN, NaN, NaN, NaN, NaN, NaN, NaN, NaN, NaN, NaN, NaN, NaN, NaN, NaN, NaN, NaN, NaN, NaN, NaN, NaN, NaN, NaN, NaN, NaN, NaN, NaN, NaN, NaN, NaN, NaN, NaN, NaN, NaN, NaN, NaN, NaN, NaN, NaN, NaN, NaN, NaN, NaN, NaN, NaN, NaN, NaN, NaN, NaN, NaN, NaN, NaN, NaN, NaN, NaN, NaN, NaN, NaN, NaN, NaN, NaN, NaN, NaN, NaN, NaN, NaN, NaN, NaN, NaN, NaN, NaN, NaN, NaN, NaN, NaN, NaN, NaN, NaN, NaN, NaN, NaN, NaN, NaN, NaN, NaN, NaN, NaN, NaN, NaN, NaN, NaN, NaN, NaN, NaN, NaN, NaN, NaN, NaN, NaN, NaN, NaN, NaN, NaN, NaN, NaN, NaN, NaN, NaN, NaN, NaN, NaN, NaN, NaN, NaN, NaN, NaN, NaN, NaN, NaN, NaN, NaN, NaN, NaN, NaN, NaN, NaN, NaN, NaN, NaN, NaN, NaN, NaN, NaN, NaN, NaN, NaN, NaN, NaN, NaN, NaN, NaN, NaN, NaN, NaN, NaN, NaN, NaN, NaN, NaN, NaN, NaN, NaN, NaN, NaN, NaN, NaN, NaN, NaN, NaN, NaN, NaN, NaN, NaN, NaN, NaN, NaN, NaN, NaN, NaN, NaN, NaN, NaN, NaN, NaN, NaN, NaN, NaN, NaN, NaN, NaN, NaN, NaN, NaN, NaN, NaN, NaN, NaN, NaN, NaN, NaN, NaN, NaN, NaN, NaN, NaN, NaN, NaN, NaN, NaN, NaN, NaN, NaN, NaN, NaN, NaN, NaN, NaN, NaN, NaN, NaN, NaN, NaN, NaN, NaN, NaN, NaN, NaN, NaN, NaN, NaN, NaN, NaN, NaN, NaN, NaN, NaN, NaN, NaN, NaN, NaN, NaN, NaN, NaN, NaN, NaN, NaN, NaN, NaN, NaN, NaN, NaN, NaN, NaN, NaN, NaN, NaN, NaN, NaN, NaN, NaN, NaN, NaN, NaN, NaN, NaN, NaN, NaN, NaN, NaN, NaN, NaN, NaN, NaN, NaN, NaN, NaN, NaN, NaN, NaN, NaN, NaN, NaN, NaN, NaN, NaN, NaN, NaN, NaN, NaN, NaN, NaN, NaN, NaN, NaN, NaN, NaN, NaN, NaN, NaN, NaN, NaN, NaN, NaN, NaN, NaN, NaN, NaN, NaN, NaN, NaN, NaN, NaN, NaN, NaN, NaN, NaN, NaN, NaN, NaN, NaN, NaN, NaN, NaN, NaN, NaN, NaN, NaN, NaN, NaN, NaN, NaN, NaN, NaN, NaN, NaN, NaN, NaN, NaN, NaN, NaN, NaN, NaN, NaN, NaN, NaN, NaN, NaN, NaN, NaN, NaN, NaN, NaN, NaN, NaN, NaN, NaN, NaN, NaN, NaN, NaN, NaN, NaN, NaN, NaN, NaN, NaN, NaN, NaN, NaN, NaN, NaN, NaN, NaN, NaN, NaN, NaN, NaN, NaN, NaN, NaN, NaN, NaN, NaN, NaN, NaN, NaN, NaN, NaN, NaN, NaN, NaN, NaN, NaN, NaN, NaN, NaN, NaN, NaN, NaN, NaN, NaN, NaN, NaN, NaN, NaN, NaN, NaN, NaN, NaN, NaN, NaN, NaN, NaN, NaN, NaN, NaN, NaN, NaN, NaN, NaN, NaN, NaN, NaN, NaN, NaN, NaN, NaN, NaN, NaN, NaN, NaN, NaN, NaN, NaN, NaN, NaN, NaN, NaN, NaN, NaN, NaN, NaN, NaN, NaN, NaN, NaN, NaN, NaN, NaN, NaN, NaN, NaN, NaN, NaN, NaN, NaN, NaN, NaN, NaN, NaN, NaN, NaN, NaN, NaN, NaN, NaN, NaN, NaN, NaN, NaN, NaN, NaN, NaN, NaN, NaN, NaN, NaN, NaN, NaN, NaN, NaN, NaN, NaN, NaN, NaN, NaN, NaN, NaN, NaN, NaN, NaN, NaN, NaN, NaN, NaN, NaN, NaN, NaN, NaN, NaN, NaN, NaN, NaN, NaN, NaN, NaN, NaN, NaN, NaN, NaN, NaN, NaN, NaN, NaN, NaN, NaN, NaN, NaN, NaN, NaN, NaN, NaN, NaN, NaN, NaN, NaN, NaN, NaN, NaN, NaN, NaN, NaN, NaN, NaN, NaN, NaN, NaN, NaN, NaN, NaN, NaN, NaN, NaN, NaN, NaN, NaN, NaN, NaN, NaN, NaN, NaN], "errors": [NaN]}, "date": "09:02:41 09 May 2021"}
{"payload": {"model": {"config": {"name": "model_43", "layers": [{"class_name": "InputLayer", "config": {"batch_input_shape": [null, 1], "dtype": "float64", "sparse": false, "ragged": false, "name": "input_44"}, "name": "input_44", "inbound_nodes": []}, {"class_name": "Dense", "config": {"name": "dense_344", "trainable": true, "dtype": "float64", "units": 10, "activation": "tanh", "use_bias": true, "kernel_initializer": {"class_name": "GlorotUniform", "config": {"seed": null}}, "bias_initializer": {"class_name": "Zeros", "config": {}}, "kernel_regularizer": null, "bias_regularizer": null, "activity_regularizer": null, "kernel_constraint": null, "bias_constraint": null}, "name": "dense_344", "inbound_nodes": [[["input_44", 0, 0, {}]]]}, {"class_name": "Dense", "config": {"name": "dense_345", "trainable": true, "dtype": "float64", "units": 10, "activation": "tanh", "use_bias": true, "kernel_initializer": {"class_name": "GlorotUniform", "config": {"seed": null}}, "bias_initializer": {"class_name": "Zeros", "config": {}}, "kernel_regularizer": null, "bias_regularizer": null, "activity_regularizer": null, "kernel_constraint": null, "bias_constraint": null}, "name": "dense_345", "inbound_nodes": [[["dense_344", 0, 0, {}]]]}, {"class_name": "Dense", "config": {"name": "dense_346", "trainable": true, "dtype": "float64", "units": 10, "activation": "tanh", "use_bias": true, "kernel_initializer": {"class_name": "GlorotUniform", "config": {"seed": null}}, "bias_initializer": {"class_name": "Zeros", "config": {}}, "kernel_regularizer": null, "bias_regularizer": null, "activity_regularizer": null, "kernel_constraint": null, "bias_constraint": null}, "name": "dense_346", "inbound_nodes": [[["dense_345", 0, 0, {}]]]}, {"class_name": "Dense", "config": {"name": "dense_347", "trainable": true, "dtype": "float64", "units": 10, "activation": "tanh", "use_bias": true, "kernel_initializer": {"class_name": "GlorotUniform", "config": {"seed": null}}, "bias_initializer": {"class_name": "Zeros", "config": {}}, "kernel_regularizer": null, "bias_regularizer": null, "activity_regularizer": null, "kernel_constraint": null, "bias_constraint": null}, "name": "dense_347", "inbound_nodes": [[["dense_346", 0, 0, {}]]]}, {"class_name": "Dense", "config": {"name": "dense_348", "trainable": true, "dtype": "float64", "units": 10, "activation": "tanh", "use_bias": true, "kernel_initializer": {"class_name": "GlorotUniform", "config": {"seed": null}}, "bias_initializer": {"class_name": "Zeros", "config": {}}, "kernel_regularizer": null, "bias_regularizer": null, "activity_regularizer": null, "kernel_constraint": null, "bias_constraint": null}, "name": "dense_348", "inbound_nodes": [[["dense_347", 0, 0, {}]]]}, {"class_name": "Dense", "config": {"name": "dense_349", "trainable": true, "dtype": "float64", "units": 10, "activation": "tanh", "use_bias": true, "kernel_initializer": {"class_name": "GlorotUniform", "config": {"seed": null}}, "bias_initializer": {"class_name": "Zeros", "config": {}}, "kernel_regularizer": null, "bias_regularizer": null, "activity_regularizer": null, "kernel_constraint": null, "bias_constraint": null}, "name": "dense_349", "inbound_nodes": [[["dense_348", 0, 0, {}]]]}, {"class_name": "Dense", "config": {"name": "dense_350", "trainable": true, "dtype": "float64", "units": 10, "activation": "tanh", "use_bias": true, "kernel_initializer": {"class_name": "GlorotUniform", "config": {"seed": null}}, "bias_initializer": {"class_name": "Zeros", "config": {}}, "kernel_regularizer": null, "bias_regularizer": null, "activity_regularizer": null, "kernel_constraint": null, "bias_constraint": null}, "name": "dense_350", "inbound_nodes": [[["dense_349", 0, 0, {}]]]}, {"class_name": "Dense", "config": {"name": "dense_351", "trainable": true, "dtype": "float64", "units": 1, "activation": "linear", "use_bias": true, "kernel_initializer": {"class_name": "GlorotUniform", "config": {"seed": null}}, "bias_initializer": {"class_name": "Zeros", "config": {}}, "kernel_regularizer": null, "bias_regularizer": null, "activity_regularizer": null, "kernel_constraint": null, "bias_constraint": null}, "name": "dense_351", "inbound_nodes": [[["dense_350", 0, 0, {}]]]}], "input_layers": [["input_44", 0, 0]], "output_layers": [["dense_351", 0, 0]]}, "summary": ["Model: \"model_43\"", "_________________________________________________________________", "Layer (type)                 Output Shape              Param #   ", "=================================================================", "input_44 (InputLayer)        [(None, 1)]               0         ", "_________________________________________________________________", "dense_344 (Dense)            (None, 10)                20        ", "_________________________________________________________________", "dense_345 (Dense)            (None, 10)                110       ", "_________________________________________________________________", "dense_346 (Dense)            (None, 10)                110       ", "_________________________________________________________________", "dense_347 (Dense)            (None, 10)                110       ", "_________________________________________________________________", "dense_348 (Dense)            (None, 10)                110       ", "_________________________________________________________________", "dense_349 (Dense)            (None, 10)                110       ", "_________________________________________________________________", "dense_350 (Dense)            (None, 10)                110       ", "_________________________________________________________________", "dense_351 (Dense)            (None, 1)                 11        ", "=================================================================", "Total params: 691", "Trainable params: 691", "Non-trainable params: 0", "_________________________________________________________________"]}, "kwargs": {"border_xs": [[0.1]], "border_ys": [[21.03504087643303]], "inside_xs_builder": "<function linspace_inside_xs_builder_builder.<locals>._inside_xs_builder at 0x7fbeb852e4d0>", "border_builder": "<function border_with_function_values_builder at 0x7fbeb64d3560>", "equation_builder": "<function first_order_equation_builder_builder.<locals>.equation_builder at 0x7fbeb852edd0>", "input_dim": 1, "output_dim": 1, "sol": "<function <lambda> at 0x7fbeb852e3b0>", "random_seed": 1, "N_f": 1000, "epochs": 2000, "clip_grad": 1, "learning_rate": 0.01, "model_builder": "NN[[10, 10, 10, 10, 10, 10, 10]]", "optimizers": [1, 1], "border_loss_multiplier": 1, "ode": "NL-ODE4"}, "losses": [… "errors": [1.7456262519931828e-07]}, "date": "09:05:58 09 May 2021"}
{"payload": {"model": {"config": {"name": "model_44", "layers": [{"class_name": "InputLayer", "config": {"batch_input_shape": [null, 1], "dtype": "float64", "sparse": false, "ragged": false, "name": "input_45"}, "name": "input_45", "inbound_nodes": []}, {"class_name": "Dense", "config": {"name": "dense_352", "trainable": true, "dtype": "float64", "units": 10, "activation": "tanh", "use_bias": true, "kernel_initializer": {"class_name": "GlorotUniform", "config": {"seed": null}}, "bias_initializer": {"class_name": "Zeros", "config": {}}, "kernel_regularizer": null, "bias_regularizer": null, "activity_regularizer": null, "kernel_constraint": null, "bias_constraint": null}, "name": "dense_352", "inbound_nodes": [[["input_45", 0, 0, {}]]]}, {"class_name": "Dense", "config": {"name": "dense_353", "trainable": true, "dtype": "float64", "units": 10, "activation": "tanh", "use_bias": true, "kernel_initializer": {"class_name": "GlorotUniform", "config": {"seed": null}}, "bias_initializer": {"class_name": "Zeros", "config": {}}, "kernel_regularizer": null, "bias_regularizer": null, "activity_regularizer": null, "kernel_constraint": null, "bias_constraint": null}, "name": "dense_353", "inbound_nodes": [[["dense_352", 0, 0, {}]]]}, {"class_name": "Dense", "config": {"name": "dense_354", "trainable": true, "dtype": "float64", "units": 10, "activation": "tanh", "use_bias": true, "kernel_initializer": {"class_name": "GlorotUniform", "config": {"seed": null}}, "bias_initializer": {"class_name": "Zeros", "config": {}}, "kernel_regularizer": null, "bias_regularizer": null, "activity_regularizer": null, "kernel_constraint": null, "bias_constraint": null}, "name": "dense_354", "inbound_nodes": [[["dense_353", 0, 0, {}]]]}, {"class_name": "Dense", "config": {"name": "dense_355", "trainable": true, "dtype": "float64", "units": 10, "activation": "tanh", "use_bias": true, "kernel_initializer": {"class_name": "GlorotUniform", "config": {"seed": null}}, "bias_initializer": {"class_name": "Zeros", "config": {}}, "kernel_regularizer": null, "bias_regularizer": null, "activity_regularizer": null, "kernel_constraint": null, "bias_constraint": null}, "name": "dense_355", "inbound_nodes": [[["dense_354", 0, 0, {}]]]}, {"class_name": "Dense", "config": {"name": "dense_356", "trainable": true, "dtype": "float64", "units": 10, "activation": "tanh", "use_bias": true, "kernel_initializer": {"class_name": "GlorotUniform", "config": {"seed": null}}, "bias_initializer": {"class_name": "Zeros", "config": {}}, "kernel_regularizer": null, "bias_regularizer": null, "activity_regularizer": null, "kernel_constraint": null, "bias_constraint": null}, "name": "dense_356", "inbound_nodes": [[["dense_355", 0, 0, {}]]]}, {"class_name": "Dense", "config": {"name": "dense_357", "trainable": true, "dtype": "float64", "units": 10, "activation": "tanh", "use_bias": true, "kernel_initializer": {"class_name": "GlorotUniform", "config": {"seed": null}}, "bias_initializer": {"class_name": "Zeros", "config": {}}, "kernel_regularizer": null, "bias_regularizer": null, "activity_regularizer": null, "kernel_constraint": null, "bias_constraint": null}, "name": "dense_357", "inbound_nodes": [[["dense_356", 0, 0, {}]]]}, {"class_name": "Dense", "config": {"name": "dense_358", "trainable": true, "dtype": "float64", "units": 10, "activation": "tanh", "use_bias": true, "kernel_initializer": {"class_name": "GlorotUniform", "config": {"seed": null}}, "bias_initializer": {"class_name": "Zeros", "config": {}}, "kernel_regularizer": null, "bias_regularizer": null, "activity_regularizer": null, "kernel_constraint": null, "bias_constraint": null}, "name": "dense_358", "inbound_nodes": [[["dense_357", 0, 0, {}]]]}, {"class_name": "Dense", "config": {"name": "dense_359", "trainable": true, "dtype": "float64", "units": 1, "activation": "linear", "use_bias": true, "kernel_initializer": {"class_name": "GlorotUniform", "config": {"seed": null}}, "bias_initializer": {"class_name": "Zeros", "config": {}}, "kernel_regularizer": null, "bias_regularizer": null, "activity_regularizer": null, "kernel_constraint": null, "bias_constraint": null}, "name": "dense_359", "inbound_nodes": [[["dense_358", 0, 0, {}]]]}], "input_layers": [["input_45", 0, 0]], "output_layers": [["dense_359", 0, 0]]}, "summary": ["Model: \"model_44\"", "_________________________________________________________________", "Layer (type)                 Output Shape              Param #   ", "=================================================================", "input_45 (InputLayer)        [(None, 1)]               0         ", "_________________________________________________________________", "dense_352 (Dense)            (None, 10)                20        ", "_________________________________________________________________", "dense_353 (Dense)            (None, 10)                110       ", "_________________________________________________________________", "dense_354 (Dense)            (None, 10)                110       ", "_________________________________________________________________", "dense_355 (Dense)            (None, 10)                110       ", "_________________________________________________________________", "dense_356 (Dense)            (None, 10)                110       ", "_________________________________________________________________", "dense_357 (Dense)            (None, 10)                110       ", "_________________________________________________________________", "dense_358 (Dense)            (None, 10)                110       ", "_________________________________________________________________", "dense_359 (Dense)            (None, 1)                 11        ", "=================================================================", "Total params: 691", "Trainable params: 691", "Non-trainable params: 0", "_________________________________________________________________"]}, "kwargs": {"border_xs": [[1.0]], "border_ys": [[1.0], [0.0]], "inside_xs_builder": "<function linspace_inside_xs_builder_builder.<locals>._inside_xs_builder at 0x7fbebc691200>", "border_builder": "<function border_builder at 0x7fbeb6d8ac20>", "equation_builder": "<function second_order_equation_builder_builder.<locals>.equation_builder at 0x7fbebc691c20>", "input_dim": 1, "output_dim": 1, "sol": "<function <lambda> at 0x7fbebc6917a0>", "random_seed": 1, "N_f": 1000, "epochs": 2000, "clip_grad": 1, "learning_rate": 0.01, "model_builder": "NN[[10, 10, 10, 10, 10, 10, 10]]", "optimizers": [1, 1], "border_loss_multiplier": 1, "ode": "NL-ODEn1"}, "losses": [… "errors": [1.5630017477863514e-08]}, "date": "09:07:01 09 May 2021"}
{"payload": {"model": {"config": {"name": "model_45", "layers": [{"class_name": "InputLayer", "config": {"batch_input_shape": [null, 1], "dtype": "float64", "sparse": false, "ragged": false, "name": "input_46"}, "name": "input_46", "inbound_nodes": []}, {"class_name": "Dense", "config": {"name": "dense_360", "trainable": true, "dtype": "float64", "units": 10, "activation": "tanh", "use_bias": true, "kernel_initializer": {"class_name": "GlorotUniform", "config": {"seed": null}}, "bias_initializer": {"class_name": "Zeros", "config": {}}, "kernel_regularizer": null, "bias_regularizer": null, "activity_regularizer": null, "kernel_constraint": null, "bias_constraint": null}, "name": "dense_360", "inbound_nodes": [[["input_46", 0, 0, {}]]]}, {"class_name": "Dense", "config": {"name": "dense_361", "trainable": true, "dtype": "float64", "units": 10, "activation": "tanh", "use_bias": true, "kernel_initializer": {"class_name": "GlorotUniform", "config": {"seed": null}}, "bias_initializer": {"class_name": "Zeros", "config": {}}, "kernel_regularizer": null, "bias_regularizer": null, "activity_regularizer": null, "kernel_constraint": null, "bias_constraint": null}, "name": "dense_361", "inbound_nodes": [[["dense_360", 0, 0, {}]]]}, {"class_name": "Dense", "config": {"name": "dense_362", "trainable": true, "dtype": "float64", "units": 10, "activation": "tanh", "use_bias": true, "kernel_initializer": {"class_name": "GlorotUniform", "config": {"seed": null}}, "bias_initializer": {"class_name": "Zeros", "config": {}}, "kernel_regularizer": null, "bias_regularizer": null, "activity_regularizer": null, "kernel_constraint": null, "bias_constraint": null}, "name": "dense_362", "inbound_nodes": [[["dense_361", 0, 0, {}]]]}, {"class_name": "Dense", "config": {"name": "dense_363", "trainable": true, "dtype": "float64", "units": 10, "activation": "tanh", "use_bias": true, "kernel_initializer": {"class_name": "GlorotUniform", "config": {"seed": null}}, "bias_initializer": {"class_name": "Zeros", "config": {}}, "kernel_regularizer": null, "bias_regularizer": null, "activity_regularizer": null, "kernel_constraint": null, "bias_constraint": null}, "name": "dense_363", "inbound_nodes": [[["dense_362", 0, 0, {}]]]}, {"class_name": "Dense", "config": {"name": "dense_364", "trainable": true, "dtype": "float64", "units": 10, "activation": "tanh", "use_bias": true, "kernel_initializer": {"class_name": "GlorotUniform", "config": {"seed": null}}, "bias_initializer": {"class_name": "Zeros", "config": {}}, "kernel_regularizer": null, "bias_regularizer": null, "activity_regularizer": null, "kernel_constraint": null, "bias_constraint": null}, "name": "dense_364", "inbound_nodes": [[["dense_363", 0, 0, {}]]]}, {"class_name": "Dense", "config": {"name": "dense_365", "trainable": true, "dtype": "float64", "units": 10, "activation": "tanh", "use_bias": true, "kernel_initializer": {"class_name": "GlorotUniform", "config": {"seed": null}}, "bias_initializer": {"class_name": "Zeros", "config": {}}, "kernel_regularizer": null, "bias_regularizer": null, "activity_regularizer": null, "kernel_constraint": null, "bias_constraint": null}, "name": "dense_365", "inbound_nodes": [[["dense_364", 0, 0, {}]]]}, {"class_name": "Dense", "config": {"name": "dense_366", "trainable": true, "dtype": "float64", "units": 10, "activation": "tanh", "use_bias": true, "kernel_initializer": {"class_name": "GlorotUniform", "config": {"seed": null}}, "bias_initializer": {"class_name": "Zeros", "config": {}}, "kernel_regularizer": null, "bias_regularizer": null, "activity_regularizer": null, "kernel_constraint": null, "bias_constraint": null}, "name": "dense_366", "inbound_nodes": [[["dense_365", 0, 0, {}]]]}, {"class_name": "Dense", "config": {"name": "dense_367", "trainable": true, "dtype": "float64", "units": 1, "activation": "linear", "use_bias": true, "kernel_initializer": {"class_name": "GlorotUniform", "config": {"seed": null}}, "bias_initializer": {"class_name": "Zeros", "config": {}}, "kernel_regularizer": null, "bias_regularizer": null, "activity_regularizer": null, "kernel_constraint": null, "bias_constraint": null}, "name": "dense_367", "inbound_nodes": [[["dense_366", 0, 0, {}]]]}], "input_layers": [["input_46", 0, 0]], "output_layers": [["dense_367", 0, 0]]}, "summary": ["Model: \"model_45\"", "_________________________________________________________________", "Layer (type)                 Output Shape              Param #   ", "=================================================================", "input_46 (InputLayer)        [(None, 1)]               0         ", "_________________________________________________________________", "dense_360 (Dense)            (None, 10)                20        ", "_________________________________________________________________", "dense_361 (Dense)            (None, 10)                110       ", "_________________________________________________________________", "dense_362 (Dense)            (None, 10)                110       ", "_________________________________________________________________", "dense_363 (Dense)            (None, 10)                110       ", "_________________________________________________________________", "dense_364 (Dense)            (None, 10)                110       ", "_________________________________________________________________", "dense_365 (Dense)            (None, 10)                110       ", "_________________________________________________________________", "dense_366 (Dense)            (None, 10)                110       ", "_________________________________________________________________", "dense_367 (Dense)            (None, 1)                 11        ", "=================================================================", "Total params: 691", "Trainable params: 691", "Non-trainable params: 0", "_________________________________________________________________"]}, "kwargs": {"border_xs": [[1.0]], "border_ys": [[0.0], [3.0]], "inside_xs_builder": "<function linspace_inside_xs_builder_builder.<locals>._inside_xs_builder at 0x7fbebc6914d0>", "border_builder": "<function border_builder at 0x7fbeb6d8ac20>", "equation_builder": "<function second_order_equation_builder_builder.<locals>.equation_builder at 0x7fbebc691a70>", "input_dim": 1, "output_dim": 1, "sol": "<function <lambda> at 0x7fbebc691950>", "random_seed": 1, "N_f": 1000, "epochs": 2000, "clip_grad": 1, "learning_rate": 0.01, "model_builder": "NN[[10, 10, 10, 10, 10, 10, 10]]", "optimizers": [1, 1], "border_loss_multiplier": 1, "ode": "NL-ODEn2"}, "losses": [… "errors": [2.4703114883038295e-09]}, "date": "09:08:10 09 May 2021"}
{"payload": {"model": {"config": {"name": "model_46", "layers": [{"class_name": "InputLayer", "config": {"batch_input_shape": [null, 1], "dtype": "float64", "sparse": false, "ragged": false, "name": "input_47"}, "name": "input_47", "inbound_nodes": []}, {"class_name": "Dense", "config": {"name": "dense_368", "trainable": true, "dtype": "float64", "units": 10, "activation": "tanh", "use_bias": true, "kernel_initializer": {"class_name": "GlorotUniform", "config": {"seed": null}}, "bias_initializer": {"class_name": "Zeros", "config": {}}, "kernel_regularizer": null, "bias_regularizer": null, "activity_regularizer": null, "kernel_constraint": null, "bias_constraint": null}, "name": "dense_368", "inbound_nodes": [[["input_47", 0, 0, {}]]]}, {"class_name": "Dense", "config": {"name": "dense_369", "trainable": true, "dtype": "float64", "units": 10, "activation": "tanh", "use_bias": true, "kernel_initializer": {"class_name": "GlorotUniform", "config": {"seed": null}}, "bias_initializer": {"class_name": "Zeros", "config": {}}, "kernel_regularizer": null, "bias_regularizer": null, "activity_regularizer": null, "kernel_constraint": null, "bias_constraint": null}, "name": "dense_369", "inbound_nodes": [[["dense_368", 0, 0, {}]]]}, {"class_name": "Dense", "config": {"name": "dense_370", "trainable": true, "dtype": "float64", "units": 10, "activation": "tanh", "use_bias": true, "kernel_initializer": {"class_name": "GlorotUniform", "config": {"seed": null}}, "bias_initializer": {"class_name": "Zeros", "config": {}}, "kernel_regularizer": null, "bias_regularizer": null, "activity_regularizer": null, "kernel_constraint": null, "bias_constraint": null}, "name": "dense_370", "inbound_nodes": [[["dense_369", 0, 0, {}]]]}, {"class_name": "Dense", "config": {"name": "dense_371", "trainable": true, "dtype": "float64", "units": 10, "activation": "tanh", "use_bias": true, "kernel_initializer": {"class_name": "GlorotUniform", "config": {"seed": null}}, "bias_initializer": {"class_name": "Zeros", "config": {}}, "kernel_regularizer": null, "bias_regularizer": null, "activity_regularizer": null, "kernel_constraint": null, "bias_constraint": null}, "name": "dense_371", "inbound_nodes": [[["dense_370", 0, 0, {}]]]}, {"class_name": "Dense", "config": {"name": "dense_372", "trainable": true, "dtype": "float64", "units": 10, "activation": "tanh", "use_bias": true, "kernel_initializer": {"class_name": "GlorotUniform", "config": {"seed": null}}, "bias_initializer": {"class_name": "Zeros", "config": {}}, "kernel_regularizer": null, "bias_regularizer": null, "activity_regularizer": null, "kernel_constraint": null, "bias_constraint": null}, "name": "dense_372", "inbound_nodes": [[["dense_371", 0, 0, {}]]]}, {"class_name": "Dense", "config": {"name": "dense_373", "trainable": true, "dtype": "float64", "units": 10, "activation": "tanh", "use_bias": true, "kernel_initializer": {"class_name": "GlorotUniform", "config": {"seed": null}}, "bias_initializer": {"class_name": "Zeros", "config": {}}, "kernel_regularizer": null, "bias_regularizer": null, "activity_regularizer": null, "kernel_constraint": null, "bias_constraint": null}, "name": "dense_373", "inbound_nodes": [[["dense_372", 0, 0, {}]]]}, {"class_name": "Dense", "config": {"name": "dense_374", "trainable": true, "dtype": "float64", "units": 10, "activation": "tanh", "use_bias": true, "kernel_initializer": {"class_name": "GlorotUniform", "config": {"seed": null}}, "bias_initializer": {"class_name": "Zeros", "config": {}}, "kernel_regularizer": null, "bias_regularizer": null, "activity_regularizer": null, "kernel_constraint": null, "bias_constraint": null}, "name": "dense_374", "inbound_nodes": [[["dense_373", 0, 0, {}]]]}, {"class_name": "Dense", "config": {"name": "dense_375", "trainable": true, "dtype": "float64", "units": 2, "activation": "linear", "use_bias": true, "kernel_initializer": {"class_name": "GlorotUniform", "config": {"seed": null}}, "bias_initializer": {"class_name": "Zeros", "config": {}}, "kernel_regularizer": null, "bias_regularizer": null, "activity_regularizer": null, "kernel_constraint": null, "bias_constraint": null}, "name": "dense_375", "inbound_nodes": [[["dense_374", 0, 0, {}]]]}], "input_layers": [["input_47", 0, 0]], "output_layers": [["dense_375", 0, 0]]}, "summary": ["Model: \"model_46\"", "_________________________________________________________________", "Layer (type)                 Output Shape              Param #   ", "=================================================================", "input_47 (InputLayer)        [(None, 1)]               0         ", "_________________________________________________________________", "dense_368 (Dense)            (None, 10)                20        ", "_________________________________________________________________", "dense_369 (Dense)            (None, 10)                110       ", "_________________________________________________________________", "dense_370 (Dense)            (None, 10)                110       ", "_________________________________________________________________", "dense_371 (Dense)            (None, 10)                110       ", "_________________________________________________________________", "dense_372 (Dense)            (None, 10)                110       ", "_________________________________________________________________", "dense_373 (Dense)            (None, 10)                110       ", "_________________________________________________________________", "dense_374 (Dense)            (None, 10)                110       ", "_________________________________________________________________", "dense_375 (Dense)            (None, 2)                 22        ", "=================================================================", "Total params: 702", "Trainable params: 702", "Non-trainable params: 0", "_________________________________________________________________"]}, "kwargs": {"border_xs": [[0.0]], "border_ys": [0.0, 10.0], "inside_xs_builder": "<function linspace_inside_xs_builder_builder.<locals>._inside_xs_builder at 0x7fbeb7849b00>", "border_builder": "<function border_with_function_values_builder at 0x7fbeb64d3560>", "equation_builder": "<function first_order_equation_builder_builder.<locals>.equation_builder at 0x7fbebc7fc9e0>", "input_dim": 1, "output_dim": 2, "sol": "<function <lambda> at 0x7fbebc7fca70>", "random_seed": 1, "N_f": 1000, "epochs": 2000, "clip_grad": 1, "learning_rate": 0.01, "model_builder": "NN[[10, 10, 10, 10, 10, 10, 10]]", "optimizers": [1, 1], "border_loss_multiplier": 1, "ode": "SODE1"}, "losses": [… "errors": [39.33123962200727]}, "date": "09:12:03 09 May 2021"}
{"payload": {"model": {"config": {"name": "model_47", "layers": [{"class_name": "InputLayer", "config": {"batch_input_shape": [null, 1], "dtype": "float64", "sparse": false, "ragged": false, "name": "input_48"}, "name": "input_48", "inbound_nodes": []}, {"class_name": "Dense", "config": {"name": "dense_376", "trainable": true, "dtype": "float64", "units": 10, "activation": "tanh", "use_bias": true, "kernel_initializer": {"class_name": "GlorotUniform", "config": {"seed": null}}, "bias_initializer": {"class_name": "Zeros", "config": {}}, "kernel_regularizer": null, "bias_regularizer": null, "activity_regularizer": null, "kernel_constraint": null, "bias_constraint": null}, "name": "dense_376", "inbound_nodes": [[["input_48", 0, 0, {}]]]}, {"class_name": "Dense", "config": {"name": "dense_377", "trainable": true, "dtype": "float64", "units": 10, "activation": "tanh", "use_bias": true, "kernel_initializer": {"class_name": "GlorotUniform", "config": {"seed": null}}, "bias_initializer": {"class_name": "Zeros", "config": {}}, "kernel_regularizer": null, "bias_regularizer": null, "activity_regularizer": null, "kernel_constraint": null, "bias_constraint": null}, "name": "dense_377", "inbound_nodes": [[["dense_376", 0, 0, {}]]]}, {"class_name": "Dense", "config": {"name": "dense_378", "trainable": true, "dtype": "float64", "units": 10, "activation": "tanh", "use_bias": true, "kernel_initializer": {"class_name": "GlorotUniform", "config": {"seed": null}}, "bias_initializer": {"class_name": "Zeros", "config": {}}, "kernel_regularizer": null, "bias_regularizer": null, "activity_regularizer": null, "kernel_constraint": null, "bias_constraint": null}, "name": "dense_378", "inbound_nodes": [[["dense_377", 0, 0, {}]]]}, {"class_name": "Dense", "config": {"name": "dense_379", "trainable": true, "dtype": "float64", "units": 10, "activation": "tanh", "use_bias": true, "kernel_initializer": {"class_name": "GlorotUniform", "config": {"seed": null}}, "bias_initializer": {"class_name": "Zeros", "config": {}}, "kernel_regularizer": null, "bias_regularizer": null, "activity_regularizer": null, "kernel_constraint": null, "bias_constraint": null}, "name": "dense_379", "inbound_nodes": [[["dense_378", 0, 0, {}]]]}, {"class_name": "Dense", "config": {"name": "dense_380", "trainable": true, "dtype": "float64", "units": 10, "activation": "tanh", "use_bias": true, "kernel_initializer": {"class_name": "GlorotUniform", "config": {"seed": null}}, "bias_initializer": {"class_name": "Zeros", "config": {}}, "kernel_regularizer": null, "bias_regularizer": null, "activity_regularizer": null, "kernel_constraint": null, "bias_constraint": null}, "name": "dense_380", "inbound_nodes": [[["dense_379", 0, 0, {}]]]}, {"class_name": "Dense", "config": {"name": "dense_381", "trainable": true, "dtype": "float64", "units": 10, "activation": "tanh", "use_bias": true, "kernel_initializer": {"class_name": "GlorotUniform", "config": {"seed": null}}, "bias_initializer": {"class_name": "Zeros", "config": {}}, "kernel_regularizer": null, "bias_regularizer": null, "activity_regularizer": null, "kernel_constraint": null, "bias_constraint": null}, "name": "dense_381", "inbound_nodes": [[["dense_380", 0, 0, {}]]]}, {"class_name": "Dense", "config": {"name": "dense_382", "trainable": true, "dtype": "float64", "units": 10, "activation": "tanh", "use_bias": true, "kernel_initializer": {"class_name": "GlorotUniform", "config": {"seed": null}}, "bias_initializer": {"class_name": "Zeros", "config": {}}, "kernel_regularizer": null, "bias_regularizer": null, "activity_regularizer": null, "kernel_constraint": null, "bias_constraint": null}, "name": "dense_382", "inbound_nodes": [[["dense_381", 0, 0, {}]]]}, {"class_name": "Dense", "config": {"name": "dense_383", "trainable": true, "dtype": "float64", "units": 3, "activation": "linear", "use_bias": true, "kernel_initializer": {"class_name": "GlorotUniform", "config": {"seed": null}}, "bias_initializer": {"class_name": "Zeros", "config": {}}, "kernel_regularizer": null, "bias_regularizer": null, "activity_regularizer": null, "kernel_constraint": null, "bias_constraint": null}, "name": "dense_383", "inbound_nodes": [[["dense_382", 0, 0, {}]]]}], "input_layers": [["input_48", 0, 0]], "output_layers": [["dense_383", 0, 0]]}, "summary": ["Model: \"model_47\"", "_________________________________________________________________", "Layer (type)                 Output Shape              Param #   ", "=================================================================", "input_48 (InputLayer)        [(None, 1)]               0         ", "_________________________________________________________________", "dense_376 (Dense)            (None, 10)                20        ", "_________________________________________________________________", "dense_377 (Dense)            (None, 10)                110       ", "_________________________________________________________________", "dense_378 (Dense)            (None, 10)                110       ", "_________________________________________________________________", "dense_379 (Dense)            (None, 10)                110       ", "_________________________________________________________________", "dense_380 (Dense)            (None, 10)                110       ", "_________________________________________________________________", "dense_381 (Dense)            (None, 10)                110       ", "_________________________________________________________________", "dense_382 (Dense)            (None, 10)                110       ", "_________________________________________________________________", "dense_383 (Dense)            (None, 3)                 33        ", "=================================================================", "Total params: 713", "Trainable params: 713", "Non-trainable params: 0", "_________________________________________________________________"]}, "kwargs": {"border_xs": [[0]], "border_ys": [[0, 1, 1]], "inside_xs_builder": "<function linspace_inside_xs_builder_builder.<locals>._inside_xs_builder at 0x7fbebc7fce60>", "border_builder": "<function border_with_function_values_builder at 0x7fbeb64d3560>", "equation_builder": "<function first_order_equation_builder_builder.<locals>.equation_builder at 0x7fbeb65090e0>", "input_dim": 1, "output_dim": 3, "sol": "<function <lambda> at 0x7fbeb6509050>", "random_seed": 1, "N_f": 1000, "epochs": 2000, "clip_grad": 1, "learning_rate": 0.01, "model_builder": "NN[[10, 10, 10, 10, 10, 10, 10]]", "optimizers": [1, 1], "border_loss_multiplier": 1, "ode": "SODE2"}, "losses": [… "errors": [2.1629336128644213e-06]}, "date": "09:13:03 09 May 2021"}
