{"payload": {"model": {"config": {"name": "model_3", "layers": [{"class_name": "InputLayer", "config": {"batch_input_shape": [null, 1], "dtype": "float64", "sparse": false, "ragged": false, "name": "input_4"}, "name": "input_4", "inbound_nodes": []}, {"class_name": "Dense", "config": {"name": "dense_24", "trainable": true, "dtype": "float64", "units": 10, "activation": "tanh", "use_bias": true, "kernel_initializer": {"class_name": "GlorotUniform", "config": {"seed": null}}, "bias_initializer": {"class_name": "Zeros", "config": {}}, "kernel_regularizer": null, "bias_regularizer": null, "activity_regularizer": null, "kernel_constraint": null, "bias_constraint": null}, "name": "dense_24", "inbound_nodes": [[["input_4", 0, 0, {}]]]}, {"class_name": "Dense", "config": {"name": "dense_25", "trainable": true, "dtype": "float64", "units": 10, "activation": "tanh", "use_bias": true, "kernel_initializer": {"class_name": "GlorotUniform", "config": {"seed": null}}, "bias_initializer": {"class_name": "Zeros", "config": {}}, "kernel_regularizer": null, "bias_regularizer": null, "activity_regularizer": null, "kernel_constraint": null, "bias_constraint": null}, "name": "dense_25", "inbound_nodes": [[["dense_24", 0, 0, {}]]]}, {"class_name": "Dense", "config": {"name": "dense_26", "trainable": true, "dtype": "float64", "units": 10, "activation": "tanh", "use_bias": true, "kernel_initializer": {"class_name": "GlorotUniform", "config": {"seed": null}}, "bias_initializer": {"class_name": "Zeros", "config": {}}, "kernel_regularizer": null, "bias_regularizer": null, "activity_regularizer": null, "kernel_constraint": null, "bias_constraint": null}, "name": "dense_26", "inbound_nodes": [[["dense_25", 0, 0, {}]]]}, {"class_name": "Dense", "config": {"name": "dense_27", "trainable": true, "dtype": "float64", "units": 10, "activation": "tanh", "use_bias": true, "kernel_initializer": {"class_name": "GlorotUniform", "config": {"seed": null}}, "bias_initializer": {"class_name": "Zeros", "config": {}}, "kernel_regularizer": null, "bias_regularizer": null, "activity_regularizer": null, "kernel_constraint": null, "bias_constraint": null}, "name": "dense_27", "inbound_nodes": [[["dense_26", 0, 0, {}]]]}, {"class_name": "Dense", "config": {"name": "dense_28", "trainable": true, "dtype": "float64", "units": 10, "activation": "tanh", "use_bias": true, "kernel_initializer": {"class_name": "GlorotUniform", "config": {"seed": null}}, "bias_initializer": {"class_name": "Zeros", "config": {}}, "kernel_regularizer": null, "bias_regularizer": null, "activity_regularizer": null, "kernel_constraint": null, "bias_constraint": null}, "name": "dense_28", "inbound_nodes": [[["dense_27", 0, 0, {}]]]}, {"class_name": "Dense", "config": {"name": "dense_29", "trainable": true, "dtype": "float64", "units": 10, "activation": "tanh", "use_bias": true, "kernel_initializer": {"class_name": "GlorotUniform", "config": {"seed": null}}, "bias_initializer": {"class_name": "Zeros", "config": {}}, "kernel_regularizer": null, "bias_regularizer": null, "activity_regularizer": null, "kernel_constraint": null, "bias_constraint": null}, "name": "dense_29", "inbound_nodes": [[["dense_28", 0, 0, {}]]]}, {"class_name": "Dense", "config": {"name": "dense_30", "trainable": true, "dtype": "float64", "units": 10, "activation": "tanh", "use_bias": true, "kernel_initializer": {"class_name": "GlorotUniform", "config": {"seed": null}}, "bias_initializer": {"class_name": "Zeros", "config": {}}, "kernel_regularizer": null, "bias_regularizer": null, "activity_regularizer": null, "kernel_constraint": null, "bias_constraint": null}, "name": "dense_30", "inbound_nodes": [[["dense_29", 0, 0, {}]]]}, {"class_name": "Dense", "config": {"name": "dense_31", "trainable": true, "dtype": "float64", "units": 1, "activation": "linear", "use_bias": true, "kernel_initializer": {"class_name": "GlorotUniform", "config": {"seed": null}}, "bias_initializer": {"class_name": "Zeros", "config": {}}, "kernel_regularizer": null, "bias_regularizer": null, "activity_regularizer": null, "kernel_constraint": null, "bias_constraint": null}, "name": "dense_31", "inbound_nodes": [[["dense_30", 0, 0, {}]]]}], "input_layers": [["input_4", 0, 0]], "output_layers": [["dense_31", 0, 0]]}, "summary": ["Model: \"model_3\"", "_________________________________________________________________", "Layer (type)                 Output Shape              Param #   ", "=================================================================", "input_4 (InputLayer)         [(None, 1)]               0         ", "_________________________________________________________________", "dense_24 (Dense)             (None, 10)                20        ", "_________________________________________________________________", "dense_25 (Dense)             (None, 10)                110       ", "_________________________________________________________________", "dense_26 (Dense)             (None, 10)                110       ", "_________________________________________________________________", "dense_27 (Dense)             (None, 10)                110       ", "_________________________________________________________________", "dense_28 (Dense)             (None, 10)                110       ", "_________________________________________________________________", "dense_29 (Dense)             (None, 10)                110       ", "_________________________________________________________________", "dense_30 (Dense)             (None, 10)                110       ", "_________________________________________________________________", "dense_31 (Dense)             (None, 1)                 11        ", "=================================================================", "Total params: 691", "Trainable params: 691", "Non-trainable params: 0", "_________________________________________________________________"]}, "kwargs": {"border_xs": [[0.0]], "border_ys": [[1.0]], "inside_xs_builder": "<function linspace_inside_xs_builder_builder.<locals>._inside_xs_builder at 0x7f1151708950>", "border_builder": "<function border_with_function_values_builder at 0x7f115165e830>", "equation_builder": "<function first_order_equation_builder_builder.<locals>.equation_builder at 0x7f11516597a0>", "input_dim": 1, "output_dim": 1, "sol": "<function <lambda> at 0x7f1151659dd0>", "random_seed": 1, "N_f": 1000, "epochs": 2000, "clip_grad": 1, "learning_rate": 0.01, "model_builder": "NN[[10, 10, 10, 10, 10, 10, 10]]", "optimizers": [1, 1], "border_loss_multiplier": 1, "ode": "L-ODE1"}, "losses": [… "errors": [5.21299910659695e-09]}, "date": "09:41:48 09 May 2021"}
{"payload": {"model": {"config": {"name": "model_4", "layers": [{"class_name": "InputLayer", "config": {"batch_input_shape": [null, 1], "dtype": "float64", "sparse": false, "ragged": false, "name": "input_5"}, "name": "input_5", "inbound_nodes": []}, {"class_name": "Dense", "config": {"name": "dense_32", "trainable": true, "dtype": "float64", "units": 10, "activation": "tanh", "use_bias": true, "kernel_initializer": {"class_name": "GlorotUniform", "config": {"seed": null}}, "bias_initializer": {"class_name": "Zeros", "config": {}}, "kernel_regularizer": null, "bias_regularizer": null, "activity_regularizer": null, "kernel_constraint": null, "bias_constraint": null}, "name": "dense_32", "inbound_nodes": [[["input_5", 0, 0, {}]]]}, {"class_name": "Dense", "config": {"name": "dense_33", "trainable": true, "dtype": "float64", "units": 10, "activation": "tanh", "use_bias": true, "kernel_initializer": {"class_name": "GlorotUniform", "config": {"seed": null}}, "bias_initializer": {"class_name": "Zeros", "config": {}}, "kernel_regularizer": null, "bias_regularizer": null, "activity_regularizer": null, "kernel_constraint": null, "bias_constraint": null}, "name": "dense_33", "inbound_nodes": [[["dense_32", 0, 0, {}]]]}, {"class_name": "Dense", "config": {"name": "dense_34", "trainable": true, "dtype": "float64", "units": 10, "activation": "tanh", "use_bias": true, "kernel_initializer": {"class_name": "GlorotUniform", "config": {"seed": null}}, "bias_initializer": {"class_name": "Zeros", "config": {}}, "kernel_regularizer": null, "bias_regularizer": null, "activity_regularizer": null, "kernel_constraint": null, "bias_constraint": null}, "name": "dense_34", "inbound_nodes": [[["dense_33", 0, 0, {}]]]}, {"class_name": "Dense", "config": {"name": "dense_35", "trainable": true, "dtype": "float64", "units": 10, "activation": "tanh", "use_bias": true, "kernel_initializer": {"class_name": "GlorotUniform", "config": {"seed": null}}, "bias_initializer": {"class_name": "Zeros", "config": {}}, "kernel_regularizer": null, "bias_regularizer": null, "activity_regularizer": null, "kernel_constraint": null, "bias_constraint": null}, "name": "dense_35", "inbound_nodes": [[["dense_34", 0, 0, {}]]]}, {"class_name": "Dense", "config": {"name": "dense_36", "trainable": true, "dtype": "float64", "units": 10, "activation": "tanh", "use_bias": true, "kernel_initializer": {"class_name": "GlorotUniform", "config": {"seed": null}}, "bias_initializer": {"class_name": "Zeros", "config": {}}, "kernel_regularizer": null, "bias_regularizer": null, "activity_regularizer": null, "kernel_constraint": null, "bias_constraint": null}, "name": "dense_36", "inbound_nodes": [[["dense_35", 0, 0, {}]]]}, {"class_name": "Dense", "config": {"name": "dense_37", "trainable": true, "dtype": "float64", "units": 10, "activation": "tanh", "use_bias": true, "kernel_initializer": {"class_name": "GlorotUniform", "config": {"seed": null}}, "bias_initializer": {"class_name": "Zeros", "config": {}}, "kernel_regularizer": null, "bias_regularizer": null, "activity_regularizer": null, "kernel_constraint": null, "bias_constraint": null}, "name": "dense_37", "inbound_nodes": [[["dense_36", 0, 0, {}]]]}, {"class_name": "Dense", "config": {"name": "dense_38", "trainable": true, "dtype": "float64", "units": 10, "activation": "tanh", "use_bias": true, "kernel_initializer": {"class_name": "GlorotUniform", "config": {"seed": null}}, "bias_initializer": {"class_name": "Zeros", "config": {}}, "kernel_regularizer": null, "bias_regularizer": null, "activity_regularizer": null, "kernel_constraint": null, "bias_constraint": null}, "name": "dense_38", "inbound_nodes": [[["dense_37", 0, 0, {}]]]}, {"class_name": "Dense", "config": {"name": "dense_39", "trainable": true, "dtype": "float64", "units": 1, "activation": "linear", "use_bias": true, "kernel_initializer": {"class_name": "GlorotUniform", "config": {"seed": null}}, "bias_initializer": {"class_name": "Zeros", "config": {}}, "kernel_regularizer": null, "bias_regularizer": null, "activity_regularizer": null, "kernel_constraint": null, "bias_constraint": null}, "name": "dense_39", "inbound_nodes": [[["dense_38", 0, 0, {}]]]}], "input_layers": [["input_5", 0, 0]], "output_layers": [["dense_39", 0, 0]]}, "summary": ["Model: \"model_4\"", "_________________________________________________________________", "Layer (type)                 Output Shape              Param #   ", "=================================================================", "input_5 (InputLayer)         [(None, 1)]               0         ", "_________________________________________________________________", "dense_32 (Dense)             (None, 10)                20        ", "_________________________________________________________________", "dense_33 (Dense)             (None, 10)                110       ", "_________________________________________________________________", "dense_34 (Dense)             (None, 10)                110       ", "_________________________________________________________________", "dense_35 (Dense)             (None, 10)                110       ", "_________________________________________________________________", "dense_36 (Dense)             (None, 10)                110       ", "_________________________________________________________________", "dense_37 (Dense)             (None, 10)                110       ", "_________________________________________________________________", "dense_38 (Dense)             (None, 10)                110       ", "_________________________________________________________________", "dense_39 (Dense)             (None, 1)                 11        ", "=================================================================", "Total params: 691", "Trainable params: 691", "Non-trainable params: 0", "_________________________________________________________________"]}, "kwargs": {"border_xs": [[0.0]], "border_ys": [[1.0]], "inside_xs_builder": "<function linspace_inside_xs_builder_builder.<locals>._inside_xs_builder at 0x7f1151659200>", "border_builder": "<function border_with_function_values_builder at 0x7f115165e830>", "equation_builder": "<function first_order_equation_builder_builder.<locals>.equation_builder at 0x7f1151659b90>", "input_dim": 1, "output_dim": 1, "sol": "<function <lambda> at 0x7f115165e170>", "random_seed": 1, "N_f": 1000, "epochs": 2000, "clip_grad": 1, "learning_rate": 0.01, "model_builder": "NN[[10, 10, 10, 10, 10, 10, 10]]", "optimizers": [1, 1], "border_loss_multiplier": 1, "ode": "L-ODE2"}, "losses": [… "errors": [1.669358517458477e-08]}, "date": "09:42:32 09 May 2021"}
{"payload": {"model": {"config": {"name": "model_5", "layers": [{"class_name": "InputLayer", "config": {"batch_input_shape": [null, 1], "dtype": "float64", "sparse": false, "ragged": false, "name": "input_6"}, "name": "input_6", "inbound_nodes": []}, {"class_name": "Dense", "config": {"name": "dense_40", "trainable": true, "dtype": "float64", "units": 10, "activation": "tanh", "use_bias": true, "kernel_initializer": {"class_name": "GlorotUniform", "config": {"seed": null}}, "bias_initializer": {"class_name": "Zeros", "config": {}}, "kernel_regularizer": null, "bias_regularizer": null, "activity_regularizer": null, "kernel_constraint": null, "bias_constraint": null}, "name": "dense_40", "inbound_nodes": [[["input_6", 0, 0, {}]]]}, {"class_name": "Dense", "config": {"name": "dense_41", "trainable": true, "dtype": "float64", "units": 10, "activation": "tanh", "use_bias": true, "kernel_initializer": {"class_name": "GlorotUniform", "config": {"seed": null}}, "bias_initializer": {"class_name": "Zeros", "config": {}}, "kernel_regularizer": null, "bias_regularizer": null, "activity_regularizer": null, "kernel_constraint": null, "bias_constraint": null}, "name": "dense_41", "inbound_nodes": [[["dense_40", 0, 0, {}]]]}, {"class_name": "Dense", "config": {"name": "dense_42", "trainable": true, "dtype": "float64", "units": 10, "activation": "tanh", "use_bias": true, "kernel_initializer": {"class_name": "GlorotUniform", "config": {"seed": null}}, "bias_initializer": {"class_name": "Zeros", "config": {}}, "kernel_regularizer": null, "bias_regularizer": null, "activity_regularizer": null, "kernel_constraint": null, "bias_constraint": null}, "name": "dense_42", "inbound_nodes": [[["dense_41", 0, 0, {}]]]}, {"class_name": "Dense", "config": {"name": "dense_43", "trainable": true, "dtype": "float64", "units": 10, "activation": "tanh", "use_bias": true, "kernel_initializer": {"class_name": "GlorotUniform", "config": {"seed": null}}, "bias_initializer": {"class_name": "Zeros", "config": {}}, "kernel_regularizer": null, "bias_regularizer": null, "activity_regularizer": null, "kernel_constraint": null, "bias_constraint": null}, "name": "dense_43", "inbound_nodes": [[["dense_42", 0, 0, {}]]]}, {"class_name": "Dense", "config": {"name": "dense_44", "trainable": true, "dtype": "float64", "units": 10, "activation": "tanh", "use_bias": true, "kernel_initializer": {"class_name": "GlorotUniform", "config": {"seed": null}}, "bias_initializer": {"class_name": "Zeros", "config": {}}, "kernel_regularizer": null, "bias_regularizer": null, "activity_regularizer": null, "kernel_constraint": null, "bias_constraint": null}, "name": "dense_44", "inbound_nodes": [[["dense_43", 0, 0, {}]]]}, {"class_name": "Dense", "config": {"name": "dense_45", "trainable": true, "dtype": "float64", "units": 10, "activation": "tanh", "use_bias": true, "kernel_initializer": {"class_name": "GlorotUniform", "config": {"seed": null}}, "bias_initializer": {"class_name": "Zeros", "config": {}}, "kernel_regularizer": null, "bias_regularizer": null, "activity_regularizer": null, "kernel_constraint": null, "bias_constraint": null}, "name": "dense_45", "inbound_nodes": [[["dense_44", 0, 0, {}]]]}, {"class_name": "Dense", "config": {"name": "dense_46", "trainable": true, "dtype": "float64", "units": 10, "activation": "tanh", "use_bias": true, "kernel_initializer": {"class_name": "GlorotUniform", "config": {"seed": null}}, "bias_initializer": {"class_name": "Zeros", "config": {}}, "kernel_regularizer": null, "bias_regularizer": null, "activity_regularizer": null, "kernel_constraint": null, "bias_constraint": null}, "name": "dense_46", "inbound_nodes": [[["dense_45", 0, 0, {}]]]}, {"class_name": "Dense", "config": {"name": "dense_47", "trainable": true, "dtype": "float64", "units": 1, "activation": "linear", "use_bias": true, "kernel_initializer": {"class_name": "GlorotUniform", "config": {"seed": null}}, "bias_initializer": {"class_name": "Zeros", "config": {}}, "kernel_regularizer": null, "bias_regularizer": null, "activity_regularizer": null, "kernel_constraint": null, "bias_constraint": null}, "name": "dense_47", "inbound_nodes": [[["dense_46", 0, 0, {}]]]}], "input_layers": [["input_6", 0, 0]], "output_layers": [["dense_47", 0, 0]]}, "summary": ["Model: \"model_5\"", "_________________________________________________________________", "Layer (type)                 Output Shape              Param #   ", "=================================================================", "input_6 (InputLayer)         [(None, 1)]               0         ", "_________________________________________________________________", "dense_40 (Dense)             (None, 10)                20        ", "_________________________________________________________________", "dense_41 (Dense)             (None, 10)                110       ", "_________________________________________________________________", "dense_42 (Dense)             (None, 10)                110       ", "_________________________________________________________________", "dense_43 (Dense)             (None, 10)                110       ", "_________________________________________________________________", "dense_44 (Dense)             (None, 10)                110       ", "_________________________________________________________________", "dense_45 (Dense)             (None, 10)                110       ", "_________________________________________________________________", "dense_46 (Dense)             (None, 10)                110       ", "_________________________________________________________________", "dense_47 (Dense)             (None, 1)                 11        ", "=================================================================", "Total params: 691", "Trainable params: 691", "Non-trainable params: 0", "_________________________________________________________________"]}, "kwargs": {"border_xs": [[0.0]], "border_ys": [[1.0]], "inside_xs_builder": "<function linspace_inside_xs_builder_builder.<locals>._inside_xs_builder at 0x7f115165e5f0>", "border_builder": "<function border_with_function_values_builder at 0x7f115165e830>", "equation_builder": "<function first_order_equation_builder_builder.<locals>.equation_builder at 0x7f115165ef80>", "input_dim": 1, "output_dim": 1, "sol": "<function <lambda> at 0x7f115165e4d0>", "random_seed": 1, "N_f": 1000, "epochs": 2000, "clip_grad": 1, "learning_rate": 0.01, "model_builder": "NN[[10, 10, 10, 10, 10, 10, 10]]", "optimizers": [1, 1], "border_loss_multiplier": 1, "ode": "L-ODE3"}, "losses": [… "errors": [3.033658199315203e-08]}, "date": "09:43:17 09 May 2021"}
{"payload": {"model": {"config": {"name": "model_6", "layers": [{"class_name": "InputLayer", "config": {"batch_input_shape": [null, 1], "dtype": "float64", "sparse": false, "ragged": false, "name": "input_7"}, "name": "input_7", "inbound_nodes": []}, {"class_name": "Dense", "config": {"name": "dense_48", "trainable": true, "dtype": "float64", "units": 10, "activation": "tanh", "use_bias": true, "kernel_initializer": {"class_name": "GlorotUniform", "config": {"seed": null}}, "bias_initializer": {"class_name": "Zeros", "config": {}}, "kernel_regularizer": null, "bias_regularizer": null, "activity_regularizer": null, "kernel_constraint": null, "bias_constraint": null}, "name": "dense_48", "inbound_nodes": [[["input_7", 0, 0, {}]]]}, {"class_name": "Dense", "config": {"name": "dense_49", "trainable": true, "dtype": "float64", "units": 10, "activation": "tanh", "use_bias": true, "kernel_initializer": {"class_name": "GlorotUniform", "config": {"seed": null}}, "bias_initializer": {"class_name": "Zeros", "config": {}}, "kernel_regularizer": null, "bias_regularizer": null, "activity_regularizer": null, "kernel_constraint": null, "bias_constraint": null}, "name": "dense_49", "inbound_nodes": [[["dense_48", 0, 0, {}]]]}, {"class_name": "Dense", "config": {"name": "dense_50", "trainable": true, "dtype": "float64", "units": 10, "activation": "tanh", "use_bias": true, "kernel_initializer": {"class_name": "GlorotUniform", "config": {"seed": null}}, "bias_initializer": {"class_name": "Zeros", "config": {}}, "kernel_regularizer": null, "bias_regularizer": null, "activity_regularizer": null, "kernel_constraint": null, "bias_constraint": null}, "name": "dense_50", "inbound_nodes": [[["dense_49", 0, 0, {}]]]}, {"class_name": "Dense", "config": {"name": "dense_51", "trainable": true, "dtype": "float64", "units": 10, "activation": "tanh", "use_bias": true, "kernel_initializer": {"class_name": "GlorotUniform", "config": {"seed": null}}, "bias_initializer": {"class_name": "Zeros", "config": {}}, "kernel_regularizer": null, "bias_regularizer": null, "activity_regularizer": null, "kernel_constraint": null, "bias_constraint": null}, "name": "dense_51", "inbound_nodes": [[["dense_50", 0, 0, {}]]]}, {"class_name": "Dense", "config": {"name": "dense_52", "trainable": true, "dtype": "float64", "units": 10, "activation": "tanh", "use_bias": true, "kernel_initializer": {"class_name": "GlorotUniform", "config": {"seed": null}}, "bias_initializer": {"class_name": "Zeros", "config": {}}, "kernel_regularizer": null, "bias_regularizer": null, "activity_regularizer": null, "kernel_constraint": null, "bias_constraint": null}, "name": "dense_52", "inbound_nodes": [[["dense_51", 0, 0, {}]]]}, {"class_name": "Dense", "config": {"name": "dense_53", "trainable": true, "dtype": "float64", "units": 10, "activation": "tanh", "use_bias": true, "kernel_initializer": {"class_name": "GlorotUniform", "config": {"seed": null}}, "bias_initializer": {"class_name": "Zeros", "config": {}}, "kernel_regularizer": null, "bias_regularizer": null, "activity_regularizer": null, "kernel_constraint": null, "bias_constraint": null}, "name": "dense_53", "inbound_nodes": [[["dense_52", 0, 0, {}]]]}, {"class_name": "Dense", "config": {"name": "dense_54", "trainable": true, "dtype": "float64", "units": 10, "activation": "tanh", "use_bias": true, "kernel_initializer": {"class_name": "GlorotUniform", "config": {"seed": null}}, "bias_initializer": {"class_name": "Zeros", "config": {}}, "kernel_regularizer": null, "bias_regularizer": null, "activity_regularizer": null, "kernel_constraint": null, "bias_constraint": null}, "name": "dense_54", "inbound_nodes": [[["dense_53", 0, 0, {}]]]}, {"class_name": "Dense", "config": {"name": "dense_55", "trainable": true, "dtype": "float64", "units": 1, "activation": "linear", "use_bias": true, "kernel_initializer": {"class_name": "GlorotUniform", "config": {"seed": null}}, "bias_initializer": {"class_name": "Zeros", "config": {}}, "kernel_regularizer": null, "bias_regularizer": null, "activity_regularizer": null, "kernel_constraint": null, "bias_constraint": null}, "name": "dense_55", "inbound_nodes": [[["dense_54", 0, 0, {}]]]}], "input_layers": [["input_7", 0, 0]], "output_layers": [["dense_55", 0, 0]]}, "summary": ["Model: \"model_6\"", "_________________________________________________________________", "Layer (type)                 Output Shape              Param #   ", "=================================================================", "input_7 (InputLayer)         [(None, 1)]               0         ", "_________________________________________________________________", "dense_48 (Dense)             (None, 10)                20        ", "_________________________________________________________________", "dense_49 (Dense)             (None, 10)                110       ", "_________________________________________________________________", "dense_50 (Dense)             (None, 10)                110       ", "_________________________________________________________________", "dense_51 (Dense)             (None, 10)                110       ", "_________________________________________________________________", "dense_52 (Dense)             (None, 10)                110       ", "_________________________________________________________________", "dense_53 (Dense)             (None, 10)                110       ", "_________________________________________________________________", "dense_54 (Dense)             (None, 10)                110       ", "_________________________________________________________________", "dense_55 (Dense)             (None, 1)                 11        ", "=================================================================", "Total params: 691", "Trainable params: 691", "Non-trainable params: 0", "_________________________________________________________________"]}, "kwargs": {"border_xs": [[0.0]], "border_ys": [[1.0]], "inside_xs_builder": "<function linspace_inside_xs_builder_builder.<locals>._inside_xs_builder at 0x7f115165e7a0>", "border_builder": "<function border_with_function_values_builder at 0x7f115165e830>", "equation_builder": "<function first_order_equation_builder_builder.<locals>.equation_builder at 0x7f115165e3b0>", "input_dim": 1, "output_dim": 1, "sol": "<function <lambda> at 0x7f115165eb00>", "random_seed": 1, "N_f": 1000, "epochs": 2000, "clip_grad": 1, "learning_rate": 0.01, "model_builder": "NN[[10, 10, 10, 10, 10, 10, 10]]", "optimizers": [1, 1], "border_loss_multiplier": 1, "ode": "L-ODE4"}, "losses": [… "errors": [23593004.311574154]}, "date": "09:45:03 09 May 2021"}
{"payload": {"model": {"config": {"name": "model_7", "layers": [{"class_name": "InputLayer", "config": {"batch_input_shape": [null, 1], "dtype": "float64", "sparse": false, "ragged": false, "name": "input_8"}, "name": "input_8", "inbound_nodes": []}, {"class_name": "Dense", "config": {"name": "dense_56", "trainable": true, "dtype": "float64", "units": 10, "activation": "tanh", "use_bias": true, "kernel_initializer": {"class_name": "GlorotUniform", "config": {"seed": null}}, "bias_initializer": {"class_name": "Zeros", "config": {}}, "kernel_regularizer": null, "bias_regularizer": null, "activity_regularizer": null, "kernel_constraint": null, "bias_constraint": null}, "name": "dense_56", "inbound_nodes": [[["input_8", 0, 0, {}]]]}, {"class_name": "Dense", "config": {"name": "dense_57", "trainable": true, "dtype": "float64", "units": 10, "activation": "tanh", "use_bias": true, "kernel_initializer": {"class_name": "GlorotUniform", "config": {"seed": null}}, "bias_initializer": {"class_name": "Zeros", "config": {}}, "kernel_regularizer": null, "bias_regularizer": null, "activity_regularizer": null, "kernel_constraint": null, "bias_constraint": null}, "name": "dense_57", "inbound_nodes": [[["dense_56", 0, 0, {}]]]}, {"class_name": "Dense", "config": {"name": "dense_58", "trainable": true, "dtype": "float64", "units": 10, "activation": "tanh", "use_bias": true, "kernel_initializer": {"class_name": "GlorotUniform", "config": {"seed": null}}, "bias_initializer": {"class_name": "Zeros", "config": {}}, "kernel_regularizer": null, "bias_regularizer": null, "activity_regularizer": null, "kernel_constraint": null, "bias_constraint": null}, "name": "dense_58", "inbound_nodes": [[["dense_57", 0, 0, {}]]]}, {"class_name": "Dense", "config": {"name": "dense_59", "trainable": true, "dtype": "float64", "units": 10, "activation": "tanh", "use_bias": true, "kernel_initializer": {"class_name": "GlorotUniform", "config": {"seed": null}}, "bias_initializer": {"class_name": "Zeros", "config": {}}, "kernel_regularizer": null, "bias_regularizer": null, "activity_regularizer": null, "kernel_constraint": null, "bias_constraint": null}, "name": "dense_59", "inbound_nodes": [[["dense_58", 0, 0, {}]]]}, {"class_name": "Dense", "config": {"name": "dense_60", "trainable": true, "dtype": "float64", "units": 10, "activation": "tanh", "use_bias": true, "kernel_initializer": {"class_name": "GlorotUniform", "config": {"seed": null}}, "bias_initializer": {"class_name": "Zeros", "config": {}}, "kernel_regularizer": null, "bias_regularizer": null, "activity_regularizer": null, "kernel_constraint": null, "bias_constraint": null}, "name": "dense_60", "inbound_nodes": [[["dense_59", 0, 0, {}]]]}, {"class_name": "Dense", "config": {"name": "dense_61", "trainable": true, "dtype": "float64", "units": 10, "activation": "tanh", "use_bias": true, "kernel_initializer": {"class_name": "GlorotUniform", "config": {"seed": null}}, "bias_initializer": {"class_name": "Zeros", "config": {}}, "kernel_regularizer": null, "bias_regularizer": null, "activity_regularizer": null, "kernel_constraint": null, "bias_constraint": null}, "name": "dense_61", "inbound_nodes": [[["dense_60", 0, 0, {}]]]}, {"class_name": "Dense", "config": {"name": "dense_62", "trainable": true, "dtype": "float64", "units": 10, "activation": "tanh", "use_bias": true, "kernel_initializer": {"class_name": "GlorotUniform", "config": {"seed": null}}, "bias_initializer": {"class_name": "Zeros", "config": {}}, "kernel_regularizer": null, "bias_regularizer": null, "activity_regularizer": null, "kernel_constraint": null, "bias_constraint": null}, "name": "dense_62", "inbound_nodes": [[["dense_61", 0, 0, {}]]]}, {"class_name": "Dense", "config": {"name": "dense_63", "trainable": true, "dtype": "float64", "units": 1, "activation": "linear", "use_bias": true, "kernel_initializer": {"class_name": "GlorotUniform", "config": {"seed": null}}, "bias_initializer": {"class_name": "Zeros", "config": {}}, "kernel_regularizer": null, "bias_regularizer": null, "activity_regularizer": null, "kernel_constraint": null, "bias_constraint": null}, "name": "dense_63", "inbound_nodes": [[["dense_62", 0, 0, {}]]]}], "input_layers": [["input_8", 0, 0]], "output_layers": [["dense_63", 0, 0]]}, "summary": ["Model: \"model_7\"", "_________________________________________________________________", "Layer (type)                 Output Shape              Param #   ", "=================================================================", "input_8 (InputLayer)         [(None, 1)]               0         ", "_________________________________________________________________", "dense_56 (Dense)             (None, 10)                20        ", "_________________________________________________________________", "dense_57 (Dense)             (None, 10)                110       ", "_________________________________________________________________", "dense_58 (Dense)             (None, 10)                110       ", "_________________________________________________________________", "dense_59 (Dense)             (None, 10)                110       ", "_________________________________________________________________", "dense_60 (Dense)             (None, 10)                110       ", "_________________________________________________________________", "dense_61 (Dense)             (None, 10)                110       ", "_________________________________________________________________", "dense_62 (Dense)             (None, 10)                110       ", "_________________________________________________________________", "dense_63 (Dense)             (None, 1)                 11        ", "=================================================================", "Total params: 691", "Trainable params: 691", "Non-trainable params: 0", "_________________________________________________________________"]}, "kwargs": {"border_xs": [[0.0]], "border_ys": [[1.0]], "inside_xs_builder": "<function linspace_inside_xs_builder_builder.<locals>._inside_xs_builder at 0x7f115165e200>", "border_builder": "<function border_with_function_values_builder at 0x7f115165e830>", "equation_builder": "<function first_order_equation_builder_builder.<locals>.equation_builder at 0x7f1154fff290>", "input_dim": 1, "output_dim": 1, "sol": "<function <lambda> at 0x7f1154fffa70>", "random_seed": 1, "N_f": 1000, "epochs": 2000, "clip_grad": 1, "learning_rate": 0.01, "model_builder": "NN[[10, 10, 10, 10, 10, 10, 10]]", "optimizers": [1, 1], "border_loss_multiplier": 1, "ode": "L-ODE5"}, "losses": [… "errors": [1.869743405636758e-09]}, "date": "09:45:55 09 May 2021"}
{"payload": {"model": {"config": {"name": "model_8", "layers": [{"class_name": "InputLayer", "config": {"batch_input_shape": [null, 1], "dtype": "float64", "sparse": false, "ragged": false, "name": "input_9"}, "name": "input_9", "inbound_nodes": []}, {"class_name": "Dense", "config": {"name": "dense_64", "trainable": true, "dtype": "float64", "units": 10, "activation": "tanh", "use_bias": true, "kernel_initializer": {"class_name": "GlorotUniform", "config": {"seed": null}}, "bias_initializer": {"class_name": "Zeros", "config": {}}, "kernel_regularizer": null, "bias_regularizer": null, "activity_regularizer": null, "kernel_constraint": null, "bias_constraint": null}, "name": "dense_64", "inbound_nodes": [[["input_9", 0, 0, {}]]]}, {"class_name": "Dense", "config": {"name": "dense_65", "trainable": true, "dtype": "float64", "units": 10, "activation": "tanh", "use_bias": true, "kernel_initializer": {"class_name": "GlorotUniform", "config": {"seed": null}}, "bias_initializer": {"class_name": "Zeros", "config": {}}, "kernel_regularizer": null, "bias_regularizer": null, "activity_regularizer": null, "kernel_constraint": null, "bias_constraint": null}, "name": "dense_65", "inbound_nodes": [[["dense_64", 0, 0, {}]]]}, {"class_name": "Dense", "config": {"name": "dense_66", "trainable": true, "dtype": "float64", "units": 10, "activation": "tanh", "use_bias": true, "kernel_initializer": {"class_name": "GlorotUniform", "config": {"seed": null}}, "bias_initializer": {"class_name": "Zeros", "config": {}}, "kernel_regularizer": null, "bias_regularizer": null, "activity_regularizer": null, "kernel_constraint": null, "bias_constraint": null}, "name": "dense_66", "inbound_nodes": [[["dense_65", 0, 0, {}]]]}, {"class_name": "Dense", "config": {"name": "dense_67", "trainable": true, "dtype": "float64", "units": 10, "activation": "tanh", "use_bias": true, "kernel_initializer": {"class_name": "GlorotUniform", "config": {"seed": null}}, "bias_initializer": {"class_name": "Zeros", "config": {}}, "kernel_regularizer": null, "bias_regularizer": null, "activity_regularizer": null, "kernel_constraint": null, "bias_constraint": null}, "name": "dense_67", "inbound_nodes": [[["dense_66", 0, 0, {}]]]}, {"class_name": "Dense", "config": {"name": "dense_68", "trainable": true, "dtype": "float64", "units": 10, "activation": "tanh", "use_bias": true, "kernel_initializer": {"class_name": "GlorotUniform", "config": {"seed": null}}, "bias_initializer": {"class_name": "Zeros", "config": {}}, "kernel_regularizer": null, "bias_regularizer": null, "activity_regularizer": null, "kernel_constraint": null, "bias_constraint": null}, "name": "dense_68", "inbound_nodes": [[["dense_67", 0, 0, {}]]]}, {"class_name": "Dense", "config": {"name": "dense_69", "trainable": true, "dtype": "float64", "units": 10, "activation": "tanh", "use_bias": true, "kernel_initializer": {"class_name": "GlorotUniform", "config": {"seed": null}}, "bias_initializer": {"class_name": "Zeros", "config": {}}, "kernel_regularizer": null, "bias_regularizer": null, "activity_regularizer": null, "kernel_constraint": null, "bias_constraint": null}, "name": "dense_69", "inbound_nodes": [[["dense_68", 0, 0, {}]]]}, {"class_name": "Dense", "config": {"name": "dense_70", "trainable": true, "dtype": "float64", "units": 10, "activation": "tanh", "use_bias": true, "kernel_initializer": {"class_name": "GlorotUniform", "config": {"seed": null}}, "bias_initializer": {"class_name": "Zeros", "config": {}}, "kernel_regularizer": null, "bias_regularizer": null, "activity_regularizer": null, "kernel_constraint": null, "bias_constraint": null}, "name": "dense_70", "inbound_nodes": [[["dense_69", 0, 0, {}]]]}, {"class_name": "Dense", "config": {"name": "dense_71", "trainable": true, "dtype": "float64", "units": 1, "activation": "linear", "use_bias": true, "kernel_initializer": {"class_name": "GlorotUniform", "config": {"seed": null}}, "bias_initializer": {"class_name": "Zeros", "config": {}}, "kernel_regularizer": null, "bias_regularizer": null, "activity_regularizer": null, "kernel_constraint": null, "bias_constraint": null}, "name": "dense_71", "inbound_nodes": [[["dense_70", 0, 0, {}]]]}], "input_layers": [["input_9", 0, 0]], "output_layers": [["dense_71", 0, 0]]}, "summary": ["Model: \"model_8\"", "_________________________________________________________________", "Layer (type)                 Output Shape              Param #   ", "=================================================================", "input_9 (InputLayer)         [(None, 1)]               0         ", "_________________________________________________________________", "dense_64 (Dense)             (None, 10)                20        ", "_________________________________________________________________", "dense_65 (Dense)             (None, 10)                110       ", "_________________________________________________________________", "dense_66 (Dense)             (None, 10)                110       ", "_________________________________________________________________", "dense_67 (Dense)             (None, 10)                110       ", "_________________________________________________________________", "dense_68 (Dense)             (None, 10)                110       ", "_________________________________________________________________", "dense_69 (Dense)             (None, 10)                110       ", "_________________________________________________________________", "dense_70 (Dense)             (None, 10)                110       ", "_________________________________________________________________", "dense_71 (Dense)             (None, 1)                 11        ", "=================================================================", "Total params: 691", "Trainable params: 691", "Non-trainable params: 0", "_________________________________________________________________"]}, "kwargs": {"border_xs": [[0.0]], "border_ys": [0.0, 10.0], "inside_xs_builder": "<function linspace_inside_xs_builder_builder.<locals>._inside_xs_builder at 0x7f1154fffb90>", "border_builder": "<function border_builder at 0x7f115921a200>", "equation_builder": "<function second_order_equation_builder_builder.<locals>.equation_builder at 0x7f115940eb90>", "input_dim": 1, "output_dim": 1, "sol": "<function <lambda> at 0x7f115940ed40>", "random_seed": 1, "N_f": 1000, "epochs": 2000, "clip_grad": 1, "learning_rate": 0.01, "model_builder": "NN[[10, 10, 10, 10, 10, 10, 10]]", "optimizers": [1, 1], "border_loss_multiplier": 1, "ode": "L-ODEn1"}, "losses": [… "errors": [0.00010455822126729844]}, "date": "09:49:43 09 May 2021"}
{"payload": {"model": {"config": {"name": "model_9", "layers": [{"class_name": "InputLayer", "config": {"batch_input_shape": [null, 1], "dtype": "float64", "sparse": false, "ragged": false, "name": "input_10"}, "name": "input_10", "inbound_nodes": []}, {"class_name": "Dense", "config": {"name": "dense_72", "trainable": true, "dtype": "float64", "units": 10, "activation": "tanh", "use_bias": true, "kernel_initializer": {"class_name": "GlorotUniform", "config": {"seed": null}}, "bias_initializer": {"class_name": "Zeros", "config": {}}, "kernel_regularizer": null, "bias_regularizer": null, "activity_regularizer": null, "kernel_constraint": null, "bias_constraint": null}, "name": "dense_72", "inbound_nodes": [[["input_10", 0, 0, {}]]]}, {"class_name": "Dense", "config": {"name": "dense_73", "trainable": true, "dtype": "float64", "units": 10, "activation": "tanh", "use_bias": true, "kernel_initializer": {"class_name": "GlorotUniform", "config": {"seed": null}}, "bias_initializer": {"class_name": "Zeros", "config": {}}, "kernel_regularizer": null, "bias_regularizer": null, "activity_regularizer": null, "kernel_constraint": null, "bias_constraint": null}, "name": "dense_73", "inbound_nodes": [[["dense_72", 0, 0, {}]]]}, {"class_name": "Dense", "config": {"name": "dense_74", "trainable": true, "dtype": "float64", "units": 10, "activation": "tanh", "use_bias": true, "kernel_initializer": {"class_name": "GlorotUniform", "config": {"seed": null}}, "bias_initializer": {"class_name": "Zeros", "config": {}}, "kernel_regularizer": null, "bias_regularizer": null, "activity_regularizer": null, "kernel_constraint": null, "bias_constraint": null}, "name": "dense_74", "inbound_nodes": [[["dense_73", 0, 0, {}]]]}, {"class_name": "Dense", "config": {"name": "dense_75", "trainable": true, "dtype": "float64", "units": 10, "activation": "tanh", "use_bias": true, "kernel_initializer": {"class_name": "GlorotUniform", "config": {"seed": null}}, "bias_initializer": {"class_name": "Zeros", "config": {}}, "kernel_regularizer": null, "bias_regularizer": null, "activity_regularizer": null, "kernel_constraint": null, "bias_constraint": null}, "name": "dense_75", "inbound_nodes": [[["dense_74", 0, 0, {}]]]}, {"class_name": "Dense", "config": {"name": "dense_76", "trainable": true, "dtype": "float64", "units": 10, "activation": "tanh", "use_bias": true, "kernel_initializer": {"class_name": "GlorotUniform", "config": {"seed": null}}, "bias_initializer": {"class_name": "Zeros", "config": {}}, "kernel_regularizer": null, "bias_regularizer": null, "activity_regularizer": null, "kernel_constraint": null, "bias_constraint": null}, "name": "dense_76", "inbound_nodes": [[["dense_75", 0, 0, {}]]]}, {"class_name": "Dense", "config": {"name": "dense_77", "trainable": true, "dtype": "float64", "units": 10, "activation": "tanh", "use_bias": true, "kernel_initializer": {"class_name": "GlorotUniform", "config": {"seed": null}}, "bias_initializer": {"class_name": "Zeros", "config": {}}, "kernel_regularizer": null, "bias_regularizer": null, "activity_regularizer": null, "kernel_constraint": null, "bias_constraint": null}, "name": "dense_77", "inbound_nodes": [[["dense_76", 0, 0, {}]]]}, {"class_name": "Dense", "config": {"name": "dense_78", "trainable": true, "dtype": "float64", "units": 10, "activation": "tanh", "use_bias": true, "kernel_initializer": {"class_name": "GlorotUniform", "config": {"seed": null}}, "bias_initializer": {"class_name": "Zeros", "config": {}}, "kernel_regularizer": null, "bias_regularizer": null, "activity_regularizer": null, "kernel_constraint": null, "bias_constraint": null}, "name": "dense_78", "inbound_nodes": [[["dense_77", 0, 0, {}]]]}, {"class_name": "Dense", "config": {"name": "dense_79", "trainable": true, "dtype": "float64", "units": 1, "activation": "linear", "use_bias": true, "kernel_initializer": {"class_name": "GlorotUniform", "config": {"seed": null}}, "bias_initializer": {"class_name": "Zeros", "config": {}}, "kernel_regularizer": null, "bias_regularizer": null, "activity_regularizer": null, "kernel_constraint": null, "bias_constraint": null}, "name": "dense_79", "inbound_nodes": [[["dense_78", 0, 0, {}]]]}], "input_layers": [["input_10", 0, 0]], "output_layers": [["dense_79", 0, 0]]}, "summary": ["Model: \"model_9\"", "_________________________________________________________________", "Layer (type)                 Output Shape              Param #   ", "=================================================================", "input_10 (InputLayer)        [(None, 1)]               0         ", "_________________________________________________________________", "dense_72 (Dense)             (None, 10)                20        ", "_________________________________________________________________", "dense_73 (Dense)             (None, 10)                110       ", "_________________________________________________________________", "dense_74 (Dense)             (None, 10)                110       ", "_________________________________________________________________", "dense_75 (Dense)             (None, 10)                110       ", "_________________________________________________________________", "dense_76 (Dense)             (None, 10)                110       ", "_________________________________________________________________", "dense_77 (Dense)             (None, 10)                110       ", "_________________________________________________________________", "dense_78 (Dense)             (None, 10)                110       ", "_________________________________________________________________", "dense_79 (Dense)             (None, 1)                 11        ", "=================================================================", "Total params: 691", "Trainable params: 691", "Non-trainable params: 0", "_________________________________________________________________"]}, "kwargs": {"border_xs": [[0.0]], "border_ys": [1.0, 0.0], "inside_xs_builder": "<function linspace_inside_xs_builder_builder.<locals>._inside_xs_builder at 0x7f115940e0e0>", "border_builder": "<function border_builder at 0x7f115921a200>", "equation_builder": "<function second_order_equation_builder_builder.<locals>.equation_builder at 0x7f11976f28c0>", "input_dim": 1, "output_dim": 1, "sol": "<function <lambda> at 0x7f11593bbcb0>", "random_seed": 1, "N_f": 1000, "epochs": 2000, "clip_grad": 1, "learning_rate": 0.01, "model_builder": "NN[[10, 10, 10, 10, 10, 10, 10]]", "optimizers": [1, 1], "border_loss_multiplier": 1, "ode": "L-ODEn2"}, "losses": [… "errors": [0.10891313967641819]}, "date": "09:53:38 09 May 2021"}
{"payload": {"model": {"config": {"name": "model_10", "layers": [{"class_name": "InputLayer", "config": {"batch_input_shape": [null, 1], "dtype": "float64", "sparse": false, "ragged": false, "name": "input_11"}, "name": "input_11", "inbound_nodes": []}, {"class_name": "Dense", "config": {"name": "dense_80", "trainable": true, "dtype": "float64", "units": 10, "activation": "tanh", "use_bias": true, "kernel_initializer": {"class_name": "GlorotUniform", "config": {"seed": null}}, "bias_initializer": {"class_name": "Zeros", "config": {}}, "kernel_regularizer": null, "bias_regularizer": null, "activity_regularizer": null, "kernel_constraint": null, "bias_constraint": null}, "name": "dense_80", "inbound_nodes": [[["input_11", 0, 0, {}]]]}, {"class_name": "Dense", "config": {"name": "dense_81", "trainable": true, "dtype": "float64", "units": 10, "activation": "tanh", "use_bias": true, "kernel_initializer": {"class_name": "GlorotUniform", "config": {"seed": null}}, "bias_initializer": {"class_name": "Zeros", "config": {}}, "kernel_regularizer": null, "bias_regularizer": null, "activity_regularizer": null, "kernel_constraint": null, "bias_constraint": null}, "name": "dense_81", "inbound_nodes": [[["dense_80", 0, 0, {}]]]}, {"class_name": "Dense", "config": {"name": "dense_82", "trainable": true, "dtype": "float64", "units": 10, "activation": "tanh", "use_bias": true, "kernel_initializer": {"class_name": "GlorotUniform", "config": {"seed": null}}, "bias_initializer": {"class_name": "Zeros", "config": {}}, "kernel_regularizer": null, "bias_regularizer": null, "activity_regularizer": null, "kernel_constraint": null, "bias_constraint": null}, "name": "dense_82", "inbound_nodes": [[["dense_81", 0, 0, {}]]]}, {"class_name": "Dense", "config": {"name": "dense_83", "trainable": true, "dtype": "float64", "units": 10, "activation": "tanh", "use_bias": true, "kernel_initializer": {"class_name": "GlorotUniform", "config": {"seed": null}}, "bias_initializer": {"class_name": "Zeros", "config": {}}, "kernel_regularizer": null, "bias_regularizer": null, "activity_regularizer": null, "kernel_constraint": null, "bias_constraint": null}, "name": "dense_83", "inbound_nodes": [[["dense_82", 0, 0, {}]]]}, {"class_name": "Dense", "config": {"name": "dense_84", "trainable": true, "dtype": "float64", "units": 10, "activation": "tanh", "use_bias": true, "kernel_initializer": {"class_name": "GlorotUniform", "config": {"seed": null}}, "bias_initializer": {"class_name": "Zeros", "config": {}}, "kernel_regularizer": null, "bias_regularizer": null, "activity_regularizer": null, "kernel_constraint": null, "bias_constraint": null}, "name": "dense_84", "inbound_nodes": [[["dense_83", 0, 0, {}]]]}, {"class_name": "Dense", "config": {"name": "dense_85", "trainable": true, "dtype": "float64", "units": 10, "activation": "tanh", "use_bias": true, "kernel_initializer": {"class_name": "GlorotUniform", "config": {"seed": null}}, "bias_initializer": {"class_name": "Zeros", "config": {}}, "kernel_regularizer": null, "bias_regularizer": null, "activity_regularizer": null, "kernel_constraint": null, "bias_constraint": null}, "name": "dense_85", "inbound_nodes": [[["dense_84", 0, 0, {}]]]}, {"class_name": "Dense", "config": {"name": "dense_86", "trainable": true, "dtype": "float64", "units": 10, "activation": "tanh", "use_bias": true, "kernel_initializer": {"class_name": "GlorotUniform", "config": {"seed": null}}, "bias_initializer": {"class_name": "Zeros", "config": {}}, "kernel_regularizer": null, "bias_regularizer": null, "activity_regularizer": null, "kernel_constraint": null, "bias_constraint": null}, "name": "dense_86", "inbound_nodes": [[["dense_85", 0, 0, {}]]]}, {"class_name": "Dense", "config": {"name": "dense_87", "trainable": true, "dtype": "float64", "units": 1, "activation": "linear", "use_bias": true, "kernel_initializer": {"class_name": "GlorotUniform", "config": {"seed": null}}, "bias_initializer": {"class_name": "Zeros", "config": {}}, "kernel_regularizer": null, "bias_regularizer": null, "activity_regularizer": null, "kernel_constraint": null, "bias_constraint": null}, "name": "dense_87", "inbound_nodes": [[["dense_86", 0, 0, {}]]]}], "input_layers": [["input_11", 0, 0]], "output_layers": [["dense_87", 0, 0]]}, "summary": ["Model: \"model_10\"", "_________________________________________________________________", "Layer (type)                 Output Shape              Param #   ", "=================================================================", "input_11 (InputLayer)        [(None, 1)]               0         ", "_________________________________________________________________", "dense_80 (Dense)             (None, 10)                20        ", "_________________________________________________________________", "dense_81 (Dense)             (None, 10)                110       ", "_________________________________________________________________", "dense_82 (Dense)             (None, 10)                110       ", "_________________________________________________________________", "dense_83 (Dense)             (None, 10)                110       ", "_________________________________________________________________", "dense_84 (Dense)             (None, 10)                110       ", "_________________________________________________________________", "dense_85 (Dense)             (None, 10)                110       ", "_________________________________________________________________", "dense_86 (Dense)             (None, 10)                110       ", "_________________________________________________________________", "dense_87 (Dense)             (None, 1)                 11        ", "=================================================================", "Total params: 691", "Trainable params: 691", "Non-trainable params: 0", "_________________________________________________________________"]}, "kwargs": {"border_xs": [[0.0], [1.0]], "border_ys": [[0.0], [0.6889381730850401]], "inside_xs_builder": "<function linspace_inside_xs_builder_builder.<locals>._inside_xs_builder at 0x7f11593bba70>", "border_builder": "<function border_with_function_values_builder at 0x7f115165e830>", "equation_builder": "<function second_order_equation_builder_builder.<locals>.equation_builder at 0x7f11593bbd40>", "input_dim": 1, "output_dim": 1, "sol": "<function <lambda> at 0x7f11593bb950>", "random_seed": 1, "N_f": 1000, "epochs": 2000, "clip_grad": 1, "learning_rate": 0.01, "model_builder": "NN[[10, 10, 10, 10, 10, 10, 10]]", "optimizers": [1, 1], "border_loss_multiplier": 1, "ode": "L-ODEn3"}, "losses": [… "errors": [2.0752208765556017e-09]}, "date": "09:54:39 09 May 2021"}
{"payload": {"model": {"config": {"name": "model_11", "layers": [{"class_name": "InputLayer", "config": {"batch_input_shape": [null, 1], "dtype": "float64", "sparse": false, "ragged": false, "name": "input_12"}, "name": "input_12", "inbound_nodes": []}, {"class_name": "Dense", "config": {"name": "dense_88", "trainable": true, "dtype": "float64", "units": 10, "activation": "tanh", "use_bias": true, "kernel_initializer": {"class_name": "GlorotUniform", "config": {"seed": null}}, "bias_initializer": {"class_name": "Zeros", "config": {}}, "kernel_regularizer": null, "bias_regularizer": null, "activity_regularizer": null, "kernel_constraint": null, "bias_constraint": null}, "name": "dense_88", "inbound_nodes": [[["input_12", 0, 0, {}]]]}, {"class_name": "Dense", "config": {"name": "dense_89", "trainable": true, "dtype": "float64", "units": 10, "activation": "tanh", "use_bias": true, "kernel_initializer": {"class_name": "GlorotUniform", "config": {"seed": null}}, "bias_initializer": {"class_name": "Zeros", "config": {}}, "kernel_regularizer": null, "bias_regularizer": null, "activity_regularizer": null, "kernel_constraint": null, "bias_constraint": null}, "name": "dense_89", "inbound_nodes": [[["dense_88", 0, 0, {}]]]}, {"class_name": "Dense", "config": {"name": "dense_90", "trainable": true, "dtype": "float64", "units": 10, "activation": "tanh", "use_bias": true, "kernel_initializer": {"class_name": "GlorotUniform", "config": {"seed": null}}, "bias_initializer": {"class_name": "Zeros", "config": {}}, "kernel_regularizer": null, "bias_regularizer": null, "activity_regularizer": null, "kernel_constraint": null, "bias_constraint": null}, "name": "dense_90", "inbound_nodes": [[["dense_89", 0, 0, {}]]]}, {"class_name": "Dense", "config": {"name": "dense_91", "trainable": true, "dtype": "float64", "units": 10, "activation": "tanh", "use_bias": true, "kernel_initializer": {"class_name": "GlorotUniform", "config": {"seed": null}}, "bias_initializer": {"class_name": "Zeros", "config": {}}, "kernel_regularizer": null, "bias_regularizer": null, "activity_regularizer": null, "kernel_constraint": null, "bias_constraint": null}, "name": "dense_91", "inbound_nodes": [[["dense_90", 0, 0, {}]]]}, {"class_name": "Dense", "config": {"name": "dense_92", "trainable": true, "dtype": "float64", "units": 10, "activation": "tanh", "use_bias": true, "kernel_initializer": {"class_name": "GlorotUniform", "config": {"seed": null}}, "bias_initializer": {"class_name": "Zeros", "config": {}}, "kernel_regularizer": null, "bias_regularizer": null, "activity_regularizer": null, "kernel_constraint": null, "bias_constraint": null}, "name": "dense_92", "inbound_nodes": [[["dense_91", 0, 0, {}]]]}, {"class_name": "Dense", "config": {"name": "dense_93", "trainable": true, "dtype": "float64", "units": 10, "activation": "tanh", "use_bias": true, "kernel_initializer": {"class_name": "GlorotUniform", "config": {"seed": null}}, "bias_initializer": {"class_name": "Zeros", "config": {}}, "kernel_regularizer": null, "bias_regularizer": null, "activity_regularizer": null, "kernel_constraint": null, "bias_constraint": null}, "name": "dense_93", "inbound_nodes": [[["dense_92", 0, 0, {}]]]}, {"class_name": "Dense", "config": {"name": "dense_94", "trainable": true, "dtype": "float64", "units": 10, "activation": "tanh", "use_bias": true, "kernel_initializer": {"class_name": "GlorotUniform", "config": {"seed": null}}, "bias_initializer": {"class_name": "Zeros", "config": {}}, "kernel_regularizer": null, "bias_regularizer": null, "activity_regularizer": null, "kernel_constraint": null, "bias_constraint": null}, "name": "dense_94", "inbound_nodes": [[["dense_93", 0, 0, {}]]]}, {"class_name": "Dense", "config": {"name": "dense_95", "trainable": true, "dtype": "float64", "units": 1, "activation": "linear", "use_bias": true, "kernel_initializer": {"class_name": "GlorotUniform", "config": {"seed": null}}, "bias_initializer": {"class_name": "Zeros", "config": {}}, "kernel_regularizer": null, "bias_regularizer": null, "activity_regularizer": null, "kernel_constraint": null, "bias_constraint": null}, "name": "dense_95", "inbound_nodes": [[["dense_94", 0, 0, {}]]]}], "input_layers": [["input_12", 0, 0]], "output_layers": [["dense_95", 0, 0]]}, "summary": ["Model: \"model_11\"", "_________________________________________________________________", "Layer (type)                 Output Shape              Param #   ", "=================================================================", "input_12 (InputLayer)        [(None, 1)]               0         ", "_________________________________________________________________", "dense_88 (Dense)             (None, 10)                20        ", "_________________________________________________________________", "dense_89 (Dense)             (None, 10)                110       ", "_________________________________________________________________", "dense_90 (Dense)             (None, 10)                110       ", "_________________________________________________________________", "dense_91 (Dense)             (None, 10)                110       ", "_________________________________________________________________", "dense_92 (Dense)             (None, 10)                110       ", "_________________________________________________________________", "dense_93 (Dense)             (None, 10)                110       ", "_________________________________________________________________", "dense_94 (Dense)             (None, 10)                110       ", "_________________________________________________________________", "dense_95 (Dense)             (None, 1)                 11        ", "=================================================================", "Total params: 691", "Trainable params: 691", "Non-trainable params: 0", "_________________________________________________________________"]}, "kwargs": {"border_xs": [[0.1]], "border_ys": [[20.1]], "inside_xs_builder": "<function linspace_inside_xs_builder_builder.<locals>._inside_xs_builder at 0x7f11593bb050>", "border_builder": "<function border_with_function_values_builder at 0x7f115165e830>", "equation_builder": "<function first_order_equation_builder_builder.<locals>.equation_builder at 0x7f11593bb7a0>", "input_dim": 1, "output_dim": 1, "sol": "<function <lambda> at 0x7f11593bbb00>", "random_seed": 1, "N_f": 1000, "epochs": 2000, "clip_grad": 1, "learning_rate": 0.01, "model_builder": "NN[[10, 10, 10, 10, 10, 10, 10]]", "optimizers": [1, 1], "border_loss_multiplier": 1, "ode": "NL-ODE1"}, "losses": [… "errors": [4.63511035965998e-08]}, "date": "09:55:38 09 May 2021"}
{"payload": {"model": {"config": {"name": "model_12", "layers": [{"class_name": "InputLayer", "config": {"batch_input_shape": [null, 1], "dtype": "float64", "sparse": false, "ragged": false, "name": "input_13"}, "name": "input_13", "inbound_nodes": []}, {"class_name": "Dense", "config": {"name": "dense_96", "trainable": true, "dtype": "float64", "units": 10, "activation": "tanh", "use_bias": true, "kernel_initializer": {"class_name": "GlorotUniform", "config": {"seed": null}}, "bias_initializer": {"class_name": "Zeros", "config": {}}, "kernel_regularizer": null, "bias_regularizer": null, "activity_regularizer": null, "kernel_constraint": null, "bias_constraint": null}, "name": "dense_96", "inbound_nodes": [[["input_13", 0, 0, {}]]]}, {"class_name": "Dense", "config": {"name": "dense_97", "trainable": true, "dtype": "float64", "units": 10, "activation": "tanh", "use_bias": true, "kernel_initializer": {"class_name": "GlorotUniform", "config": {"seed": null}}, "bias_initializer": {"class_name": "Zeros", "config": {}}, "kernel_regularizer": null, "bias_regularizer": null, "activity_regularizer": null, "kernel_constraint": null, "bias_constraint": null}, "name": "dense_97", "inbound_nodes": [[["dense_96", 0, 0, {}]]]}, {"class_name": "Dense", "config": {"name": "dense_98", "trainable": true, "dtype": "float64", "units": 10, "activation": "tanh", "use_bias": true, "kernel_initializer": {"class_name": "GlorotUniform", "config": {"seed": null}}, "bias_initializer": {"class_name": "Zeros", "config": {}}, "kernel_regularizer": null, "bias_regularizer": null, "activity_regularizer": null, "kernel_constraint": null, "bias_constraint": null}, "name": "dense_98", "inbound_nodes": [[["dense_97", 0, 0, {}]]]}, {"class_name": "Dense", "config": {"name": "dense_99", "trainable": true, "dtype": "float64", "units": 10, "activation": "tanh", "use_bias": true, "kernel_initializer": {"class_name": "GlorotUniform", "config": {"seed": null}}, "bias_initializer": {"class_name": "Zeros", "config": {}}, "kernel_regularizer": null, "bias_regularizer": null, "activity_regularizer": null, "kernel_constraint": null, "bias_constraint": null}, "name": "dense_99", "inbound_nodes": [[["dense_98", 0, 0, {}]]]}, {"class_name": "Dense", "config": {"name": "dense_100", "trainable": true, "dtype": "float64", "units": 10, "activation": "tanh", "use_bias": true, "kernel_initializer": {"class_name": "GlorotUniform", "config": {"seed": null}}, "bias_initializer": {"class_name": "Zeros", "config": {}}, "kernel_regularizer": null, "bias_regularizer": null, "activity_regularizer": null, "kernel_constraint": null, "bias_constraint": null}, "name": "dense_100", "inbound_nodes": [[["dense_99", 0, 0, {}]]]}, {"class_name": "Dense", "config": {"name": "dense_101", "trainable": true, "dtype": "float64", "units": 10, "activation": "tanh", "use_bias": true, "kernel_initializer": {"class_name": "GlorotUniform", "config": {"seed": null}}, "bias_initializer": {"class_name": "Zeros", "config": {}}, "kernel_regularizer": null, "bias_regularizer": null, "activity_regularizer": null, "kernel_constraint": null, "bias_constraint": null}, "name": "dense_101", "inbound_nodes": [[["dense_100", 0, 0, {}]]]}, {"class_name": "Dense", "config": {"name": "dense_102", "trainable": true, "dtype": "float64", "units": 10, "activation": "tanh", "use_bias": true, "kernel_initializer": {"class_name": "GlorotUniform", "config": {"seed": null}}, "bias_initializer": {"class_name": "Zeros", "config": {}}, "kernel_regularizer": null, "bias_regularizer": null, "activity_regularizer": null, "kernel_constraint": null, "bias_constraint": null}, "name": "dense_102", "inbound_nodes": [[["dense_101", 0, 0, {}]]]}, {"class_name": "Dense", "config": {"name": "dense_103", "trainable": true, "dtype": "float64", "units": 1, "activation": "linear", "use_bias": true, "kernel_initializer": {"class_name": "GlorotUniform", "config": {"seed": null}}, "bias_initializer": {"class_name": "Zeros", "config": {}}, "kernel_regularizer": null, "bias_regularizer": null, "activity_regularizer": null, "kernel_constraint": null, "bias_constraint": null}, "name": "dense_103", "inbound_nodes": [[["dense_102", 0, 0, {}]]]}], "input_layers": [["input_13", 0, 0]], "output_layers": [["dense_103", 0, 0]]}, "summary": ["Model: \"model_12\"", "_________________________________________________________________", "Layer (type)                 Output Shape              Param #   ", "=================================================================", "input_13 (InputLayer)        [(None, 1)]               0         ", "_________________________________________________________________", "dense_96 (Dense)             (None, 10)                20        ", "_________________________________________________________________", "dense_97 (Dense)             (None, 10)                110       ", "_________________________________________________________________", "dense_98 (Dense)             (None, 10)                110       ", "_________________________________________________________________", "dense_99 (Dense)             (None, 10)                110       ", "_________________________________________________________________", "dense_100 (Dense)            (None, 10)                110       ", "_________________________________________________________________", "dense_101 (Dense)            (None, 10)                110       ", "_________________________________________________________________", "dense_102 (Dense)            (None, 10)                110       ", "_________________________________________________________________", "dense_103 (Dense)            (None, 1)                 11        ", "=================================================================", "Total params: 691", "Trainable params: 691", "Non-trainable params: 0", "_________________________________________________________________"]}, "kwargs": {"border_xs": [[0.1]], "border_ys": [[20.1]], "inside_xs_builder": "<function linspace_inside_xs_builder_builder.<locals>._inside_xs_builder at 0x7f11593bb0e0>", "border_builder": "<function border_with_function_values_builder at 0x7f115165e830>", "equation_builder": "<function first_order_equation_builder_builder.<locals>.equation_builder at 0x7f11593bb680>", "input_dim": 1, "output_dim": 1, "sol": "<function <lambda> at 0x7f11593bbb90>", "random_seed": 1, "N_f": 1000, "epochs": 2000, "clip_grad": 1, "learning_rate": 0.01, "model_builder": "NN[[10, 10, 10, 10, 10, 10, 10]]", "optimizers": [1, 1], "border_loss_multiplier": 1, "ode": "NL-ODE2"}, "losses": [… "errors": [3.6425174939408944e-08]}, "date": "09:57:47 09 May 2021"}
{"payload": {"model": {"config": {"name": "model_13", "layers": [{"class_name": "InputLayer", "config": {"batch_input_shape": [null, 1], "dtype": "float64", "sparse": false, "ragged": false, "name": "input_14"}, "name": "input_14", "inbound_nodes": []}, {"class_name": "Dense", "config": {"name": "dense_104", "trainable": true, "dtype": "float64", "units": 10, "activation": "tanh", "use_bias": true, "kernel_initializer": {"class_name": "GlorotUniform", "config": {"seed": null}}, "bias_initializer": {"class_name": "Zeros", "config": {}}, "kernel_regularizer": null, "bias_regularizer": null, "activity_regularizer": null, "kernel_constraint": null, "bias_constraint": null}, "name": "dense_104", "inbound_nodes": [[["input_14", 0, 0, {}]]]}, {"class_name": "Dense", "config": {"name": "dense_105", "trainable": true, "dtype": "float64", "units": 10, "activation": "tanh", "use_bias": true, "kernel_initializer": {"class_name": "GlorotUniform", "config": {"seed": null}}, "bias_initializer": {"class_name": "Zeros", "config": {}}, "kernel_regularizer": null, "bias_regularizer": null, "activity_regularizer": null, "kernel_constraint": null, "bias_constraint": null}, "name": "dense_105", "inbound_nodes": [[["dense_104", 0, 0, {}]]]}, {"class_name": "Dense", "config": {"name": "dense_106", "trainable": true, "dtype": "float64", "units": 10, "activation": "tanh", "use_bias": true, "kernel_initializer": {"class_name": "GlorotUniform", "config": {"seed": null}}, "bias_initializer": {"class_name": "Zeros", "config": {}}, "kernel_regularizer": null, "bias_regularizer": null, "activity_regularizer": null, "kernel_constraint": null, "bias_constraint": null}, "name": "dense_106", "inbound_nodes": [[["dense_105", 0, 0, {}]]]}, {"class_name": "Dense", "config": {"name": "dense_107", "trainable": true, "dtype": "float64", "units": 10, "activation": "tanh", "use_bias": true, "kernel_initializer": {"class_name": "GlorotUniform", "config": {"seed": null}}, "bias_initializer": {"class_name": "Zeros", "config": {}}, "kernel_regularizer": null, "bias_regularizer": null, "activity_regularizer": null, "kernel_constraint": null, "bias_constraint": null}, "name": "dense_107", "inbound_nodes": [[["dense_106", 0, 0, {}]]]}, {"class_name": "Dense", "config": {"name": "dense_108", "trainable": true, "dtype": "float64", "units": 10, "activation": "tanh", "use_bias": true, "kernel_initializer": {"class_name": "GlorotUniform", "config": {"seed": null}}, "bias_initializer": {"class_name": "Zeros", "config": {}}, "kernel_regularizer": null, "bias_regularizer": null, "activity_regularizer": null, "kernel_constraint": null, "bias_constraint": null}, "name": "dense_108", "inbound_nodes": [[["dense_107", 0, 0, {}]]]}, {"class_name": "Dense", "config": {"name": "dense_109", "trainable": true, "dtype": "float64", "units": 10, "activation": "tanh", "use_bias": true, "kernel_initializer": {"class_name": "GlorotUniform", "config": {"seed": null}}, "bias_initializer": {"class_name": "Zeros", "config": {}}, "kernel_regularizer": null, "bias_regularizer": null, "activity_regularizer": null, "kernel_constraint": null, "bias_constraint": null}, "name": "dense_109", "inbound_nodes": [[["dense_108", 0, 0, {}]]]}, {"class_name": "Dense", "config": {"name": "dense_110", "trainable": true, "dtype": "float64", "units": 10, "activation": "tanh", "use_bias": true, "kernel_initializer": {"class_name": "GlorotUniform", "config": {"seed": null}}, "bias_initializer": {"class_name": "Zeros", "config": {}}, "kernel_regularizer": null, "bias_regularizer": null, "activity_regularizer": null, "kernel_constraint": null, "bias_constraint": null}, "name": "dense_110", "inbound_nodes": [[["dense_109", 0, 0, {}]]]}, {"class_name": "Dense", "config": {"name": "dense_111", "trainable": true, "dtype": "float64", "units": 1, "activation": "linear", "use_bias": true, "kernel_initializer": {"class_name": "GlorotUniform", "config": {"seed": null}}, "bias_initializer": {"class_name": "Zeros", "config": {}}, "kernel_regularizer": null, "bias_regularizer": null, "activity_regularizer": null, "kernel_constraint": null, "bias_constraint": null}, "name": "dense_111", "inbound_nodes": [[["dense_110", 0, 0, {}]]]}], "input_layers": [["input_14", 0, 0]], "output_layers": [["dense_111", 0, 0]]}, "summary": ["Model: \"model_13\"", "_________________________________________________________________", "Layer (type)                 Output Shape              Param #   ", "=================================================================", "input_14 (InputLayer)        [(None, 1)]               0         ", "_________________________________________________________________", "dense_104 (Dense)            (None, 10)                20        ", "_________________________________________________________________", "dense_105 (Dense)            (None, 10)                110       ", "_________________________________________________________________", "dense_106 (Dense)            (None, 10)                110       ", "_________________________________________________________________", "dense_107 (Dense)            (None, 10)                110       ", "_________________________________________________________________", "dense_108 (Dense)            (None, 10)                110       ", "_________________________________________________________________", "dense_109 (Dense)            (None, 10)                110       ", "_________________________________________________________________", "dense_110 (Dense)            (None, 10)                110       ", "_________________________________________________________________", "dense_111 (Dense)            (None, 1)                 11        ", "=================================================================", "Total params: 691", "Trainable params: 691", "Non-trainable params: 0", "_________________________________________________________________"]}, "kwargs": {"border_xs": [[0.1]], "border_ys": [[21.03504087643303]], "inside_xs_builder": "<function linspace_inside_xs_builder_builder.<locals>._inside_xs_builder at 0x7f11593bb440>", "border_builder": "<function border_with_function_values_builder at 0x7f115165e830>", "equation_builder": "<function first_order_equation_builder_builder.<locals>.equation_builder at 0x7f11593bb8c0>", "input_dim": 1, "output_dim": 1, "sol": "<function <lambda> at 0x7f119b26e8c0>", "random_seed": 1, "N_f": 1000, "epochs": 2000, "clip_grad": 1, "learning_rate": 0.01, "model_builder": "NN[[10, 10, 10, 10, 10, 10, 10]]", "optimizers": [1, 1], "border_loss_multiplier": 1, "ode": "NL-ODE3"}, "losses": [… "errors": [6.1224714890535475e-09]}, "date": "10:00:12 09 May 2021"}
{"payload": {"model": {"config": {"name": "model_14", "layers": [{"class_name": "InputLayer", "config": {"batch_input_shape": [null, 1], "dtype": "float64", "sparse": false, "ragged": false, "name": "input_15"}, "name": "input_15", "inbound_nodes": []}, {"class_name": "Dense", "config": {"name": "dense_112", "trainable": true, "dtype": "float64", "units": 10, "activation": "tanh", "use_bias": true, "kernel_initializer": {"class_name": "GlorotUniform", "config": {"seed": null}}, "bias_initializer": {"class_name": "Zeros", "config": {}}, "kernel_regularizer": null, "bias_regularizer": null, "activity_regularizer": null, "kernel_constraint": null, "bias_constraint": null}, "name": "dense_112", "inbound_nodes": [[["input_15", 0, 0, {}]]]}, {"class_name": "Dense", "config": {"name": "dense_113", "trainable": true, "dtype": "float64", "units": 10, "activation": "tanh", "use_bias": true, "kernel_initializer": {"class_name": "GlorotUniform", "config": {"seed": null}}, "bias_initializer": {"class_name": "Zeros", "config": {}}, "kernel_regularizer": null, "bias_regularizer": null, "activity_regularizer": null, "kernel_constraint": null, "bias_constraint": null}, "name": "dense_113", "inbound_nodes": [[["dense_112", 0, 0, {}]]]}, {"class_name": "Dense", "config": {"name": "dense_114", "trainable": true, "dtype": "float64", "units": 10, "activation": "tanh", "use_bias": true, "kernel_initializer": {"class_name": "GlorotUniform", "config": {"seed": null}}, "bias_initializer": {"class_name": "Zeros", "config": {}}, "kernel_regularizer": null, "bias_regularizer": null, "activity_regularizer": null, "kernel_constraint": null, "bias_constraint": null}, "name": "dense_114", "inbound_nodes": [[["dense_113", 0, 0, {}]]]}, {"class_name": "Dense", "config": {"name": "dense_115", "trainable": true, "dtype": "float64", "units": 10, "activation": "tanh", "use_bias": true, "kernel_initializer": {"class_name": "GlorotUniform", "config": {"seed": null}}, "bias_initializer": {"class_name": "Zeros", "config": {}}, "kernel_regularizer": null, "bias_regularizer": null, "activity_regularizer": null, "kernel_constraint": null, "bias_constraint": null}, "name": "dense_115", "inbound_nodes": [[["dense_114", 0, 0, {}]]]}, {"class_name": "Dense", "config": {"name": "dense_116", "trainable": true, "dtype": "float64", "units": 10, "activation": "tanh", "use_bias": true, "kernel_initializer": {"class_name": "GlorotUniform", "config": {"seed": null}}, "bias_initializer": {"class_name": "Zeros", "config": {}}, "kernel_regularizer": null, "bias_regularizer": null, "activity_regularizer": null, "kernel_constraint": null, "bias_constraint": null}, "name": "dense_116", "inbound_nodes": [[["dense_115", 0, 0, {}]]]}, {"class_name": "Dense", "config": {"name": "dense_117", "trainable": true, "dtype": "float64", "units": 10, "activation": "tanh", "use_bias": true, "kernel_initializer": {"class_name": "GlorotUniform", "config": {"seed": null}}, "bias_initializer": {"class_name": "Zeros", "config": {}}, "kernel_regularizer": null, "bias_regularizer": null, "activity_regularizer": null, "kernel_constraint": null, "bias_constraint": null}, "name": "dense_117", "inbound_nodes": [[["dense_116", 0, 0, {}]]]}, {"class_name": "Dense", "config": {"name": "dense_118", "trainable": true, "dtype": "float64", "units": 10, "activation": "tanh", "use_bias": true, "kernel_initializer": {"class_name": "GlorotUniform", "config": {"seed": null}}, "bias_initializer": {"class_name": "Zeros", "config": {}}, "kernel_regularizer": null, "bias_regularizer": null, "activity_regularizer": null, "kernel_constraint": null, "bias_constraint": null}, "name": "dense_118", "inbound_nodes": [[["dense_117", 0, 0, {}]]]}, {"class_name": "Dense", "config": {"name": "dense_119", "trainable": true, "dtype": "float64", "units": 1, "activation": "linear", "use_bias": true, "kernel_initializer": {"class_name": "GlorotUniform", "config": {"seed": null}}, "bias_initializer": {"class_name": "Zeros", "config": {}}, "kernel_regularizer": null, "bias_regularizer": null, "activity_regularizer": null, "kernel_constraint": null, "bias_constraint": null}, "name": "dense_119", "inbound_nodes": [[["dense_118", 0, 0, {}]]]}], "input_layers": [["input_15", 0, 0]], "output_layers": [["dense_119", 0, 0]]}, "summary": ["Model: \"model_14\"", "_________________________________________________________________", "Layer (type)                 Output Shape              Param #   ", "=================================================================", "input_15 (InputLayer)        [(None, 1)]               0         ", "_________________________________________________________________", "dense_112 (Dense)            (None, 10)                20        ", "_________________________________________________________________", "dense_113 (Dense)            (None, 10)                110       ", "_________________________________________________________________", "dense_114 (Dense)            (None, 10)                110       ", "_________________________________________________________________", "dense_115 (Dense)            (None, 10)                110       ", "_________________________________________________________________", "dense_116 (Dense)            (None, 10)                110       ", "_________________________________________________________________", "dense_117 (Dense)            (None, 10)                110       ", "_________________________________________________________________", "dense_118 (Dense)            (None, 10)                110       ", "_________________________________________________________________", "dense_119 (Dense)            (None, 1)                 11        ", "=================================================================", "Total params: 691", "Trainable params: 691", "Non-trainable params: 0", "_________________________________________________________________"]}, "kwargs": {"border_xs": [[0.1]], "border_ys": [[21.03504087643303]], "inside_xs_builder": "<function linspace_inside_xs_builder_builder.<locals>._inside_xs_builder at 0x7f115931fe60>", "border_builder": "<function border_with_function_values_builder at 0x7f115165e830>", "equation_builder": "<function first_order_equation_builder_builder.<locals>.equation_builder at 0x7f115187dcb0>", "input_dim": 1, "output_dim": 1, "sol": "<function <lambda> at 0x7f1151838290>", "random_seed": 1, "N_f": 1000, "epochs": 2000, "clip_grad": 1, "learning_rate": 0.01, "model_builder": "NN[[10, 10, 10, 10, 10, 10, 10]]", "optimizers": [1, 1], "border_loss_multiplier": 1, "ode": "NL-ODE4"}, "losses": [… "errors": [3.213954554436821e-08]}, "date": "10:01:39 09 May 2021"}
{"payload": {"model": {"config": {"name": "model_15", "layers": [{"class_name": "InputLayer", "config": {"batch_input_shape": [null, 1], "dtype": "float64", "sparse": false, "ragged": false, "name": "input_16"}, "name": "input_16", "inbound_nodes": []}, {"class_name": "Dense", "config": {"name": "dense_120", "trainable": true, "dtype": "float64", "units": 10, "activation": "tanh", "use_bias": true, "kernel_initializer": {"class_name": "GlorotUniform", "config": {"seed": null}}, "bias_initializer": {"class_name": "Zeros", "config": {}}, "kernel_regularizer": null, "bias_regularizer": null, "activity_regularizer": null, "kernel_constraint": null, "bias_constraint": null}, "name": "dense_120", "inbound_nodes": [[["input_16", 0, 0, {}]]]}, {"class_name": "Dense", "config": {"name": "dense_121", "trainable": true, "dtype": "float64", "units": 10, "activation": "tanh", "use_bias": true, "kernel_initializer": {"class_name": "GlorotUniform", "config": {"seed": null}}, "bias_initializer": {"class_name": "Zeros", "config": {}}, "kernel_regularizer": null, "bias_regularizer": null, "activity_regularizer": null, "kernel_constraint": null, "bias_constraint": null}, "name": "dense_121", "inbound_nodes": [[["dense_120", 0, 0, {}]]]}, {"class_name": "Dense", "config": {"name": "dense_122", "trainable": true, "dtype": "float64", "units": 10, "activation": "tanh", "use_bias": true, "kernel_initializer": {"class_name": "GlorotUniform", "config": {"seed": null}}, "bias_initializer": {"class_name": "Zeros", "config": {}}, "kernel_regularizer": null, "bias_regularizer": null, "activity_regularizer": null, "kernel_constraint": null, "bias_constraint": null}, "name": "dense_122", "inbound_nodes": [[["dense_121", 0, 0, {}]]]}, {"class_name": "Dense", "config": {"name": "dense_123", "trainable": true, "dtype": "float64", "units": 10, "activation": "tanh", "use_bias": true, "kernel_initializer": {"class_name": "GlorotUniform", "config": {"seed": null}}, "bias_initializer": {"class_name": "Zeros", "config": {}}, "kernel_regularizer": null, "bias_regularizer": null, "activity_regularizer": null, "kernel_constraint": null, "bias_constraint": null}, "name": "dense_123", "inbound_nodes": [[["dense_122", 0, 0, {}]]]}, {"class_name": "Dense", "config": {"name": "dense_124", "trainable": true, "dtype": "float64", "units": 10, "activation": "tanh", "use_bias": true, "kernel_initializer": {"class_name": "GlorotUniform", "config": {"seed": null}}, "bias_initializer": {"class_name": "Zeros", "config": {}}, "kernel_regularizer": null, "bias_regularizer": null, "activity_regularizer": null, "kernel_constraint": null, "bias_constraint": null}, "name": "dense_124", "inbound_nodes": [[["dense_123", 0, 0, {}]]]}, {"class_name": "Dense", "config": {"name": "dense_125", "trainable": true, "dtype": "float64", "units": 10, "activation": "tanh", "use_bias": true, "kernel_initializer": {"class_name": "GlorotUniform", "config": {"seed": null}}, "bias_initializer": {"class_name": "Zeros", "config": {}}, "kernel_regularizer": null, "bias_regularizer": null, "activity_regularizer": null, "kernel_constraint": null, "bias_constraint": null}, "name": "dense_125", "inbound_nodes": [[["dense_124", 0, 0, {}]]]}, {"class_name": "Dense", "config": {"name": "dense_126", "trainable": true, "dtype": "float64", "units": 10, "activation": "tanh", "use_bias": true, "kernel_initializer": {"class_name": "GlorotUniform", "config": {"seed": null}}, "bias_initializer": {"class_name": "Zeros", "config": {}}, "kernel_regularizer": null, "bias_regularizer": null, "activity_regularizer": null, "kernel_constraint": null, "bias_constraint": null}, "name": "dense_126", "inbound_nodes": [[["dense_125", 0, 0, {}]]]}, {"class_name": "Dense", "config": {"name": "dense_127", "trainable": true, "dtype": "float64", "units": 1, "activation": "linear", "use_bias": true, "kernel_initializer": {"class_name": "GlorotUniform", "config": {"seed": null}}, "bias_initializer": {"class_name": "Zeros", "config": {}}, "kernel_regularizer": null, "bias_regularizer": null, "activity_regularizer": null, "kernel_constraint": null, "bias_constraint": null}, "name": "dense_127", "inbound_nodes": [[["dense_126", 0, 0, {}]]]}], "input_layers": [["input_16", 0, 0]], "output_layers": [["dense_127", 0, 0]]}, "summary": ["Model: \"model_15\"", "_________________________________________________________________", "Layer (type)                 Output Shape              Param #   ", "=================================================================", "input_16 (InputLayer)        [(None, 1)]               0         ", "_________________________________________________________________", "dense_120 (Dense)            (None, 10)                20        ", "_________________________________________________________________", "dense_121 (Dense)            (None, 10)                110       ", "_________________________________________________________________", "dense_122 (Dense)            (None, 10)                110       ", "_________________________________________________________________", "dense_123 (Dense)            (None, 10)                110       ", "_________________________________________________________________", "dense_124 (Dense)            (None, 10)                110       ", "_________________________________________________________________", "dense_125 (Dense)            (None, 10)                110       ", "_________________________________________________________________", "dense_126 (Dense)            (None, 10)                110       ", "_________________________________________________________________", "dense_127 (Dense)            (None, 1)                 11        ", "=================================================================", "Total params: 691", "Trainable params: 691", "Non-trainable params: 0", "_________________________________________________________________"]}, "kwargs": {"border_xs": [[1.0]], "border_ys": [[1.0], [0.0]], "inside_xs_builder": "<function linspace_inside_xs_builder_builder.<locals>._inside_xs_builder at 0x7f11518384d0>", "border_builder": "<function border_builder at 0x7f115921a200>", "equation_builder": "<function second_order_equation_builder_builder.<locals>.equation_builder at 0x7f1151838050>", "input_dim": 1, "output_dim": 1, "sol": "<function <lambda> at 0x7f1151838200>", "random_seed": 1, "N_f": 1000, "epochs": 2000, "clip_grad": 1, "learning_rate": 0.01, "model_builder": "NN[[10, 10, 10, 10, 10, 10, 10]]", "optimizers": [1, 1], "border_loss_multiplier": 1, "ode": "NL-ODEn1"}, "losses": [… "errors": [1.6122526043420897e-09]}, "date": "10:02:40 09 May 2021"}
{"payload": {"model": {"config": {"name": "model_16", "layers": [{"class_name": "InputLayer", "config": {"batch_input_shape": [null, 1], "dtype": "float64", "sparse": false, "ragged": false, "name": "input_17"}, "name": "input_17", "inbound_nodes": []}, {"class_name": "Dense", "config": {"name": "dense_128", "trainable": true, "dtype": "float64", "units": 10, "activation": "tanh", "use_bias": true, "kernel_initializer": {"class_name": "GlorotUniform", "config": {"seed": null}}, "bias_initializer": {"class_name": "Zeros", "config": {}}, "kernel_regularizer": null, "bias_regularizer": null, "activity_regularizer": null, "kernel_constraint": null, "bias_constraint": null}, "name": "dense_128", "inbound_nodes": [[["input_17", 0, 0, {}]]]}, {"class_name": "Dense", "config": {"name": "dense_129", "trainable": true, "dtype": "float64", "units": 10, "activation": "tanh", "use_bias": true, "kernel_initializer": {"class_name": "GlorotUniform", "config": {"seed": null}}, "bias_initializer": {"class_name": "Zeros", "config": {}}, "kernel_regularizer": null, "bias_regularizer": null, "activity_regularizer": null, "kernel_constraint": null, "bias_constraint": null}, "name": "dense_129", "inbound_nodes": [[["dense_128", 0, 0, {}]]]}, {"class_name": "Dense", "config": {"name": "dense_130", "trainable": true, "dtype": "float64", "units": 10, "activation": "tanh", "use_bias": true, "kernel_initializer": {"class_name": "GlorotUniform", "config": {"seed": null}}, "bias_initializer": {"class_name": "Zeros", "config": {}}, "kernel_regularizer": null, "bias_regularizer": null, "activity_regularizer": null, "kernel_constraint": null, "bias_constraint": null}, "name": "dense_130", "inbound_nodes": [[["dense_129", 0, 0, {}]]]}, {"class_name": "Dense", "config": {"name": "dense_131", "trainable": true, "dtype": "float64", "units": 10, "activation": "tanh", "use_bias": true, "kernel_initializer": {"class_name": "GlorotUniform", "config": {"seed": null}}, "bias_initializer": {"class_name": "Zeros", "config": {}}, "kernel_regularizer": null, "bias_regularizer": null, "activity_regularizer": null, "kernel_constraint": null, "bias_constraint": null}, "name": "dense_131", "inbound_nodes": [[["dense_130", 0, 0, {}]]]}, {"class_name": "Dense", "config": {"name": "dense_132", "trainable": true, "dtype": "float64", "units": 10, "activation": "tanh", "use_bias": true, "kernel_initializer": {"class_name": "GlorotUniform", "config": {"seed": null}}, "bias_initializer": {"class_name": "Zeros", "config": {}}, "kernel_regularizer": null, "bias_regularizer": null, "activity_regularizer": null, "kernel_constraint": null, "bias_constraint": null}, "name": "dense_132", "inbound_nodes": [[["dense_131", 0, 0, {}]]]}, {"class_name": "Dense", "config": {"name": "dense_133", "trainable": true, "dtype": "float64", "units": 10, "activation": "tanh", "use_bias": true, "kernel_initializer": {"class_name": "GlorotUniform", "config": {"seed": null}}, "bias_initializer": {"class_name": "Zeros", "config": {}}, "kernel_regularizer": null, "bias_regularizer": null, "activity_regularizer": null, "kernel_constraint": null, "bias_constraint": null}, "name": "dense_133", "inbound_nodes": [[["dense_132", 0, 0, {}]]]}, {"class_name": "Dense", "config": {"name": "dense_134", "trainable": true, "dtype": "float64", "units": 10, "activation": "tanh", "use_bias": true, "kernel_initializer": {"class_name": "GlorotUniform", "config": {"seed": null}}, "bias_initializer": {"class_name": "Zeros", "config": {}}, "kernel_regularizer": null, "bias_regularizer": null, "activity_regularizer": null, "kernel_constraint": null, "bias_constraint": null}, "name": "dense_134", "inbound_nodes": [[["dense_133", 0, 0, {}]]]}, {"class_name": "Dense", "config": {"name": "dense_135", "trainable": true, "dtype": "float64", "units": 1, "activation": "linear", "use_bias": true, "kernel_initializer": {"class_name": "GlorotUniform", "config": {"seed": null}}, "bias_initializer": {"class_name": "Zeros", "config": {}}, "kernel_regularizer": null, "bias_regularizer": null, "activity_regularizer": null, "kernel_constraint": null, "bias_constraint": null}, "name": "dense_135", "inbound_nodes": [[["dense_134", 0, 0, {}]]]}], "input_layers": [["input_17", 0, 0]], "output_layers": [["dense_135", 0, 0]]}, "summary": ["Model: \"model_16\"", "_________________________________________________________________", "Layer (type)                 Output Shape              Param #   ", "=================================================================", "input_17 (InputLayer)        [(None, 1)]               0         ", "_________________________________________________________________", "dense_128 (Dense)            (None, 10)                20        ", "_________________________________________________________________", "dense_129 (Dense)            (None, 10)                110       ", "_________________________________________________________________", "dense_130 (Dense)            (None, 10)                110       ", "_________________________________________________________________", "dense_131 (Dense)            (None, 10)                110       ", "_________________________________________________________________", "dense_132 (Dense)            (None, 10)                110       ", "_________________________________________________________________", "dense_133 (Dense)            (None, 10)                110       ", "_________________________________________________________________", "dense_134 (Dense)            (None, 10)                110       ", "_________________________________________________________________", "dense_135 (Dense)            (None, 1)                 11        ", "=================================================================", "Total params: 691", "Trainable params: 691", "Non-trainable params: 0", "_________________________________________________________________"]}, "kwargs": {"border_xs": [[1.0]], "border_ys": [[0.0], [3.0]], "inside_xs_builder": "<function linspace_inside_xs_builder_builder.<locals>._inside_xs_builder at 0x7f1151838560>", "border_builder": "<function border_builder at 0x7f115921a200>", "equation_builder": "<function second_order_equation_builder_builder.<locals>.equation_builder at 0x7f11518380e0>", "input_dim": 1, "output_dim": 1, "sol": "<function <lambda> at 0x7f1151854950>", "random_seed": 1, "N_f": 1000, "epochs": 2000, "clip_grad": 1, "learning_rate": 0.01, "model_builder": "NN[[10, 10, 10, 10, 10, 10, 10]]", "optimizers": [1, 1], "border_loss_multiplier": 1, "ode": "NL-ODEn2"}, "losses": [… "errors": [7.390839128862429e-09]}, "date": "10:03:48 09 May 2021"}
{"payload": {"model": {"config": {"name": "model_17", "layers": [{"class_name": "InputLayer", "config": {"batch_input_shape": [null, 1], "dtype": "float64", "sparse": false, "ragged": false, "name": "input_18"}, "name": "input_18", "inbound_nodes": []}, {"class_name": "Dense", "config": {"name": "dense_136", "trainable": true, "dtype": "float64", "units": 10, "activation": "tanh", "use_bias": true, "kernel_initializer": {"class_name": "GlorotUniform", "config": {"seed": null}}, "bias_initializer": {"class_name": "Zeros", "config": {}}, "kernel_regularizer": null, "bias_regularizer": null, "activity_regularizer": null, "kernel_constraint": null, "bias_constraint": null}, "name": "dense_136", "inbound_nodes": [[["input_18", 0, 0, {}]]]}, {"class_name": "Dense", "config": {"name": "dense_137", "trainable": true, "dtype": "float64", "units": 10, "activation": "tanh", "use_bias": true, "kernel_initializer": {"class_name": "GlorotUniform", "config": {"seed": null}}, "bias_initializer": {"class_name": "Zeros", "config": {}}, "kernel_regularizer": null, "bias_regularizer": null, "activity_regularizer": null, "kernel_constraint": null, "bias_constraint": null}, "name": "dense_137", "inbound_nodes": [[["dense_136", 0, 0, {}]]]}, {"class_name": "Dense", "config": {"name": "dense_138", "trainable": true, "dtype": "float64", "units": 10, "activation": "tanh", "use_bias": true, "kernel_initializer": {"class_name": "GlorotUniform", "config": {"seed": null}}, "bias_initializer": {"class_name": "Zeros", "config": {}}, "kernel_regularizer": null, "bias_regularizer": null, "activity_regularizer": null, "kernel_constraint": null, "bias_constraint": null}, "name": "dense_138", "inbound_nodes": [[["dense_137", 0, 0, {}]]]}, {"class_name": "Dense", "config": {"name": "dense_139", "trainable": true, "dtype": "float64", "units": 10, "activation": "tanh", "use_bias": true, "kernel_initializer": {"class_name": "GlorotUniform", "config": {"seed": null}}, "bias_initializer": {"class_name": "Zeros", "config": {}}, "kernel_regularizer": null, "bias_regularizer": null, "activity_regularizer": null, "kernel_constraint": null, "bias_constraint": null}, "name": "dense_139", "inbound_nodes": [[["dense_138", 0, 0, {}]]]}, {"class_name": "Dense", "config": {"name": "dense_140", "trainable": true, "dtype": "float64", "units": 10, "activation": "tanh", "use_bias": true, "kernel_initializer": {"class_name": "GlorotUniform", "config": {"seed": null}}, "bias_initializer": {"class_name": "Zeros", "config": {}}, "kernel_regularizer": null, "bias_regularizer": null, "activity_regularizer": null, "kernel_constraint": null, "bias_constraint": null}, "name": "dense_140", "inbound_nodes": [[["dense_139", 0, 0, {}]]]}, {"class_name": "Dense", "config": {"name": "dense_141", "trainable": true, "dtype": "float64", "units": 10, "activation": "tanh", "use_bias": true, "kernel_initializer": {"class_name": "GlorotUniform", "config": {"seed": null}}, "bias_initializer": {"class_name": "Zeros", "config": {}}, "kernel_regularizer": null, "bias_regularizer": null, "activity_regularizer": null, "kernel_constraint": null, "bias_constraint": null}, "name": "dense_141", "inbound_nodes": [[["dense_140", 0, 0, {}]]]}, {"class_name": "Dense", "config": {"name": "dense_142", "trainable": true, "dtype": "float64", "units": 10, "activation": "tanh", "use_bias": true, "kernel_initializer": {"class_name": "GlorotUniform", "config": {"seed": null}}, "bias_initializer": {"class_name": "Zeros", "config": {}}, "kernel_regularizer": null, "bias_regularizer": null, "activity_regularizer": null, "kernel_constraint": null, "bias_constraint": null}, "name": "dense_142", "inbound_nodes": [[["dense_141", 0, 0, {}]]]}, {"class_name": "Dense", "config": {"name": "dense_143", "trainable": true, "dtype": "float64", "units": 2, "activation": "linear", "use_bias": true, "kernel_initializer": {"class_name": "GlorotUniform", "config": {"seed": null}}, "bias_initializer": {"class_name": "Zeros", "config": {}}, "kernel_regularizer": null, "bias_regularizer": null, "activity_regularizer": null, "kernel_constraint": null, "bias_constraint": null}, "name": "dense_143", "inbound_nodes": [[["dense_142", 0, 0, {}]]]}], "input_layers": [["input_18", 0, 0]], "output_layers": [["dense_143", 0, 0]]}, "summary": ["Model: \"model_17\"", "_________________________________________________________________", "Layer (type)                 Output Shape              Param #   ", "=================================================================", "input_18 (InputLayer)        [(None, 1)]               0         ", "_________________________________________________________________", "dense_136 (Dense)            (None, 10)                20        ", "_________________________________________________________________", "dense_137 (Dense)            (None, 10)                110       ", "_________________________________________________________________", "dense_138 (Dense)            (None, 10)                110       ", "_________________________________________________________________", "dense_139 (Dense)            (None, 10)                110       ", "_________________________________________________________________", "dense_140 (Dense)            (None, 10)                110       ", "_________________________________________________________________", "dense_141 (Dense)            (None, 10)                110       ", "_________________________________________________________________", "dense_142 (Dense)            (None, 10)                110       ", "_________________________________________________________________", "dense_143 (Dense)            (None, 2)                 22        ", "=================================================================", "Total params: 702", "Trainable params: 702", "Non-trainable params: 0", "_________________________________________________________________"]}, "kwargs": {"border_xs": [[0.0]], "border_ys": [0.0, 10.0], "inside_xs_builder": "<function linspace_inside_xs_builder_builder.<locals>._inside_xs_builder at 0x7f1151854440>", "border_builder": "<function border_with_function_values_builder at 0x7f115165e830>", "equation_builder": "<function first_order_equation_builder_builder.<locals>.equation_builder at 0x7f115185f440>", "input_dim": 1, "output_dim": 2, "sol": "<function <lambda> at 0x7f115185f3b0>", "random_seed": 1, "N_f": 1000, "epochs": 2000, "clip_grad": 1, "learning_rate": 0.01, "model_builder": "NN[[10, 10, 10, 10, 10, 10, 10]]", "optimizers": [1, 1], "border_loss_multiplier": 1, "ode": "SODE1"}, "losses": [… "errors": [52.615384684515504]}, "date": "10:08:00 09 May 2021"}
{"payload": {"model": {"config": {"name": "model_18", "layers": [{"class_name": "InputLayer", "config": {"batch_input_shape": [null, 1], "dtype": "float64", "sparse": false, "ragged": false, "name": "input_19"}, "name": "input_19", "inbound_nodes": []}, {"class_name": "Dense", "config": {"name": "dense_144", "trainable": true, "dtype": "float64", "units": 10, "activation": "tanh", "use_bias": true, "kernel_initializer": {"class_name": "GlorotUniform", "config": {"seed": null}}, "bias_initializer": {"class_name": "Zeros", "config": {}}, "kernel_regularizer": null, "bias_regularizer": null, "activity_regularizer": null, "kernel_constraint": null, "bias_constraint": null}, "name": "dense_144", "inbound_nodes": [[["input_19", 0, 0, {}]]]}, {"class_name": "Dense", "config": {"name": "dense_145", "trainable": true, "dtype": "float64", "units": 10, "activation": "tanh", "use_bias": true, "kernel_initializer": {"class_name": "GlorotUniform", "config": {"seed": null}}, "bias_initializer": {"class_name": "Zeros", "config": {}}, "kernel_regularizer": null, "bias_regularizer": null, "activity_regularizer": null, "kernel_constraint": null, "bias_constraint": null}, "name": "dense_145", "inbound_nodes": [[["dense_144", 0, 0, {}]]]}, {"class_name": "Dense", "config": {"name": "dense_146", "trainable": true, "dtype": "float64", "units": 10, "activation": "tanh", "use_bias": true, "kernel_initializer": {"class_name": "GlorotUniform", "config": {"seed": null}}, "bias_initializer": {"class_name": "Zeros", "config": {}}, "kernel_regularizer": null, "bias_regularizer": null, "activity_regularizer": null, "kernel_constraint": null, "bias_constraint": null}, "name": "dense_146", "inbound_nodes": [[["dense_145", 0, 0, {}]]]}, {"class_name": "Dense", "config": {"name": "dense_147", "trainable": true, "dtype": "float64", "units": 10, "activation": "tanh", "use_bias": true, "kernel_initializer": {"class_name": "GlorotUniform", "config": {"seed": null}}, "bias_initializer": {"class_name": "Zeros", "config": {}}, "kernel_regularizer": null, "bias_regularizer": null, "activity_regularizer": null, "kernel_constraint": null, "bias_constraint": null}, "name": "dense_147", "inbound_nodes": [[["dense_146", 0, 0, {}]]]}, {"class_name": "Dense", "config": {"name": "dense_148", "trainable": true, "dtype": "float64", "units": 10, "activation": "tanh", "use_bias": true, "kernel_initializer": {"class_name": "GlorotUniform", "config": {"seed": null}}, "bias_initializer": {"class_name": "Zeros", "config": {}}, "kernel_regularizer": null, "bias_regularizer": null, "activity_regularizer": null, "kernel_constraint": null, "bias_constraint": null}, "name": "dense_148", "inbound_nodes": [[["dense_147", 0, 0, {}]]]}, {"class_name": "Dense", "config": {"name": "dense_149", "trainable": true, "dtype": "float64", "units": 10, "activation": "tanh", "use_bias": true, "kernel_initializer": {"class_name": "GlorotUniform", "config": {"seed": null}}, "bias_initializer": {"class_name": "Zeros", "config": {}}, "kernel_regularizer": null, "bias_regularizer": null, "activity_regularizer": null, "kernel_constraint": null, "bias_constraint": null}, "name": "dense_149", "inbound_nodes": [[["dense_148", 0, 0, {}]]]}, {"class_name": "Dense", "config": {"name": "dense_150", "trainable": true, "dtype": "float64", "units": 10, "activation": "tanh", "use_bias": true, "kernel_initializer": {"class_name": "GlorotUniform", "config": {"seed": null}}, "bias_initializer": {"class_name": "Zeros", "config": {}}, "kernel_regularizer": null, "bias_regularizer": null, "activity_regularizer": null, "kernel_constraint": null, "bias_constraint": null}, "name": "dense_150", "inbound_nodes": [[["dense_149", 0, 0, {}]]]}, {"class_name": "Dense", "config": {"name": "dense_151", "trainable": true, "dtype": "float64", "units": 3, "activation": "linear", "use_bias": true, "kernel_initializer": {"class_name": "GlorotUniform", "config": {"seed": null}}, "bias_initializer": {"class_name": "Zeros", "config": {}}, "kernel_regularizer": null, "bias_regularizer": null, "activity_regularizer": null, "kernel_constraint": null, "bias_constraint": null}, "name": "dense_151", "inbound_nodes": [[["dense_150", 0, 0, {}]]]}], "input_layers": [["input_19", 0, 0]], "output_layers": [["dense_151", 0, 0]]}, "summary": ["Model: \"model_18\"", "_________________________________________________________________", "Layer (type)                 Output Shape              Param #   ", "=================================================================", "input_19 (InputLayer)        [(None, 1)]               0         ", "_________________________________________________________________", "dense_144 (Dense)            (None, 10)                20        ", "_________________________________________________________________", "dense_145 (Dense)            (None, 10)                110       ", "_________________________________________________________________", "dense_146 (Dense)            (None, 10)                110       ", "_________________________________________________________________", "dense_147 (Dense)            (None, 10)                110       ", "_________________________________________________________________", "dense_148 (Dense)            (None, 10)                110       ", "_________________________________________________________________", "dense_149 (Dense)            (None, 10)                110       ", "_________________________________________________________________", "dense_150 (Dense)            (None, 10)                110       ", "_________________________________________________________________", "dense_151 (Dense)            (None, 3)                 33        ", "=================================================================", "Total params: 713", "Trainable params: 713", "Non-trainable params: 0", "_________________________________________________________________"]}, "kwargs": {"border_xs": [[0]], "border_ys": [[0, 1, 1]], "inside_xs_builder": "<function linspace_inside_xs_builder_builder.<locals>._inside_xs_builder at 0x7f115185f320>", "border_builder": "<function border_with_function_values_builder at 0x7f115165e830>", "equation_builder": "<function first_order_equation_builder_builder.<locals>.equation_builder at 0x7f115185f830>", "input_dim": 1, "output_dim": 3, "sol": "<function <lambda> at 0x7f115185f710>", "random_seed": 1, "N_f": 1000, "epochs": 2000, "clip_grad": 1, "learning_rate": 0.01, "model_builder": "NN[[10, 10, 10, 10, 10, 10, 10]]", "optimizers": [1, 1], "border_loss_multiplier": 1, "ode": "SODE2"}, "losses": [… "errors": [2.1466266310479425e-06]}, "date": "10:09:01 09 May 2021"}
{"payload": {"model": {"config": {"name": "model_19", "layers": [{"class_name": "InputLayer", "config": {"batch_input_shape": [null, 1], "dtype": "float64", "sparse": false, "ragged": false, "name": "input_20"}, "name": "input_20", "inbound_nodes": []}, {"class_name": "Dense", "config": {"name": "dense_152", "trainable": true, "dtype": "float64", "units": 10, "activation": "tanh", "use_bias": true, "kernel_initializer": {"class_name": "GlorotUniform", "config": {"seed": null}}, "bias_initializer": {"class_name": "Zeros", "config": {}}, "kernel_regularizer": null, "bias_regularizer": null, "activity_regularizer": null, "kernel_constraint": null, "bias_constraint": null}, "name": "dense_152", "inbound_nodes": [[["input_20", 0, 0, {}]]]}, {"class_name": "Dense", "config": {"name": "dense_153", "trainable": true, "dtype": "float64", "units": 10, "activation": "tanh", "use_bias": true, "kernel_initializer": {"class_name": "GlorotUniform", "config": {"seed": null}}, "bias_initializer": {"class_name": "Zeros", "config": {}}, "kernel_regularizer": null, "bias_regularizer": null, "activity_regularizer": null, "kernel_constraint": null, "bias_constraint": null}, "name": "dense_153", "inbound_nodes": [[["dense_152", 0, 0, {}]]]}, {"class_name": "Dense", "config": {"name": "dense_154", "trainable": true, "dtype": "float64", "units": 10, "activation": "tanh", "use_bias": true, "kernel_initializer": {"class_name": "GlorotUniform", "config": {"seed": null}}, "bias_initializer": {"class_name": "Zeros", "config": {}}, "kernel_regularizer": null, "bias_regularizer": null, "activity_regularizer": null, "kernel_constraint": null, "bias_constraint": null}, "name": "dense_154", "inbound_nodes": [[["dense_153", 0, 0, {}]]]}, {"class_name": "Dense", "config": {"name": "dense_155", "trainable": true, "dtype": "float64", "units": 10, "activation": "tanh", "use_bias": true, "kernel_initializer": {"class_name": "GlorotUniform", "config": {"seed": null}}, "bias_initializer": {"class_name": "Zeros", "config": {}}, "kernel_regularizer": null, "bias_regularizer": null, "activity_regularizer": null, "kernel_constraint": null, "bias_constraint": null}, "name": "dense_155", "inbound_nodes": [[["dense_154", 0, 0, {}]]]}, {"class_name": "Dense", "config": {"name": "dense_156", "trainable": true, "dtype": "float64", "units": 10, "activation": "tanh", "use_bias": true, "kernel_initializer": {"class_name": "GlorotUniform", "config": {"seed": null}}, "bias_initializer": {"class_name": "Zeros", "config": {}}, "kernel_regularizer": null, "bias_regularizer": null, "activity_regularizer": null, "kernel_constraint": null, "bias_constraint": null}, "name": "dense_156", "inbound_nodes": [[["dense_155", 0, 0, {}]]]}, {"class_name": "Dense", "config": {"name": "dense_157", "trainable": true, "dtype": "float64", "units": 10, "activation": "tanh", "use_bias": true, "kernel_initializer": {"class_name": "GlorotUniform", "config": {"seed": null}}, "bias_initializer": {"class_name": "Zeros", "config": {}}, "kernel_regularizer": null, "bias_regularizer": null, "activity_regularizer": null, "kernel_constraint": null, "bias_constraint": null}, "name": "dense_157", "inbound_nodes": [[["dense_156", 0, 0, {}]]]}, {"class_name": "Dense", "config": {"name": "dense_158", "trainable": true, "dtype": "float64", "units": 10, "activation": "tanh", "use_bias": true, "kernel_initializer": {"class_name": "GlorotUniform", "config": {"seed": null}}, "bias_initializer": {"class_name": "Zeros", "config": {}}, "kernel_regularizer": null, "bias_regularizer": null, "activity_regularizer": null, "kernel_constraint": null, "bias_constraint": null}, "name": "dense_158", "inbound_nodes": [[["dense_157", 0, 0, {}]]]}, {"class_name": "Dense", "config": {"name": "dense_159", "trainable": true, "dtype": "float64", "units": 3, "activation": "linear", "use_bias": true, "kernel_initializer": {"class_name": "GlorotUniform", "config": {"seed": null}}, "bias_initializer": {"class_name": "Zeros", "config": {}}, "kernel_regularizer": null, "bias_regularizer": null, "activity_regularizer": null, "kernel_constraint": null, "bias_constraint": null}, "name": "dense_159", "inbound_nodes": [[["dense_158", 0, 0, {}]]]}], "input_layers": [["input_20", 0, 0]], "output_layers": [["dense_159", 0, 0]]}, "summary": ["Model: \"model_19\"", "_________________________________________________________________", "Layer (type)                 Output Shape              Param #   ", "=================================================================", "input_20 (InputLayer)        [(None, 1)]               0         ", "_________________________________________________________________", "dense_152 (Dense)            (None, 10)                20        ", "_________________________________________________________________", "dense_153 (Dense)            (None, 10)                110       ", "_________________________________________________________________", "dense_154 (Dense)            (None, 10)                110       ", "_________________________________________________________________", "dense_155 (Dense)            (None, 10)                110       ", "_________________________________________________________________", "dense_156 (Dense)            (None, 10)                110       ", "_________________________________________________________________", "dense_157 (Dense)            (None, 10)                110       ", "_________________________________________________________________", "dense_158 (Dense)            (None, 10)                110       ", "_________________________________________________________________", "dense_159 (Dense)            (None, 3)                 33        ", "=================================================================", "Total params: 713", "Trainable params: 713", "Non-trainable params: 0", "_________________________________________________________________"]}, "kwargs": {"border_xs": [[0]], "border_ys": [[1, 0, 0]], "inside_xs_builder": "<function linspace_inside_xs_builder_builder.<locals>._inside_xs_builder at 0x7f115185f950>", "border_builder": "<function border_with_function_values_builder at 0x7f115165e830>", "equation_builder": "<function first_order_equation_builder_builder.<locals>.equation_builder at 0x7f115185f8c0>", "input_dim": 1, "output_dim": 3, "error_f": "<function <lambda> at 0x7f115185fb90>", "random_seed": 1, "N_f": 1000, "epochs": 2000, "clip_grad": 1, "learning_rate": 0.01, "model_builder": "NN[[10, 10, 10, 10, 10, 10, 10]]", "optimizers": [1, 1], "border_loss_multiplier": 1, "ode": "SODE3"}, "losses": [… "errors": [-1.0]}, "date": "10:10:32 09 May 2021"}
