{"payload": {"model": {"config": {"name": "model_21", "layers": [{"class_name": "InputLayer", "config": {"batch_input_shape": [null, 1], "dtype": "float64", "sparse": false, "ragged": false, "name": "input_22"}, "name": "input_22", "inbound_nodes": []}, {"class_name": "Lambda", "config": {"name": "lambda", "trainable": true, "dtype": "float64", "function": ["4wEAAAAAAAAAAQAAAAMAAAATAAAAcxAAAAB8AIgBGACIAIgBGAAbAFMAKQFOqQApAdoBeCkC2gV4\nX21heNoFeF9taW5yAQAAAHofPGlweXRob24taW5wdXQtNDUtMDc5OTJiNjIyODkyPtoIPGxhbWJk\nYT4JAQAA8wAAAAA=\n", null, [1, 0.1]], "function_type": "lambda", "module": "__main__", "output_shape": null, "output_shape_type": "raw", "output_shape_module": null, "arguments": {}}, "name": "lambda", "inbound_nodes": [[["input_22", 0, 0, {}]]]}, {"class_name": "Dense", "config": {"name": "dense_168", "trainable": true, "dtype": "float64", "units": 10, "activation": "tanh", "use_bias": true, "kernel_initializer": {"class_name": "GlorotUniform", "config": {"seed": null}}, "bias_initializer": {"class_name": "Zeros", "config": {}}, "kernel_regularizer": null, "bias_regularizer": null, "activity_regularizer": null, "kernel_constraint": null, "bias_constraint": null}, "name": "dense_168", "inbound_nodes": [[["lambda", 0, 0, {}]]]}, {"class_name": "Dense", "config": {"name": "dense_169", "trainable": true, "dtype": "float64", "units": 10, "activation": "tanh", "use_bias": true, "kernel_initializer": {"class_name": "GlorotUniform", "config": {"seed": null}}, "bias_initializer": {"class_name": "Zeros", "config": {}}, "kernel_regularizer": null, "bias_regularizer": null, "activity_regularizer": null, "kernel_constraint": null, "bias_constraint": null}, "name": "dense_169", "inbound_nodes": [[["dense_168", 0, 0, {}]]]}, {"class_name": "Dense", "config": {"name": "dense_170", "trainable": true, "dtype": "float64", "units": 10, "activation": "tanh", "use_bias": true, "kernel_initializer": {"class_name": "GlorotUniform", "config": {"seed": null}}, "bias_initializer": {"class_name": "Zeros", "config": {}}, "kernel_regularizer": null, "bias_regularizer": null, "activity_regularizer": null, "kernel_constraint": null, "bias_constraint": null}, "name": "dense_170", "inbound_nodes": [[["dense_169", 0, 0, {}]]]}, {"class_name": "Dense", "config": {"name": "dense_171", "trainable": true, "dtype": "float64", "units": 10, "activation": "tanh", "use_bias": true, "kernel_initializer": {"class_name": "GlorotUniform", "config": {"seed": null}}, "bias_initializer": {"class_name": "Zeros", "config": {}}, "kernel_regularizer": null, "bias_regularizer": null, "activity_regularizer": null, "kernel_constraint": null, "bias_constraint": null}, "name": "dense_171", "inbound_nodes": [[["dense_170", 0, 0, {}]]]}, {"class_name": "Dense", "config": {"name": "dense_172", "trainable": true, "dtype": "float64", "units": 10, "activation": "tanh", "use_bias": true, "kernel_initializer": {"class_name": "GlorotUniform", "config": {"seed": null}}, "bias_initializer": {"class_name": "Zeros", "config": {}}, "kernel_regularizer": null, "bias_regularizer": null, "activity_regularizer": null, "kernel_constraint": null, "bias_constraint": null}, "name": "dense_172", "inbound_nodes": [[["dense_171", 0, 0, {}]]]}, {"class_name": "Dense", "config": {"name": "dense_173", "trainable": true, "dtype": "float64", "units": 10, "activation": "tanh", "use_bias": true, "kernel_initializer": {"class_name": "GlorotUniform", "config": {"seed": null}}, "bias_initializer": {"class_name": "Zeros", "config": {}}, "kernel_regularizer": null, "bias_regularizer": null, "activity_regularizer": null, "kernel_constraint": null, "bias_constraint": null}, "name": "dense_173", "inbound_nodes": [[["dense_172", 0, 0, {}]]]}, {"class_name": "Dense", "config": {"name": "dense_174", "trainable": true, "dtype": "float64", "units": 10, "activation": "tanh", "use_bias": true, "kernel_initializer": {"class_name": "GlorotUniform", "config": {"seed": null}}, "bias_initializer": {"class_name": "Zeros", "config": {}}, "kernel_regularizer": null, "bias_regularizer": null, "activity_regularizer": null, "kernel_constraint": null, "bias_constraint": null}, "name": "dense_174", "inbound_nodes": [[["dense_173", 0, 0, {}]]]}, {"class_name": "Dense", "config": {"name": "dense_175", "trainable": true, "dtype": "float64", "units": 1, "activation": "linear", "use_bias": true, "kernel_initializer": {"class_name": "GlorotUniform", "config": {"seed": null}}, "bias_initializer": {"class_name": "Zeros", "config": {}}, "kernel_regularizer": null, "bias_regularizer": null, "activity_regularizer": null, "kernel_constraint": null, "bias_constraint": null}, "name": "dense_175", "inbound_nodes": [[["dense_174", 0, 0, {}]]]}], "input_layers": [["input_22", 0, 0]], "output_layers": [["dense_175", 0, 0]]}, "summary": ["Model: \"model_21\"", "_________________________________________________________________", "Layer (type)                 Output Shape              Param #   ", "=================================================================", "input_22 (InputLayer)        [(None, 1)]               0         ", "_________________________________________________________________", "lambda (Lambda)              (None, 1)                 0         ", "_________________________________________________________________", "dense_168 (Dense)            (None, 10)                20        ", "_________________________________________________________________", "dense_169 (Dense)            (None, 10)                110       ", "_________________________________________________________________", "dense_170 (Dense)            (None, 10)                110       ", "_________________________________________________________________", "dense_171 (Dense)            (None, 10)                110       ", "_________________________________________________________________", "dense_172 (Dense)            (None, 10)                110       ", "_________________________________________________________________", "dense_173 (Dense)            (None, 10)                110       ", "_________________________________________________________________", "dense_174 (Dense)            (None, 10)                110       ", "_________________________________________________________________", "dense_175 (Dense)            (None, 1)                 11        ", "=================================================================", "Total params: 691", "Trainable params: 691", "Non-trainable params: 0", "_________________________________________________________________"]}, "kwargs": {"border_xs": [[0.1]], "border_ys": [[20.1]], "inside_xs_builder": "<function linspace_inside_xs_builder_builder.<locals>._inside_xs_builder at 0x7f115026c710>", "border_builder": "<function border_with_function_values_builder at 0x7f11508430e0>", "equation_builder": "<function first_order_equation_builder_builder.<locals>.equation_builder at 0x7f115026c320>", "input_dim": 1, "output_dim": 1, "sol": "<function <lambda> at 0x7f115026c9e0>", "x_min": 0.1, "random_seed": 1, "N_f": 1000, "epochs": 2000, "clip_grad": 1, "learning_rate": 0.01, "model_builder": "NN[[10, 10, 10, 10, 10, 10, 10]]", "optimizers": [1, 1], "border_loss_multiplier": 1, "ode": "NL-ODE1"}, "losses": [… "errors": [1.6322782320036566e-08]}, "date": "10:47:11 09 May 2021"}
{"payload": {"model": {"config": {"name": "model_22", "layers": [{"class_name": "InputLayer", "config": {"batch_input_shape": [null, 1], "dtype": "float64", "sparse": false, "ragged": false, "name": "input_23"}, "name": "input_23", "inbound_nodes": []}, {"class_name": "Lambda", "config": {"name": "lambda_1", "trainable": true, "dtype": "float64", "function": ["4wEAAAAAAAAAAQAAAAMAAAATAAAAcxAAAAB8AIgBGACIAIgBGAAbAFMAKQFOqQApAdoBeCkC2gV4\nX21heNoFeF9taW5yAQAAAHofPGlweXRob24taW5wdXQtNDUtMDc5OTJiNjIyODkyPtoIPGxhbWJk\nYT4JAQAA8wAAAAA=\n", null, [1, 0.1]], "function_type": "lambda", "module": "__main__", "output_shape": null, "output_shape_type": "raw", "output_shape_module": null, "arguments": {}}, "name": "lambda_1", "inbound_nodes": [[["input_23", 0, 0, {}]]]}, {"class_name": "Dense", "config": {"name": "dense_176", "trainable": true, "dtype": "float64", "units": 10, "activation": "tanh", "use_bias": true, "kernel_initializer": {"class_name": "GlorotUniform", "config": {"seed": null}}, "bias_initializer": {"class_name": "Zeros", "config": {}}, "kernel_regularizer": null, "bias_regularizer": null, "activity_regularizer": null, "kernel_constraint": null, "bias_constraint": null}, "name": "dense_176", "inbound_nodes": [[["lambda_1", 0, 0, {}]]]}, {"class_name": "Dense", "config": {"name": "dense_177", "trainable": true, "dtype": "float64", "units": 10, "activation": "tanh", "use_bias": true, "kernel_initializer": {"class_name": "GlorotUniform", "config": {"seed": null}}, "bias_initializer": {"class_name": "Zeros", "config": {}}, "kernel_regularizer": null, "bias_regularizer": null, "activity_regularizer": null, "kernel_constraint": null, "bias_constraint": null}, "name": "dense_177", "inbound_nodes": [[["dense_176", 0, 0, {}]]]}, {"class_name": "Dense", "config": {"name": "dense_178", "trainable": true, "dtype": "float64", "units": 10, "activation": "tanh", "use_bias": true, "kernel_initializer": {"class_name": "GlorotUniform", "config": {"seed": null}}, "bias_initializer": {"class_name": "Zeros", "config": {}}, "kernel_regularizer": null, "bias_regularizer": null, "activity_regularizer": null, "kernel_constraint": null, "bias_constraint": null}, "name": "dense_178", "inbound_nodes": [[["dense_177", 0, 0, {}]]]}, {"class_name": "Dense", "config": {"name": "dense_179", "trainable": true, "dtype": "float64", "units": 10, "activation": "tanh", "use_bias": true, "kernel_initializer": {"class_name": "GlorotUniform", "config": {"seed": null}}, "bias_initializer": {"class_name": "Zeros", "config": {}}, "kernel_regularizer": null, "bias_regularizer": null, "activity_regularizer": null, "kernel_constraint": null, "bias_constraint": null}, "name": "dense_179", "inbound_nodes": [[["dense_178", 0, 0, {}]]]}, {"class_name": "Dense", "config": {"name": "dense_180", "trainable": true, "dtype": "float64", "units": 10, "activation": "tanh", "use_bias": true, "kernel_initializer": {"class_name": "GlorotUniform", "config": {"seed": null}}, "bias_initializer": {"class_name": "Zeros", "config": {}}, "kernel_regularizer": null, "bias_regularizer": null, "activity_regularizer": null, "kernel_constraint": null, "bias_constraint": null}, "name": "dense_180", "inbound_nodes": [[["dense_179", 0, 0, {}]]]}, {"class_name": "Dense", "config": {"name": "dense_181", "trainable": true, "dtype": "float64", "units": 10, "activation": "tanh", "use_bias": true, "kernel_initializer": {"class_name": "GlorotUniform", "config": {"seed": null}}, "bias_initializer": {"class_name": "Zeros", "config": {}}, "kernel_regularizer": null, "bias_regularizer": null, "activity_regularizer": null, "kernel_constraint": null, "bias_constraint": null}, "name": "dense_181", "inbound_nodes": [[["dense_180", 0, 0, {}]]]}, {"class_name": "Dense", "config": {"name": "dense_182", "trainable": true, "dtype": "float64", "units": 10, "activation": "tanh", "use_bias": true, "kernel_initializer": {"class_name": "GlorotUniform", "config": {"seed": null}}, "bias_initializer": {"class_name": "Zeros", "config": {}}, "kernel_regularizer": null, "bias_regularizer": null, "activity_regularizer": null, "kernel_constraint": null, "bias_constraint": null}, "name": "dense_182", "inbound_nodes": [[["dense_181", 0, 0, {}]]]}, {"class_name": "Dense", "config": {"name": "dense_183", "trainable": true, "dtype": "float64", "units": 1, "activation": "linear", "use_bias": true, "kernel_initializer": {"class_name": "GlorotUniform", "config": {"seed": null}}, "bias_initializer": {"class_name": "Zeros", "config": {}}, "kernel_regularizer": null, "bias_regularizer": null, "activity_regularizer": null, "kernel_constraint": null, "bias_constraint": null}, "name": "dense_183", "inbound_nodes": [[["dense_182", 0, 0, {}]]]}], "input_layers": [["input_23", 0, 0]], "output_layers": [["dense_183", 0, 0]]}, "summary": ["Model: \"model_22\"", "_________________________________________________________________", "Layer (type)                 Output Shape              Param #   ", "=================================================================", "input_23 (InputLayer)        [(None, 1)]               0         ", "_________________________________________________________________", "lambda_1 (Lambda)            (None, 1)                 0         ", "_________________________________________________________________", "dense_176 (Dense)            (None, 10)                20        ", "_________________________________________________________________", "dense_177 (Dense)            (None, 10)                110       ", "_________________________________________________________________", "dense_178 (Dense)            (None, 10)                110       ", "_________________________________________________________________", "dense_179 (Dense)            (None, 10)                110       ", "_________________________________________________________________", "dense_180 (Dense)            (None, 10)                110       ", "_________________________________________________________________", "dense_181 (Dense)            (None, 10)                110       ", "_________________________________________________________________", "dense_182 (Dense)            (None, 10)                110       ", "_________________________________________________________________", "dense_183 (Dense)            (None, 1)                 11        ", "=================================================================", "Total params: 691", "Trainable params: 691", "Non-trainable params: 0", "_________________________________________________________________"]}, "kwargs": {"border_xs": [[0.1]], "border_ys": [[20.1]], "inside_xs_builder": "<function linspace_inside_xs_builder_builder.<locals>._inside_xs_builder at 0x7f115026c7a0>", "border_builder": "<function border_with_function_values_builder at 0x7f11508430e0>", "equation_builder": "<function first_order_equation_builder_builder.<locals>.equation_builder at 0x7f115026cb00>", "input_dim": 1, "output_dim": 1, "sol": "<function <lambda> at 0x7f115026c4d0>", "x_min": 0.1, "random_seed": 1, "N_f": 1000, "epochs": 2000, "clip_grad": 1, "learning_rate": 0.01, "model_builder": "NN[[10, 10, 10, 10, 10, 10, 10]]", "optimizers": [1, 1], "border_loss_multiplier": 1, "ode": "NL-ODE2"}, "losses": [… "errors": [3.671169539544275e-08]}, "date": "10:48:14 09 May 2021"}
{"payload": {"model": {"config": {"name": "model_23", "layers": [{"class_name": "InputLayer", "config": {"batch_input_shape": [null, 1], "dtype": "float64", "sparse": false, "ragged": false, "name": "input_24"}, "name": "input_24", "inbound_nodes": []}, {"class_name": "Lambda", "config": {"name": "lambda_2", "trainable": true, "dtype": "float64", "function": ["4wEAAAAAAAAAAQAAAAMAAAATAAAAcxAAAAB8AIgBGACIAIgBGAAbAFMAKQFOqQApAdoBeCkC2gV4\nX21heNoFeF9taW5yAQAAAHofPGlweXRob24taW5wdXQtNDUtMDc5OTJiNjIyODkyPtoIPGxhbWJk\nYT4JAQAA8wAAAAA=\n", null, [1, 0.1]], "function_type": "lambda", "module": "__main__", "output_shape": null, "output_shape_type": "raw", "output_shape_module": null, "arguments": {}}, "name": "lambda_2", "inbound_nodes": [[["input_24", 0, 0, {}]]]}, {"class_name": "Dense", "config": {"name": "dense_184", "trainable": true, "dtype": "float64", "units": 10, "activation": "tanh", "use_bias": true, "kernel_initializer": {"class_name": "GlorotUniform", "config": {"seed": null}}, "bias_initializer": {"class_name": "Zeros", "config": {}}, "kernel_regularizer": null, "bias_regularizer": null, "activity_regularizer": null, "kernel_constraint": null, "bias_constraint": null}, "name": "dense_184", "inbound_nodes": [[["lambda_2", 0, 0, {}]]]}, {"class_name": "Dense", "config": {"name": "dense_185", "trainable": true, "dtype": "float64", "units": 10, "activation": "tanh", "use_bias": true, "kernel_initializer": {"class_name": "GlorotUniform", "config": {"seed": null}}, "bias_initializer": {"class_name": "Zeros", "config": {}}, "kernel_regularizer": null, "bias_regularizer": null, "activity_regularizer": null, "kernel_constraint": null, "bias_constraint": null}, "name": "dense_185", "inbound_nodes": [[["dense_184", 0, 0, {}]]]}, {"class_name": "Dense", "config": {"name": "dense_186", "trainable": true, "dtype": "float64", "units": 10, "activation": "tanh", "use_bias": true, "kernel_initializer": {"class_name": "GlorotUniform", "config": {"seed": null}}, "bias_initializer": {"class_name": "Zeros", "config": {}}, "kernel_regularizer": null, "bias_regularizer": null, "activity_regularizer": null, "kernel_constraint": null, "bias_constraint": null}, "name": "dense_186", "inbound_nodes": [[["dense_185", 0, 0, {}]]]}, {"class_name": "Dense", "config": {"name": "dense_187", "trainable": true, "dtype": "float64", "units": 10, "activation": "tanh", "use_bias": true, "kernel_initializer": {"class_name": "GlorotUniform", "config": {"seed": null}}, "bias_initializer": {"class_name": "Zeros", "config": {}}, "kernel_regularizer": null, "bias_regularizer": null, "activity_regularizer": null, "kernel_constraint": null, "bias_constraint": null}, "name": "dense_187", "inbound_nodes": [[["dense_186", 0, 0, {}]]]}, {"class_name": "Dense", "config": {"name": "dense_188", "trainable": true, "dtype": "float64", "units": 10, "activation": "tanh", "use_bias": true, "kernel_initializer": {"class_name": "GlorotUniform", "config": {"seed": null}}, "bias_initializer": {"class_name": "Zeros", "config": {}}, "kernel_regularizer": null, "bias_regularizer": null, "activity_regularizer": null, "kernel_constraint": null, "bias_constraint": null}, "name": "dense_188", "inbound_nodes": [[["dense_187", 0, 0, {}]]]}, {"class_name": "Dense", "config": {"name": "dense_189", "trainable": true, "dtype": "float64", "units": 10, "activation": "tanh", "use_bias": true, "kernel_initializer": {"class_name": "GlorotUniform", "config": {"seed": null}}, "bias_initializer": {"class_name": "Zeros", "config": {}}, "kernel_regularizer": null, "bias_regularizer": null, "activity_regularizer": null, "kernel_constraint": null, "bias_constraint": null}, "name": "dense_189", "inbound_nodes": [[["dense_188", 0, 0, {}]]]}, {"class_name": "Dense", "config": {"name": "dense_190", "trainable": true, "dtype": "float64", "units": 10, "activation": "tanh", "use_bias": true, "kernel_initializer": {"class_name": "GlorotUniform", "config": {"seed": null}}, "bias_initializer": {"class_name": "Zeros", "config": {}}, "kernel_regularizer": null, "bias_regularizer": null, "activity_regularizer": null, "kernel_constraint": null, "bias_constraint": null}, "name": "dense_190", "inbound_nodes": [[["dense_189", 0, 0, {}]]]}, {"class_name": "Dense", "config": {"name": "dense_191", "trainable": true, "dtype": "float64", "units": 1, "activation": "linear", "use_bias": true, "kernel_initializer": {"class_name": "GlorotUniform", "config": {"seed": null}}, "bias_initializer": {"class_name": "Zeros", "config": {}}, "kernel_regularizer": null, "bias_regularizer": null, "activity_regularizer": null, "kernel_constraint": null, "bias_constraint": null}, "name": "dense_191", "inbound_nodes": [[["dense_190", 0, 0, {}]]]}], "input_layers": [["input_24", 0, 0]], "output_layers": [["dense_191", 0, 0]]}, "summary": ["Model: \"model_23\"", "_________________________________________________________________", "Layer (type)                 Output Shape              Param #   ", "=================================================================", "input_24 (InputLayer)        [(None, 1)]               0         ", "_________________________________________________________________", "lambda_2 (Lambda)            (None, 1)                 0         ", "_________________________________________________________________", "dense_184 (Dense)            (None, 10)                20        ", "_________________________________________________________________", "dense_185 (Dense)            (None, 10)                110       ", "_________________________________________________________________", "dense_186 (Dense)            (None, 10)                110       ", "_________________________________________________________________", "dense_187 (Dense)            (None, 10)                110       ", "_________________________________________________________________", "dense_188 (Dense)            (None, 10)                110       ", "_________________________________________________________________", "dense_189 (Dense)            (None, 10)                110       ", "_________________________________________________________________", "dense_190 (Dense)            (None, 10)                110       ", "_________________________________________________________________", "dense_191 (Dense)            (None, 1)                 11        ", "=================================================================", "Total params: 691", "Trainable params: 691", "Non-trainable params: 0", "_________________________________________________________________"]}, "kwargs": {"border_xs": [[0.1]], "border_ys": [[21.03504087643303]], "inside_xs_builder": "<function linspace_inside_xs_builder_builder.<locals>._inside_xs_builder at 0x7f115026c830>", "border_builder": "<function border_with_function_values_builder at 0x7f11508430e0>", "equation_builder": "<function first_order_equation_builder_builder.<locals>.equation_builder at 0x7f1151466680>", "input_dim": 1, "output_dim": 1, "sol": "<function <lambda> at 0x7f1151466830>", "x_min": 0.1, "random_seed": 1, "N_f": 1000, "epochs": 2000, "clip_grad": 1, "learning_rate": 0.01, "model_builder": "NN[[10, 10, 10, 10, 10, 10, 10]]", "optimizers": [1, 1], "border_loss_multiplier": 1, "ode": "NL-ODE3"}, "losses": [… "errors": [2.217693703350794e-08]}, "date": "10:51:28 09 May 2021"}
{"payload": {"model": {"config": {"name": "model_24", "layers": [{"class_name": "InputLayer", "config": {"batch_input_shape": [null, 1], "dtype": "float64", "sparse": false, "ragged": false, "name": "input_25"}, "name": "input_25", "inbound_nodes": []}, {"class_name": "Lambda", "config": {"name": "lambda_3", "trainable": true, "dtype": "float64", "function": ["4wEAAAAAAAAAAQAAAAMAAAATAAAAcxAAAAB8AIgBGACIAIgBGAAbAFMAKQFOqQApAdoBeCkC2gV4\nX21heNoFeF9taW5yAQAAAHofPGlweXRob24taW5wdXQtNDUtMDc5OTJiNjIyODkyPtoIPGxhbWJk\nYT4JAQAA8wAAAAA=\n", null, [1, 0.1]], "function_type": "lambda", "module": "__main__", "output_shape": null, "output_shape_type": "raw", "output_shape_module": null, "arguments": {}}, "name": "lambda_3", "inbound_nodes": [[["input_25", 0, 0, {}]]]}, {"class_name": "Dense", "config": {"name": "dense_192", "trainable": true, "dtype": "float64", "units": 10, "activation": "tanh", "use_bias": true, "kernel_initializer": {"class_name": "GlorotUniform", "config": {"seed": null}}, "bias_initializer": {"class_name": "Zeros", "config": {}}, "kernel_regularizer": null, "bias_regularizer": null, "activity_regularizer": null, "kernel_constraint": null, "bias_constraint": null}, "name": "dense_192", "inbound_nodes": [[["lambda_3", 0, 0, {}]]]}, {"class_name": "Dense", "config": {"name": "dense_193", "trainable": true, "dtype": "float64", "units": 10, "activation": "tanh", "use_bias": true, "kernel_initializer": {"class_name": "GlorotUniform", "config": {"seed": null}}, "bias_initializer": {"class_name": "Zeros", "config": {}}, "kernel_regularizer": null, "bias_regularizer": null, "activity_regularizer": null, "kernel_constraint": null, "bias_constraint": null}, "name": "dense_193", "inbound_nodes": [[["dense_192", 0, 0, {}]]]}, {"class_name": "Dense", "config": {"name": "dense_194", "trainable": true, "dtype": "float64", "units": 10, "activation": "tanh", "use_bias": true, "kernel_initializer": {"class_name": "GlorotUniform", "config": {"seed": null}}, "bias_initializer": {"class_name": "Zeros", "config": {}}, "kernel_regularizer": null, "bias_regularizer": null, "activity_regularizer": null, "kernel_constraint": null, "bias_constraint": null}, "name": "dense_194", "inbound_nodes": [[["dense_193", 0, 0, {}]]]}, {"class_name": "Dense", "config": {"name": "dense_195", "trainable": true, "dtype": "float64", "units": 10, "activation": "tanh", "use_bias": true, "kernel_initializer": {"class_name": "GlorotUniform", "config": {"seed": null}}, "bias_initializer": {"class_name": "Zeros", "config": {}}, "kernel_regularizer": null, "bias_regularizer": null, "activity_regularizer": null, "kernel_constraint": null, "bias_constraint": null}, "name": "dense_195", "inbound_nodes": [[["dense_194", 0, 0, {}]]]}, {"class_name": "Dense", "config": {"name": "dense_196", "trainable": true, "dtype": "float64", "units": 10, "activation": "tanh", "use_bias": true, "kernel_initializer": {"class_name": "GlorotUniform", "config": {"seed": null}}, "bias_initializer": {"class_name": "Zeros", "config": {}}, "kernel_regularizer": null, "bias_regularizer": null, "activity_regularizer": null, "kernel_constraint": null, "bias_constraint": null}, "name": "dense_196", "inbound_nodes": [[["dense_195", 0, 0, {}]]]}, {"class_name": "Dense", "config": {"name": "dense_197", "trainable": true, "dtype": "float64", "units": 10, "activation": "tanh", "use_bias": true, "kernel_initializer": {"class_name": "GlorotUniform", "config": {"seed": null}}, "bias_initializer": {"class_name": "Zeros", "config": {}}, "kernel_regularizer": null, "bias_regularizer": null, "activity_regularizer": null, "kernel_constraint": null, "bias_constraint": null}, "name": "dense_197", "inbound_nodes": [[["dense_196", 0, 0, {}]]]}, {"class_name": "Dense", "config": {"name": "dense_198", "trainable": true, "dtype": "float64", "units": 10, "activation": "tanh", "use_bias": true, "kernel_initializer": {"class_name": "GlorotUniform", "config": {"seed": null}}, "bias_initializer": {"class_name": "Zeros", "config": {}}, "kernel_regularizer": null, "bias_regularizer": null, "activity_regularizer": null, "kernel_constraint": null, "bias_constraint": null}, "name": "dense_198", "inbound_nodes": [[["dense_197", 0, 0, {}]]]}, {"class_name": "Dense", "config": {"name": "dense_199", "trainable": true, "dtype": "float64", "units": 1, "activation": "linear", "use_bias": true, "kernel_initializer": {"class_name": "GlorotUniform", "config": {"seed": null}}, "bias_initializer": {"class_name": "Zeros", "config": {}}, "kernel_regularizer": null, "bias_regularizer": null, "activity_regularizer": null, "kernel_constraint": null, "bias_constraint": null}, "name": "dense_199", "inbound_nodes": [[["dense_198", 0, 0, {}]]]}], "input_layers": [["input_25", 0, 0]], "output_layers": [["dense_199", 0, 0]]}, "summary": ["Model: \"model_24\"", "_________________________________________________________________", "Layer (type)                 Output Shape              Param #   ", "=================================================================", "input_25 (InputLayer)        [(None, 1)]               0         ", "_________________________________________________________________", "lambda_3 (Lambda)            (None, 1)                 0         ", "_________________________________________________________________", "dense_192 (Dense)            (None, 10)                20        ", "_________________________________________________________________", "dense_193 (Dense)            (None, 10)                110       ", "_________________________________________________________________", "dense_194 (Dense)            (None, 10)                110       ", "_________________________________________________________________", "dense_195 (Dense)            (None, 10)                110       ", "_________________________________________________________________", "dense_196 (Dense)            (None, 10)                110       ", "_________________________________________________________________", "dense_197 (Dense)            (None, 10)                110       ", "_________________________________________________________________", "dense_198 (Dense)            (None, 10)                110       ", "_________________________________________________________________", "dense_199 (Dense)            (None, 1)                 11        ", "=================================================================", "Total params: 691", "Trainable params: 691", "Non-trainable params: 0", "_________________________________________________________________"]}, "kwargs": {"border_xs": [[0.1]], "border_ys": [[21.03504087643303]], "inside_xs_builder": "<function linspace_inside_xs_builder_builder.<locals>._inside_xs_builder at 0x7f1150f330e0>", "border_builder": "<function border_with_function_values_builder at 0x7f114fbb6b90>", "equation_builder": "<function first_order_equation_builder_builder.<locals>.equation_builder at 0x7f1150f334d0>", "input_dim": 1, "output_dim": 1, "sol": "<function <lambda> at 0x7f1150f33290>", "x_min": 0.1, "random_seed": 1, "N_f": 1000, "epochs": 2000, "clip_grad": 1, "learning_rate": 0.01, "model_builder": "NN[[10, 10, 10, 10, 10, 10, 10]]", "optimizers": [1, 1], "border_loss_multiplier": 1, "ode": "NL-ODE4"}, "losses": [… "errors": [9.215865030073268e-08]}, "date": "11:01:31 09 May 2021"}
{"payload": {"model": {"config": {"name": "model_25", "layers": [{"class_name": "InputLayer", "config": {"batch_input_shape": [null, 1], "dtype": "float64", "sparse": false, "ragged": false, "name": "input_26"}, "name": "input_26", "inbound_nodes": []}, {"class_name": "Lambda", "config": {"name": "lambda_4", "trainable": true, "dtype": "float64", "function": ["4wEAAAAAAAAAAQAAAAMAAAATAAAAcxAAAAB8AIgBGACIAIgBGAAbAFMAKQFOqQApAdoBeCkC2gV4\nX21heNoFeF9taW5yAQAAAPofPGlweXRob24taW5wdXQtNDUtMDc5OTJiNjIyODkyPtoIPGxhbWJk\nYT4JAQAA8wAAAAA=\n", null, [1, 0.1]], "function_type": "lambda", "module": "__main__", "output_shape": null, "output_shape_type": "raw", "output_shape_module": null, "arguments": {}}, "name": "lambda_4", "inbound_nodes": [[["input_26", 0, 0, {}]]]}, {"class_name": "Dense", "config": {"name": "dense_200", "trainable": true, "dtype": "float64", "units": 10, "activation": "tanh", "use_bias": true, "kernel_initializer": {"class_name": "GlorotUniform", "config": {"seed": null}}, "bias_initializer": {"class_name": "Zeros", "config": {}}, "kernel_regularizer": null, "bias_regularizer": null, "activity_regularizer": null, "kernel_constraint": null, "bias_constraint": null}, "name": "dense_200", "inbound_nodes": [[["lambda_4", 0, 0, {}]]]}, {"class_name": "Dense", "config": {"name": "dense_201", "trainable": true, "dtype": "float64", "units": 10, "activation": "tanh", "use_bias": true, "kernel_initializer": {"class_name": "GlorotUniform", "config": {"seed": null}}, "bias_initializer": {"class_name": "Zeros", "config": {}}, "kernel_regularizer": null, "bias_regularizer": null, "activity_regularizer": null, "kernel_constraint": null, "bias_constraint": null}, "name": "dense_201", "inbound_nodes": [[["dense_200", 0, 0, {}]]]}, {"class_name": "Dense", "config": {"name": "dense_202", "trainable": true, "dtype": "float64", "units": 10, "activation": "tanh", "use_bias": true, "kernel_initializer": {"class_name": "GlorotUniform", "config": {"seed": null}}, "bias_initializer": {"class_name": "Zeros", "config": {}}, "kernel_regularizer": null, "bias_regularizer": null, "activity_regularizer": null, "kernel_constraint": null, "bias_constraint": null}, "name": "dense_202", "inbound_nodes": [[["dense_201", 0, 0, {}]]]}, {"class_name": "Dense", "config": {"name": "dense_203", "trainable": true, "dtype": "float64", "units": 10, "activation": "tanh", "use_bias": true, "kernel_initializer": {"class_name": "GlorotUniform", "config": {"seed": null}}, "bias_initializer": {"class_name": "Zeros", "config": {}}, "kernel_regularizer": null, "bias_regularizer": null, "activity_regularizer": null, "kernel_constraint": null, "bias_constraint": null}, "name": "dense_203", "inbound_nodes": [[["dense_202", 0, 0, {}]]]}, {"class_name": "Dense", "config": {"name": "dense_204", "trainable": true, "dtype": "float64", "units": 10, "activation": "tanh", "use_bias": true, "kernel_initializer": {"class_name": "GlorotUniform", "config": {"seed": null}}, "bias_initializer": {"class_name": "Zeros", "config": {}}, "kernel_regularizer": null, "bias_regularizer": null, "activity_regularizer": null, "kernel_constraint": null, "bias_constraint": null}, "name": "dense_204", "inbound_nodes": [[["dense_203", 0, 0, {}]]]}, {"class_name": "Dense", "config": {"name": "dense_205", "trainable": true, "dtype": "float64", "units": 10, "activation": "tanh", "use_bias": true, "kernel_initializer": {"class_name": "GlorotUniform", "config": {"seed": null}}, "bias_initializer": {"class_name": "Zeros", "config": {}}, "kernel_regularizer": null, "bias_regularizer": null, "activity_regularizer": null, "kernel_constraint": null, "bias_constraint": null}, "name": "dense_205", "inbound_nodes": [[["dense_204", 0, 0, {}]]]}, {"class_name": "Dense", "config": {"name": "dense_206", "trainable": true, "dtype": "float64", "units": 10, "activation": "tanh", "use_bias": true, "kernel_initializer": {"class_name": "GlorotUniform", "config": {"seed": null}}, "bias_initializer": {"class_name": "Zeros", "config": {}}, "kernel_regularizer": null, "bias_regularizer": null, "activity_regularizer": null, "kernel_constraint": null, "bias_constraint": null}, "name": "dense_206", "inbound_nodes": [[["dense_205", 0, 0, {}]]]}, {"class_name": "Dense", "config": {"name": "dense_207", "trainable": true, "dtype": "float64", "units": 1, "activation": "linear", "use_bias": true, "kernel_initializer": {"class_name": "GlorotUniform", "config": {"seed": null}}, "bias_initializer": {"class_name": "Zeros", "config": {}}, "kernel_regularizer": null, "bias_regularizer": null, "activity_regularizer": null, "kernel_constraint": null, "bias_constraint": null}, "name": "dense_207", "inbound_nodes": [[["dense_206", 0, 0, {}]]]}], "input_layers": [["input_26", 0, 0]], "output_layers": [["dense_207", 0, 0]]}, "summary": ["Model: \"model_25\"", "_________________________________________________________________", "Layer (type)                 Output Shape              Param #   ", "=================================================================", "input_26 (InputLayer)        [(None, 1)]               0         ", "_________________________________________________________________", "lambda_4 (Lambda)            (None, 1)                 0         ", "_________________________________________________________________", "dense_200 (Dense)            (None, 10)                20        ", "_________________________________________________________________", "dense_201 (Dense)            (None, 10)                110       ", "_________________________________________________________________", "dense_202 (Dense)            (None, 10)                110       ", "_________________________________________________________________", "dense_203 (Dense)            (None, 10)                110       ", "_________________________________________________________________", "dense_204 (Dense)            (None, 10)                110       ", "_________________________________________________________________", "dense_205 (Dense)            (None, 10)                110       ", "_________________________________________________________________", "dense_206 (Dense)            (None, 10)                110       ", "_________________________________________________________________", "dense_207 (Dense)            (None, 1)                 11        ", "=================================================================", "Total params: 691", "Trainable params: 691", "Non-trainable params: 0", "_________________________________________________________________"]}, "kwargs": {"border_xs": [[1.0]], "border_ys": [[1.0], [0.0]], "inside_xs_builder": "<function linspace_inside_xs_builder_builder.<locals>._inside_xs_builder at 0x7f1150f333b0>", "border_builder": "<function border_builder at 0x7f115921a200>", "equation_builder": "<function second_order_equation_builder_builder.<locals>.equation_builder at 0x7f1150f33560>", "input_dim": 1, "output_dim": 1, "sol": "<function <lambda> at 0x7f1150f33950>", "x_min": 0.1, "random_seed": 1, "N_f": 1000, "epochs": 2000, "clip_grad": 1, "learning_rate": 0.01, "model_builder": "NN[[10, 10, 10, 10, 10, 10, 10]]", "optimizers": [1, 1], "border_loss_multiplier": 1, "ode": "NL-ODEn1"}, "losses": [… "errors": [3.5285087957381423e-10]}, "date": "11:02:35 09 May 2021"}
{"payload": {"model": {"config": {"name": "model_26", "layers": [{"class_name": "InputLayer", "config": {"batch_input_shape": [null, 1], "dtype": "float64", "sparse": false, "ragged": false, "name": "input_27"}, "name": "input_27", "inbound_nodes": []}, {"class_name": "Lambda", "config": {"name": "lambda_5", "trainable": true, "dtype": "float64", "function": ["4wEAAAAAAAAAAQAAAAMAAAATAAAAcxAAAAB8AIgBGACIAIgBGAAbAFMAKQFOqQApAdoBeCkC2gV4\nX21heNoFeF9taW5yAQAAAHofPGlweXRob24taW5wdXQtNDUtMDc5OTJiNjIyODkyPtoIPGxhbWJk\nYT4JAQAA8wAAAAA=\n", null, [1, 0.1]], "function_type": "lambda", "module": "__main__", "output_shape": null, "output_shape_type": "raw", "output_shape_module": null, "arguments": {}}, "name": "lambda_5", "inbound_nodes": [[["input_27", 0, 0, {}]]]}, {"class_name": "Dense", "config": {"name": "dense_208", "trainable": true, "dtype": "float64", "units": 10, "activation": "tanh", "use_bias": true, "kernel_initializer": {"class_name": "GlorotUniform", "config": {"seed": null}}, "bias_initializer": {"class_name": "Zeros", "config": {}}, "kernel_regularizer": null, "bias_regularizer": null, "activity_regularizer": null, "kernel_constraint": null, "bias_constraint": null}, "name": "dense_208", "inbound_nodes": [[["lambda_5", 0, 0, {}]]]}, {"class_name": "Dense", "config": {"name": "dense_209", "trainable": true, "dtype": "float64", "units": 10, "activation": "tanh", "use_bias": true, "kernel_initializer": {"class_name": "GlorotUniform", "config": {"seed": null}}, "bias_initializer": {"class_name": "Zeros", "config": {}}, "kernel_regularizer": null, "bias_regularizer": null, "activity_regularizer": null, "kernel_constraint": null, "bias_constraint": null}, "name": "dense_209", "inbound_nodes": [[["dense_208", 0, 0, {}]]]}, {"class_name": "Dense", "config": {"name": "dense_210", "trainable": true, "dtype": "float64", "units": 10, "activation": "tanh", "use_bias": true, "kernel_initializer": {"class_name": "GlorotUniform", "config": {"seed": null}}, "bias_initializer": {"class_name": "Zeros", "config": {}}, "kernel_regularizer": null, "bias_regularizer": null, "activity_regularizer": null, "kernel_constraint": null, "bias_constraint": null}, "name": "dense_210", "inbound_nodes": [[["dense_209", 0, 0, {}]]]}, {"class_name": "Dense", "config": {"name": "dense_211", "trainable": true, "dtype": "float64", "units": 10, "activation": "tanh", "use_bias": true, "kernel_initializer": {"class_name": "GlorotUniform", "config": {"seed": null}}, "bias_initializer": {"class_name": "Zeros", "config": {}}, "kernel_regularizer": null, "bias_regularizer": null, "activity_regularizer": null, "kernel_constraint": null, "bias_constraint": null}, "name": "dense_211", "inbound_nodes": [[["dense_210", 0, 0, {}]]]}, {"class_name": "Dense", "config": {"name": "dense_212", "trainable": true, "dtype": "float64", "units": 10, "activation": "tanh", "use_bias": true, "kernel_initializer": {"class_name": "GlorotUniform", "config": {"seed": null}}, "bias_initializer": {"class_name": "Zeros", "config": {}}, "kernel_regularizer": null, "bias_regularizer": null, "activity_regularizer": null, "kernel_constraint": null, "bias_constraint": null}, "name": "dense_212", "inbound_nodes": [[["dense_211", 0, 0, {}]]]}, {"class_name": "Dense", "config": {"name": "dense_213", "trainable": true, "dtype": "float64", "units": 10, "activation": "tanh", "use_bias": true, "kernel_initializer": {"class_name": "GlorotUniform", "config": {"seed": null}}, "bias_initializer": {"class_name": "Zeros", "config": {}}, "kernel_regularizer": null, "bias_regularizer": null, "activity_regularizer": null, "kernel_constraint": null, "bias_constraint": null}, "name": "dense_213", "inbound_nodes": [[["dense_212", 0, 0, {}]]]}, {"class_name": "Dense", "config": {"name": "dense_214", "trainable": true, "dtype": "float64", "units": 10, "activation": "tanh", "use_bias": true, "kernel_initializer": {"class_name": "GlorotUniform", "config": {"seed": null}}, "bias_initializer": {"class_name": "Zeros", "config": {}}, "kernel_regularizer": null, "bias_regularizer": null, "activity_regularizer": null, "kernel_constraint": null, "bias_constraint": null}, "name": "dense_214", "inbound_nodes": [[["dense_213", 0, 0, {}]]]}, {"class_name": "Dense", "config": {"name": "dense_215", "trainable": true, "dtype": "float64", "units": 1, "activation": "linear", "use_bias": true, "kernel_initializer": {"class_name": "GlorotUniform", "config": {"seed": null}}, "bias_initializer": {"class_name": "Zeros", "config": {}}, "kernel_regularizer": null, "bias_regularizer": null, "activity_regularizer": null, "kernel_constraint": null, "bias_constraint": null}, "name": "dense_215", "inbound_nodes": [[["dense_214", 0, 0, {}]]]}], "input_layers": [["input_27", 0, 0]], "output_layers": [["dense_215", 0, 0]]}, "summary": ["Model: \"model_26\"", "_________________________________________________________________", "Layer (type)                 Output Shape              Param #   ", "=================================================================", "input_27 (InputLayer)        [(None, 1)]               0         ", "_________________________________________________________________", "lambda_5 (Lambda)            (None, 1)                 0         ", "_________________________________________________________________", "dense_208 (Dense)            (None, 10)                20        ", "_________________________________________________________________", "dense_209 (Dense)            (None, 10)                110       ", "_________________________________________________________________", "dense_210 (Dense)            (None, 10)                110       ", "_________________________________________________________________", "dense_211 (Dense)            (None, 10)                110       ", "_________________________________________________________________", "dense_212 (Dense)            (None, 10)                110       ", "_________________________________________________________________", "dense_213 (Dense)            (None, 10)                110       ", "_________________________________________________________________", "dense_214 (Dense)            (None, 10)                110       ", "_________________________________________________________________", "dense_215 (Dense)            (None, 1)                 11        ", "=================================================================", "Total params: 691", "Trainable params: 691", "Non-trainable params: 0", "_________________________________________________________________"]}, "kwargs": {"border_xs": [[1.0]], "border_ys": [[0.0], [3.0]], "inside_xs_builder": "<function linspace_inside_xs_builder_builder.<locals>._inside_xs_builder at 0x7f1150f33170>", "border_builder": "<function border_builder at 0x7f115921a200>", "equation_builder": "<function second_order_equation_builder_builder.<locals>.equation_builder at 0x7f1150f33b00>", "input_dim": 1, "output_dim": 1, "sol": "<function <lambda> at 0x7f1150f337a0>", "x_min": 0.1, "random_seed": 1, "N_f": 1000, "epochs": 2000, "clip_grad": 1, "learning_rate": 0.01, "model_builder": "NN[[10, 10, 10, 10, 10, 10, 10]]", "optimizers": [1, 1], "border_loss_multiplier": 1, "ode": "NL-ODEn2"}, "losses": [… "errors": [9.747212193336772e-09]}, "date": "11:03:42 09 May 2021"}
{"payload": {"model": {"config": {"name": "model_27", "layers": [{"class_name": "InputLayer", "config": {"batch_input_shape": [null, 1], "dtype": "float64", "sparse": false, "ragged": false, "name": "input_28"}, "name": "input_28", "inbound_nodes": []}, {"class_name": "Lambda", "config": {"name": "lambda_6", "trainable": true, "dtype": "float64", "function": ["4wEAAAAAAAAAAQAAAAMAAAATAAAAcxAAAAB8AIgBGACIAIgBGAAbAFMAKQFOqQApAdoBeCkC2gV4\nX21heNoFeF9taW5yAQAAAHofPGlweXRob24taW5wdXQtNDUtMDc5OTJiNjIyODkyPtoIPGxhbWJk\nYT4JAQAA8wAAAAA=\n", null, [3.141592653589793, 0]], "function_type": "lambda", "module": "__main__", "output_shape": null, "output_shape_type": "raw", "output_shape_module": null, "arguments": {}}, "name": "lambda_6", "inbound_nodes": [[["input_28", 0, 0, {}]]]}, {"class_name": "Dense", "config": {"name": "dense_216", "trainable": true, "dtype": "float64", "units": 10, "activation": "tanh", "use_bias": true, "kernel_initializer": {"class_name": "GlorotUniform", "config": {"seed": null}}, "bias_initializer": {"class_name": "Zeros", "config": {}}, "kernel_regularizer": null, "bias_regularizer": null, "activity_regularizer": null, "kernel_constraint": null, "bias_constraint": null}, "name": "dense_216", "inbound_nodes": [[["lambda_6", 0, 0, {}]]]}, {"class_name": "Dense", "config": {"name": "dense_217", "trainable": true, "dtype": "float64", "units": 10, "activation": "tanh", "use_bias": true, "kernel_initializer": {"class_name": "GlorotUniform", "config": {"seed": null}}, "bias_initializer": {"class_name": "Zeros", "config": {}}, "kernel_regularizer": null, "bias_regularizer": null, "activity_regularizer": null, "kernel_constraint": null, "bias_constraint": null}, "name": "dense_217", "inbound_nodes": [[["dense_216", 0, 0, {}]]]}, {"class_name": "Dense", "config": {"name": "dense_218", "trainable": true, "dtype": "float64", "units": 10, "activation": "tanh", "use_bias": true, "kernel_initializer": {"class_name": "GlorotUniform", "config": {"seed": null}}, "bias_initializer": {"class_name": "Zeros", "config": {}}, "kernel_regularizer": null, "bias_regularizer": null, "activity_regularizer": null, "kernel_constraint": null, "bias_constraint": null}, "name": "dense_218", "inbound_nodes": [[["dense_217", 0, 0, {}]]]}, {"class_name": "Dense", "config": {"name": "dense_219", "trainable": true, "dtype": "float64", "units": 10, "activation": "tanh", "use_bias": true, "kernel_initializer": {"class_name": "GlorotUniform", "config": {"seed": null}}, "bias_initializer": {"class_name": "Zeros", "config": {}}, "kernel_regularizer": null, "bias_regularizer": null, "activity_regularizer": null, "kernel_constraint": null, "bias_constraint": null}, "name": "dense_219", "inbound_nodes": [[["dense_218", 0, 0, {}]]]}, {"class_name": "Dense", "config": {"name": "dense_220", "trainable": true, "dtype": "float64", "units": 10, "activation": "tanh", "use_bias": true, "kernel_initializer": {"class_name": "GlorotUniform", "config": {"seed": null}}, "bias_initializer": {"class_name": "Zeros", "config": {}}, "kernel_regularizer": null, "bias_regularizer": null, "activity_regularizer": null, "kernel_constraint": null, "bias_constraint": null}, "name": "dense_220", "inbound_nodes": [[["dense_219", 0, 0, {}]]]}, {"class_name": "Dense", "config": {"name": "dense_221", "trainable": true, "dtype": "float64", "units": 10, "activation": "tanh", "use_bias": true, "kernel_initializer": {"class_name": "GlorotUniform", "config": {"seed": null}}, "bias_initializer": {"class_name": "Zeros", "config": {}}, "kernel_regularizer": null, "bias_regularizer": null, "activity_regularizer": null, "kernel_constraint": null, "bias_constraint": null}, "name": "dense_221", "inbound_nodes": [[["dense_220", 0, 0, {}]]]}, {"class_name": "Dense", "config": {"name": "dense_222", "trainable": true, "dtype": "float64", "units": 10, "activation": "tanh", "use_bias": true, "kernel_initializer": {"class_name": "GlorotUniform", "config": {"seed": null}}, "bias_initializer": {"class_name": "Zeros", "config": {}}, "kernel_regularizer": null, "bias_regularizer": null, "activity_regularizer": null, "kernel_constraint": null, "bias_constraint": null}, "name": "dense_222", "inbound_nodes": [[["dense_221", 0, 0, {}]]]}, {"class_name": "Dense", "config": {"name": "dense_223", "trainable": true, "dtype": "float64", "units": 3, "activation": "linear", "use_bias": true, "kernel_initializer": {"class_name": "GlorotUniform", "config": {"seed": null}}, "bias_initializer": {"class_name": "Zeros", "config": {}}, "kernel_regularizer": null, "bias_regularizer": null, "activity_regularizer": null, "kernel_constraint": null, "bias_constraint": null}, "name": "dense_223", "inbound_nodes": [[["dense_222", 0, 0, {}]]]}], "input_layers": [["input_28", 0, 0]], "output_layers": [["dense_223", 0, 0]]}, "summary": ["Model: \"model_27\"", "_________________________________________________________________", "Layer (type)                 Output Shape              Param #   ", "=================================================================", "input_28 (InputLayer)        [(None, 1)]               0         ", "_________________________________________________________________", "lambda_6 (Lambda)            (None, 1)                 0         ", "_________________________________________________________________", "dense_216 (Dense)            (None, 10)                20        ", "_________________________________________________________________", "dense_217 (Dense)            (None, 10)                110       ", "_________________________________________________________________", "dense_218 (Dense)            (None, 10)                110       ", "_________________________________________________________________", "dense_219 (Dense)            (None, 10)                110       ", "_________________________________________________________________", "dense_220 (Dense)            (None, 10)                110       ", "_________________________________________________________________", "dense_221 (Dense)            (None, 10)                110       ", "_________________________________________________________________", "dense_222 (Dense)            (None, 10)                110       ", "_________________________________________________________________", "dense_223 (Dense)            (None, 3)                 33        ", "=================================================================", "Total params: 713", "Trainable params: 713", "Non-trainable params: 0", "_________________________________________________________________"]}, "kwargs": {"border_xs": [[0]], "border_ys": [[0, 1, 1]], "inside_xs_builder": "<function linspace_inside_xs_builder_builder.<locals>._inside_xs_builder at 0x7f1150f339e0>", "border_builder": "<function border_with_function_values_builder at 0x7f114fbb6b90>", "equation_builder": "<function first_order_equation_builder_builder.<locals>.equation_builder at 0x7f1150f33200>", "input_dim": 1, "output_dim": 3, "sol": "<function <lambda> at 0x7f1150f33440>", "x_max": 3.141592653589793, "random_seed": 1, "N_f": 1000, "epochs": 2000, "clip_grad": 1, "learning_rate": 0.01, "model_builder": "NN[[10, 10, 10, 10, 10, 10, 10]]", "optimizers": [1, 1], "border_loss_multiplier": 1, "ode": "SODE2"}, "losses": [… "errors": [2.5700474193095432e-06]}, "date": "11:04:34 09 May 2021"}
{"payload": {"model": {"config": {"name": "model_28", "layers": [{"class_name": "InputLayer", "config": {"batch_input_shape": [null, 1], "dtype": "float64", "sparse": false, "ragged": false, "name": "input_29"}, "name": "input_29", "inbound_nodes": []}, {"class_name": "Lambda", "config": {"name": "lambda_7", "trainable": true, "dtype": "float64", "function": ["4wEAAAAAAAAAAQAAAAMAAAATAAAAcxAAAAB8AIgBGACIAIgBGAAbAFMAKQFOqQApAdoBeCkC2gV4\nX21heNoFeF9taW5yAQAAAHofPGlweXRob24taW5wdXQtNDUtMDc5OTJiNjIyODkyPtoIPGxhbWJk\nYT4JAQAA8wAAAAA=\n", null, [40, 0]], "function_type": "lambda", "module": "__main__", "output_shape": null, "output_shape_type": "raw", "output_shape_module": null, "arguments": {}}, "name": "lambda_7", "inbound_nodes": [[["input_29", 0, 0, {}]]]}, {"class_name": "Dense", "config": {"name": "dense_224", "trainable": true, "dtype": "float64", "units": 10, "activation": "tanh", "use_bias": true, "kernel_initializer": {"class_name": "GlorotUniform", "config": {"seed": null}}, "bias_initializer": {"class_name": "Zeros", "config": {}}, "kernel_regularizer": null, "bias_regularizer": null, "activity_regularizer": null, "kernel_constraint": null, "bias_constraint": null}, "name": "dense_224", "inbound_nodes": [[["lambda_7", 0, 0, {}]]]}, {"class_name": "Dense", "config": {"name": "dense_225", "trainable": true, "dtype": "float64", "units": 10, "activation": "tanh", "use_bias": true, "kernel_initializer": {"class_name": "GlorotUniform", "config": {"seed": null}}, "bias_initializer": {"class_name": "Zeros", "config": {}}, "kernel_regularizer": null, "bias_regularizer": null, "activity_regularizer": null, "kernel_constraint": null, "bias_constraint": null}, "name": "dense_225", "inbound_nodes": [[["dense_224", 0, 0, {}]]]}, {"class_name": "Dense", "config": {"name": "dense_226", "trainable": true, "dtype": "float64", "units": 10, "activation": "tanh", "use_bias": true, "kernel_initializer": {"class_name": "GlorotUniform", "config": {"seed": null}}, "bias_initializer": {"class_name": "Zeros", "config": {}}, "kernel_regularizer": null, "bias_regularizer": null, "activity_regularizer": null, "kernel_constraint": null, "bias_constraint": null}, "name": "dense_226", "inbound_nodes": [[["dense_225", 0, 0, {}]]]}, {"class_name": "Dense", "config": {"name": "dense_227", "trainable": true, "dtype": "float64", "units": 10, "activation": "tanh", "use_bias": true, "kernel_initializer": {"class_name": "GlorotUniform", "config": {"seed": null}}, "bias_initializer": {"class_name": "Zeros", "config": {}}, "kernel_regularizer": null, "bias_regularizer": null, "activity_regularizer": null, "kernel_constraint": null, "bias_constraint": null}, "name": "dense_227", "inbound_nodes": [[["dense_226", 0, 0, {}]]]}, {"class_name": "Dense", "config": {"name": "dense_228", "trainable": true, "dtype": "float64", "units": 10, "activation": "tanh", "use_bias": true, "kernel_initializer": {"class_name": "GlorotUniform", "config": {"seed": null}}, "bias_initializer": {"class_name": "Zeros", "config": {}}, "kernel_regularizer": null, "bias_regularizer": null, "activity_regularizer": null, "kernel_constraint": null, "bias_constraint": null}, "name": "dense_228", "inbound_nodes": [[["dense_227", 0, 0, {}]]]}, {"class_name": "Dense", "config": {"name": "dense_229", "trainable": true, "dtype": "float64", "units": 10, "activation": "tanh", "use_bias": true, "kernel_initializer": {"class_name": "GlorotUniform", "config": {"seed": null}}, "bias_initializer": {"class_name": "Zeros", "config": {}}, "kernel_regularizer": null, "bias_regularizer": null, "activity_regularizer": null, "kernel_constraint": null, "bias_constraint": null}, "name": "dense_229", "inbound_nodes": [[["dense_228", 0, 0, {}]]]}, {"class_name": "Dense", "config": {"name": "dense_230", "trainable": true, "dtype": "float64", "units": 10, "activation": "tanh", "use_bias": true, "kernel_initializer": {"class_name": "GlorotUniform", "config": {"seed": null}}, "bias_initializer": {"class_name": "Zeros", "config": {}}, "kernel_regularizer": null, "bias_regularizer": null, "activity_regularizer": null, "kernel_constraint": null, "bias_constraint": null}, "name": "dense_230", "inbound_nodes": [[["dense_229", 0, 0, {}]]]}, {"class_name": "Dense", "config": {"name": "dense_231", "trainable": true, "dtype": "float64", "units": 3, "activation": "linear", "use_bias": true, "kernel_initializer": {"class_name": "GlorotUniform", "config": {"seed": null}}, "bias_initializer": {"class_name": "Zeros", "config": {}}, "kernel_regularizer": null, "bias_regularizer": null, "activity_regularizer": null, "kernel_constraint": null, "bias_constraint": null}, "name": "dense_231", "inbound_nodes": [[["dense_230", 0, 0, {}]]]}], "input_layers": [["input_29", 0, 0]], "output_layers": [["dense_231", 0, 0]]}, "summary": ["Model: \"model_28\"", "_________________________________________________________________", "Layer (type)                 Output Shape              Param #   ", "=================================================================", "input_29 (InputLayer)        [(None, 1)]               0         ", "_________________________________________________________________", "lambda_7 (Lambda)            (None, 1)                 0         ", "_________________________________________________________________", "dense_224 (Dense)            (None, 10)                20        ", "_________________________________________________________________", "dense_225 (Dense)            (None, 10)                110       ", "_________________________________________________________________", "dense_226 (Dense)            (None, 10)                110       ", "_________________________________________________________________", "dense_227 (Dense)            (None, 10)                110       ", "_________________________________________________________________", "dense_228 (Dense)            (None, 10)                110       ", "_________________________________________________________________", "dense_229 (Dense)            (None, 10)                110       ", "_________________________________________________________________", "dense_230 (Dense)            (None, 10)                110       ", "_________________________________________________________________", "dense_231 (Dense)            (None, 3)                 33        ", "=================================================================", "Total params: 713", "Trainable params: 713", "Non-trainable params: 0", "_________________________________________________________________"]}, "kwargs": {"border_xs": [[0]], "border_ys": [[1, 0, 0]], "inside_xs_builder": "<function linspace_inside_xs_builder_builder.<locals>._inside_xs_builder at 0x7f1150f33c20>", "border_builder": "<function border_with_function_values_builder at 0x7f114fbb6b90>", "equation_builder": "<function first_order_equation_builder_builder.<locals>.equation_builder at 0x7f1150f33e60>", "input_dim": 1, "output_dim": 3, "error_f": "<function <lambda> at 0x7f11506c04d0>", "x_max": 40, "random_seed": 1, "N_f": 1000, "epochs": 2000, "clip_grad": 1, "learning_rate": 0.01, "model_builder": "NN[[10, 10, 10, 10, 10, 10, 10]]", "optimizers": [1, 1], "border_loss_multiplier": 1, "ode": "SODE3"}, "losses": [… "errors": [-1.0]}, "date": "11:05:28 09 May 2021"}
{"payload": {"model": {"config": {"name": "model_29", "layers": [{"class_name": "InputLayer", "config": {"batch_input_shape": [null, 2], "dtype": "float64", "sparse": false, "ragged": false, "name": "input_30"}, "name": "input_30", "inbound_nodes": []}, {"class_name": "Lambda", "config": {"name": "lambda_8", "trainable": true, "dtype": "float64", "function": ["4wEAAAAAAAAAAQAAAAMAAAATAAAAcxAAAAB8AIgBGACIAIgBGAAbAFMAKQFOqQApAdoBeCkC2gV4\nX21heNoFeF9taW5yAQAAAHofPGlweXRob24taW5wdXQtNDUtMDc5OTJiNjIyODkyPtoIPGxhbWJk\nYT4JAQAA8wAAAAA=\n", null, [1, -1]], "function_type": "lambda", "module": "__main__", "output_shape": null, "output_shape_type": "raw", "output_shape_module": null, "arguments": {}}, "name": "lambda_8", "inbound_nodes": [[["input_30", 0, 0, {}]]]}, {"class_name": "Dense", "config": {"name": "dense_232", "trainable": true, "dtype": "float64", "units": 10, "activation": "tanh", "use_bias": true, "kernel_initializer": {"class_name": "GlorotUniform", "config": {"seed": null}}, "bias_initializer": {"class_name": "Zeros", "config": {}}, "kernel_regularizer": null, "bias_regularizer": null, "activity_regularizer": null, "kernel_constraint": null, "bias_constraint": null}, "name": "dense_232", "inbound_nodes": [[["lambda_8", 0, 0, {}]]]}, {"class_name": "Dense", "config": {"name": "dense_233", "trainable": true, "dtype": "float64", "units": 10, "activation": "tanh", "use_bias": true, "kernel_initializer": {"class_name": "GlorotUniform", "config": {"seed": null}}, "bias_initializer": {"class_name": "Zeros", "config": {}}, "kernel_regularizer": null, "bias_regularizer": null, "activity_regularizer": null, "kernel_constraint": null, "bias_constraint": null}, "name": "dense_233", "inbound_nodes": [[["dense_232", 0, 0, {}]]]}, {"class_name": "Dense", "config": {"name": "dense_234", "trainable": true, "dtype": "float64", "units": 10, "activation": "tanh", "use_bias": true, "kernel_initializer": {"class_name": "GlorotUniform", "config": {"seed": null}}, "bias_initializer": {"class_name": "Zeros", "config": {}}, "kernel_regularizer": null, "bias_regularizer": null, "activity_regularizer": null, "kernel_constraint": null, "bias_constraint": null}, "name": "dense_234", "inbound_nodes": [[["dense_233", 0, 0, {}]]]}, {"class_name": "Dense", "config": {"name": "dense_235", "trainable": true, "dtype": "float64", "units": 10, "activation": "tanh", "use_bias": true, "kernel_initializer": {"class_name": "GlorotUniform", "config": {"seed": null}}, "bias_initializer": {"class_name": "Zeros", "config": {}}, "kernel_regularizer": null, "bias_regularizer": null, "activity_regularizer": null, "kernel_constraint": null, "bias_constraint": null}, "name": "dense_235", "inbound_nodes": [[["dense_234", 0, 0, {}]]]}, {"class_name": "Dense", "config": {"name": "dense_236", "trainable": true, "dtype": "float64", "units": 10, "activation": "tanh", "use_bias": true, "kernel_initializer": {"class_name": "GlorotUniform", "config": {"seed": null}}, "bias_initializer": {"class_name": "Zeros", "config": {}}, "kernel_regularizer": null, "bias_regularizer": null, "activity_regularizer": null, "kernel_constraint": null, "bias_constraint": null}, "name": "dense_236", "inbound_nodes": [[["dense_235", 0, 0, {}]]]}, {"class_name": "Dense", "config": {"name": "dense_237", "trainable": true, "dtype": "float64", "units": 10, "activation": "tanh", "use_bias": true, "kernel_initializer": {"class_name": "GlorotUniform", "config": {"seed": null}}, "bias_initializer": {"class_name": "Zeros", "config": {}}, "kernel_regularizer": null, "bias_regularizer": null, "activity_regularizer": null, "kernel_constraint": null, "bias_constraint": null}, "name": "dense_237", "inbound_nodes": [[["dense_236", 0, 0, {}]]]}, {"class_name": "Dense", "config": {"name": "dense_238", "trainable": true, "dtype": "float64", "units": 10, "activation": "tanh", "use_bias": true, "kernel_initializer": {"class_name": "GlorotUniform", "config": {"seed": null}}, "bias_initializer": {"class_name": "Zeros", "config": {}}, "kernel_regularizer": null, "bias_regularizer": null, "activity_regularizer": null, "kernel_constraint": null, "bias_constraint": null}, "name": "dense_238", "inbound_nodes": [[["dense_237", 0, 0, {}]]]}, {"class_name": "Dense", "config": {"name": "dense_239", "trainable": true, "dtype": "float64", "units": 1, "activation": "linear", "use_bias": true, "kernel_initializer": {"class_name": "GlorotUniform", "config": {"seed": null}}, "bias_initializer": {"class_name": "Zeros", "config": {}}, "kernel_regularizer": null, "bias_regularizer": null, "activity_regularizer": null, "kernel_constraint": null, "bias_constraint": null}, "name": "dense_239", "inbound_nodes": [[["dense_238", 0, 0, {}]]]}], "input_layers": [["input_30", 0, 0]], "output_layers": [["dense_239", 0, 0]]}, "summary": ["Model: \"model_29\"", "_________________________________________________________________", "Layer (type)                 Output Shape              Param #   ", "=================================================================", "input_30 (InputLayer)        [(None, 2)]               0         ", "_________________________________________________________________", "lambda_8 (Lambda)            (None, 2)                 0         ", "_________________________________________________________________", "dense_232 (Dense)            (None, 10)                30        ", "_________________________________________________________________", "dense_233 (Dense)            (None, 10)                110       ", "_________________________________________________________________", "dense_234 (Dense)            (None, 10)                110       ", "_________________________________________________________________", "dense_235 (Dense)            (None, 10)                110       ", "_________________________________________________________________", "dense_236 (Dense)            (None, 10)                110       ", "_________________________________________________________________", "dense_237 (Dense)            (None, 10)                110       ", "_________________________________________________________________", "dense_238 (Dense)            (None, 10)                110       ", "_________________________________________________________________", "dense_239 (Dense)            (None, 1)                 11        ", "=================================================================", "Total params: 701", "Trainable params: 701", "Non-trainable params: 0", "_________________________________________________________________"]}, "kwargs": {"border_xs": [[… "border_ys": [[… "inside_xs_builder": "<function linspace_inside_xs_builder_builder.<locals>._inside_xs_builder at 0x7f11506c0320>", "border_builder": "<function border_with_function_values_builder at 0x7f114fbb6b90>", "equation_builder": "<function second_order_equation_builder_builder.<locals>.equation_builder at 0x7f11506c0950>", "input_dim": 2, "output_dim": 1, "sol": "<function <lambda> at 0x7f11506c0b90>", "x_min": -1, "random_seed": 1, "N_f": 1000, "epochs": 2000, "clip_grad": 1, "learning_rate": 0.01, "model_builder": "NN[[10, 10, 10, 10, 10, 10, 10]]", "optimizers": [1, 1], "border_loss_multiplier": 1, "ode": "PDE5"}, "losses": [… "errors": [1.897602449541748e-05]}, "date": "11:07:17 09 May 2021"}
{"payload": {"kwargs": {"border_xs": [[… "border_ys": [[… "inside_xs_builder": "<function linspace_inside_xs_builder_builder.<locals>._inside_xs_builder at 0x7f115186a9e0>", "border_builder": "<function border_with_function_values_builder at 0x7f114fbb6b90>", "equation_builder": "<function second_order_equation_builder_builder.<locals>.equation_builder at 0x7f115186a7a0>", "input_dim": 2, "output_dim": 1, "error_f": "<function error_stored.<locals>.error_f at 0x7f115186a950>", "x_min": [0, -1], "random_seed": 1, "N_f": 1000, "epochs": 2000, "clip_grad": 1, "learning_rate": 0.01, "model_builder": "NN[[10, 10, 10, 10, 10, 10, 10]]", "optimizers": [1, 1], "border_loss_multiplier": 1, "ode": "PDE6"}, "losses": [… "errors": [0.6794695323752351]}, "date": "11:37:06 09 May 2021"}
{"payload": {"kwargs": {"border_xs": [[… "border_ys": [[… "inside_xs_builder": "<function linspace_inside_xs_builder_builder.<locals>._inside_xs_builder at 0x7f115186a8c0>", "border_builder": "<function allencahn_border_builder at 0x7f1151708170>", "equation_builder": "<function second_order_equation_builder_builder.<locals>.equation_builder at 0x7f115186a0e0>", "input_dim": 2, "output_dim": 1, "error_f": "<function error_stored.<locals>.error_f at 0x7f115186af80>", "x_min": [0, 1], "x_max": [-1, 1], "random_seed": 1, "N_f": 1000, "epochs": 2000, "clip_grad": 1, "learning_rate": 0.01, "model_builder": "NN[[10, 10, 10, 10, 10, 10, 10]]", "optimizers": [1, 1], "border_loss_multiplier": 1, "ode": "PDE7"}, "losses": [NaN, NaN, NaN, NaN, NaN, NaN, NaN, NaN, NaN, NaN, NaN, NaN, NaN, NaN, NaN, NaN, NaN, NaN, NaN, NaN, NaN, NaN, NaN, NaN, NaN, NaN, NaN, NaN, NaN, NaN, NaN, NaN, NaN, NaN, NaN, NaN, NaN, NaN, NaN, NaN, NaN, NaN, NaN, NaN, NaN, NaN, NaN, NaN, NaN, NaN, NaN, NaN, NaN, NaN, NaN, NaN, NaN, NaN, NaN, NaN, NaN, NaN, NaN, NaN, NaN, NaN, NaN, NaN, NaN, NaN, NaN, NaN, NaN, NaN, NaN, NaN, NaN, NaN, NaN, NaN, NaN, NaN, NaN, NaN, NaN, NaN, NaN, NaN, NaN, NaN, NaN, NaN, NaN, NaN, NaN, NaN, NaN, NaN, NaN, NaN, NaN, NaN, NaN, NaN, NaN, NaN, NaN, NaN, NaN, NaN, NaN, NaN, NaN, NaN, NaN, NaN, NaN, NaN, NaN, NaN, NaN, NaN, NaN, NaN, NaN, NaN, NaN, NaN, NaN, NaN, NaN, NaN, NaN, NaN, NaN, NaN, NaN, NaN, NaN, NaN, NaN, NaN, NaN, NaN, NaN, NaN, NaN, NaN, NaN, NaN, NaN, NaN, NaN, NaN, NaN, NaN, NaN, NaN, NaN, NaN, NaN, NaN, NaN, NaN, NaN, NaN, NaN, NaN, NaN, NaN, NaN, NaN, NaN, NaN, NaN, NaN, NaN, NaN, NaN, NaN, NaN, NaN, NaN, NaN, NaN, NaN, NaN, NaN, NaN, NaN, NaN, NaN, NaN, NaN, NaN, NaN, NaN, NaN, NaN, NaN, NaN, NaN, NaN, NaN, NaN, NaN, NaN, NaN, NaN, NaN, NaN, NaN, NaN, NaN, NaN, NaN, NaN, NaN, NaN, NaN, NaN, NaN, NaN, NaN, NaN, NaN, NaN, NaN, NaN, NaN, NaN, NaN, NaN, NaN, NaN, NaN, NaN, NaN, NaN, NaN, NaN, NaN, NaN, NaN, NaN, NaN, NaN, NaN, NaN, NaN, NaN, NaN, NaN, NaN, NaN, NaN, NaN, NaN, NaN, NaN, NaN, NaN, NaN, NaN, NaN, NaN, NaN, NaN, NaN, NaN, NaN, NaN, NaN, NaN, NaN, NaN, NaN, NaN, NaN, NaN, NaN, NaN, NaN, NaN, NaN, NaN, NaN, NaN, NaN, NaN, NaN, NaN, NaN, NaN, NaN, NaN, NaN, NaN, NaN, NaN, NaN, NaN, NaN, NaN, NaN, NaN, NaN, NaN, NaN, NaN, NaN, NaN, NaN, NaN, NaN, NaN, NaN, NaN, NaN, NaN, NaN, NaN, NaN, NaN, NaN, NaN, NaN, NaN, NaN, NaN, NaN, NaN, NaN, NaN, NaN, NaN, NaN, NaN, NaN, NaN, NaN, NaN, NaN, NaN, NaN, NaN, NaN, NaN, NaN, NaN, NaN, NaN, NaN, NaN, NaN, NaN, NaN, NaN, NaN, NaN, NaN, NaN, NaN, NaN, NaN, NaN, NaN, NaN, NaN, NaN, NaN, NaN, NaN, NaN, NaN, NaN, NaN, NaN, NaN, NaN, NaN, NaN, NaN, NaN, NaN, NaN, NaN, NaN, NaN, NaN, NaN, NaN, NaN, NaN, NaN, NaN, NaN, NaN, NaN, NaN, NaN, NaN, NaN, NaN, NaN, NaN, NaN, NaN, NaN, NaN, NaN, NaN, NaN, NaN, NaN, NaN, NaN, NaN, NaN, NaN, NaN, NaN, NaN, NaN, NaN, NaN, NaN, NaN, NaN, NaN, NaN, NaN, NaN, NaN, NaN, NaN, NaN, NaN, NaN, NaN, NaN, NaN, NaN, NaN, NaN, NaN, NaN, NaN, NaN, NaN, NaN, NaN, NaN, NaN, NaN, NaN, NaN, NaN, NaN, NaN, NaN, NaN, NaN, NaN, NaN, NaN, NaN, NaN, NaN, NaN, NaN, NaN, NaN, NaN, NaN, NaN, NaN, NaN, NaN, NaN, NaN, NaN, NaN, NaN, NaN, NaN, NaN, NaN, NaN, NaN, NaN, NaN, NaN, NaN, NaN, NaN, NaN, NaN, NaN, NaN, NaN, NaN, NaN, NaN, NaN, NaN, NaN, NaN, NaN, NaN, NaN, NaN, NaN, NaN, NaN, NaN, NaN, NaN, NaN, NaN, NaN, NaN, NaN, NaN, NaN, NaN, NaN, NaN, NaN, NaN, NaN, NaN, NaN, NaN, NaN, NaN, NaN, NaN, NaN, NaN, NaN, NaN, NaN, NaN, NaN, NaN, NaN, NaN, NaN, NaN, NaN, NaN, NaN, NaN, NaN, NaN, NaN, NaN, NaN, NaN, NaN, NaN, NaN, NaN, NaN, NaN, NaN, NaN, NaN, NaN, NaN, NaN, NaN, NaN, NaN, NaN, NaN, NaN, NaN, NaN, NaN, NaN, NaN, NaN, NaN, NaN, NaN, NaN, NaN, NaN, NaN, NaN, NaN, NaN, NaN, NaN, NaN, NaN, NaN, NaN, NaN, NaN, NaN, NaN, NaN, NaN, NaN, NaN, NaN, NaN, NaN, NaN, NaN, NaN, NaN, NaN, NaN, NaN, NaN, NaN, NaN, NaN, NaN, NaN, NaN, NaN, NaN, NaN, NaN, NaN, NaN, NaN, NaN, NaN, NaN, NaN, NaN, NaN, NaN, NaN, NaN, NaN, NaN, NaN, NaN, NaN, NaN, NaN, NaN, NaN, NaN, NaN, NaN, NaN, NaN, NaN, NaN, NaN, NaN, NaN, NaN, NaN, NaN, NaN, NaN, NaN, NaN, NaN, NaN, NaN, NaN, NaN, NaN, NaN, NaN, NaN, NaN, NaN, NaN, NaN, NaN, NaN, NaN, NaN, NaN, NaN, NaN, NaN, NaN, NaN, NaN, NaN, NaN, NaN, NaN, NaN, NaN, NaN, NaN, NaN, NaN, NaN, NaN, NaN, NaN, NaN, NaN, NaN, NaN, NaN, NaN, NaN, NaN, NaN, NaN, NaN, NaN, NaN, NaN, NaN, NaN, NaN, NaN, NaN, NaN, NaN, NaN, NaN, NaN, NaN, NaN, NaN, NaN, NaN, NaN, NaN, NaN, NaN, NaN, NaN, NaN, NaN, NaN, NaN, NaN, NaN, NaN, NaN, NaN, NaN, NaN, NaN, NaN, NaN, NaN, NaN, NaN, NaN, NaN, NaN, NaN, NaN, NaN, NaN, NaN, NaN, NaN, NaN, NaN, NaN, NaN, NaN, NaN, NaN, NaN, NaN, NaN, NaN, NaN, NaN, NaN, NaN, NaN, NaN, NaN, NaN, NaN, NaN, NaN, NaN, NaN, NaN, NaN, NaN, NaN, NaN, NaN, NaN, NaN, NaN, NaN, NaN, NaN, NaN, NaN, NaN, NaN, NaN, NaN, NaN, NaN, NaN, NaN, NaN, NaN, NaN, NaN, NaN, NaN, NaN, NaN, NaN, NaN, NaN, NaN, NaN, NaN, NaN, NaN, NaN, NaN, NaN, NaN, NaN, NaN, NaN, NaN, NaN, NaN, NaN, NaN, NaN, NaN, NaN, NaN, NaN, NaN, NaN, NaN, NaN, NaN, NaN, NaN, NaN, NaN, NaN, NaN, NaN, NaN, NaN, NaN, NaN, NaN, NaN, NaN, NaN, NaN, NaN, NaN, NaN, NaN, NaN, NaN, NaN, NaN, NaN, NaN, NaN, NaN, NaN, NaN, NaN, NaN, NaN, NaN, NaN, NaN, NaN, NaN, NaN, NaN, NaN, NaN, NaN, NaN, NaN, NaN, NaN, NaN, NaN, NaN, NaN, NaN, NaN, NaN, NaN, NaN, NaN, NaN, NaN, NaN, NaN, NaN, NaN, NaN, NaN, NaN, NaN, NaN, NaN, NaN, NaN, NaN, NaN, NaN, NaN, NaN, NaN, NaN, NaN, NaN, NaN, NaN, NaN, NaN, NaN, NaN, NaN, NaN, NaN, NaN, NaN, NaN, NaN, NaN, NaN, NaN, NaN, NaN, NaN, NaN, NaN, NaN, NaN, NaN, NaN, NaN, NaN, NaN, NaN, NaN, NaN, NaN, NaN, NaN, NaN, NaN, NaN, NaN, NaN, NaN, NaN, NaN, NaN, NaN, NaN, NaN, NaN, NaN, NaN, NaN, NaN, NaN, NaN, NaN, NaN, NaN, NaN, NaN, NaN, NaN, NaN, NaN, NaN, NaN, NaN, NaN, NaN, NaN, NaN, NaN, NaN, NaN, NaN, NaN, NaN, NaN, NaN, NaN, NaN, NaN, NaN, NaN, NaN, NaN, NaN, NaN, NaN, NaN, NaN, NaN, NaN, NaN, NaN, NaN, NaN, NaN, NaN, NaN, NaN, NaN, NaN, NaN, NaN, NaN, NaN, NaN, NaN, NaN, NaN, NaN, NaN, NaN, NaN, NaN, NaN, NaN, NaN, NaN, NaN, NaN, NaN, NaN, NaN, NaN, NaN, NaN, NaN, NaN, NaN, NaN, NaN, NaN, NaN, NaN, NaN, NaN, NaN, NaN, NaN, NaN, NaN, NaN, NaN, NaN, NaN, NaN, NaN, NaN, NaN, NaN, NaN, NaN, NaN, NaN, NaN, NaN, NaN, NaN, NaN, NaN, NaN, NaN, NaN, NaN, NaN, NaN, NaN, NaN, NaN, NaN, NaN, NaN, NaN, NaN, NaN, NaN, NaN, NaN, NaN, NaN, NaN, NaN, NaN, NaN, NaN, NaN, NaN, NaN, NaN, NaN, NaN, NaN, NaN, NaN, NaN, NaN, NaN, NaN, NaN, NaN, NaN, NaN, NaN, NaN, NaN, NaN, NaN, NaN, NaN, NaN, NaN, NaN, NaN, NaN, NaN, NaN, NaN, NaN, NaN, NaN, NaN, NaN, NaN, NaN, NaN, NaN, NaN, NaN, NaN, NaN, NaN, NaN, NaN, NaN, NaN, NaN, NaN, NaN, NaN, NaN, NaN, NaN, NaN, NaN, NaN, NaN, NaN, NaN, NaN, NaN, NaN, NaN, NaN, NaN, NaN, NaN, NaN, NaN, NaN, NaN, NaN, NaN, NaN, NaN, NaN, NaN, NaN, NaN, NaN, NaN, NaN, NaN, NaN, NaN, NaN, NaN, NaN, NaN, NaN, NaN, NaN, NaN, NaN, NaN, NaN, NaN, NaN, NaN, NaN, NaN, NaN, NaN, NaN, NaN, NaN, NaN, NaN, NaN, NaN, NaN, NaN, NaN, NaN, NaN, NaN, NaN, NaN, NaN, NaN, NaN, NaN, NaN, NaN, NaN, NaN, NaN, NaN, NaN, NaN, NaN, NaN, NaN, NaN, NaN, NaN, NaN, NaN, NaN, NaN, NaN, NaN, NaN, NaN, NaN, NaN, NaN, NaN, NaN, NaN, NaN, NaN, NaN, NaN, NaN, NaN, NaN, NaN, NaN, NaN, NaN, NaN, NaN, NaN, NaN, NaN, NaN, NaN, NaN, NaN, NaN, NaN, NaN, NaN, NaN, NaN, NaN, NaN, NaN, NaN, NaN, NaN, NaN, NaN, NaN, NaN, NaN, NaN, NaN, NaN, NaN, NaN, NaN, NaN, NaN, NaN, NaN, NaN, NaN, NaN, NaN, NaN, NaN, NaN, NaN, NaN, NaN, NaN, NaN, NaN, NaN, NaN, NaN, NaN, NaN, NaN, NaN, NaN, NaN, NaN, NaN, NaN, NaN, NaN, NaN, NaN, NaN, NaN, NaN, NaN, NaN, NaN, NaN, NaN, NaN, NaN, NaN, NaN, NaN, NaN, NaN, NaN, NaN, NaN, NaN, NaN, NaN, NaN, NaN, NaN, NaN, NaN, NaN, NaN, NaN, NaN, NaN, NaN, NaN, NaN, NaN, NaN, NaN, NaN, NaN, NaN, NaN, NaN, NaN, NaN, NaN, NaN, NaN, NaN, NaN, NaN, NaN, NaN, NaN, NaN, NaN, NaN, NaN, NaN, NaN, NaN, NaN, NaN, NaN, NaN, NaN, NaN, NaN, NaN, NaN, NaN, NaN, NaN, NaN, NaN, NaN, NaN, NaN, NaN, NaN, NaN, NaN, NaN, NaN, NaN, NaN, NaN, NaN, NaN, NaN, NaN, NaN, NaN, NaN, NaN, NaN, NaN, NaN, NaN, NaN, NaN, NaN, NaN, NaN, NaN, NaN, NaN, NaN, NaN, NaN, NaN, NaN, NaN, NaN, NaN, NaN, NaN, NaN, NaN, NaN, NaN, NaN, NaN, NaN, NaN, NaN, NaN, NaN, NaN, NaN, NaN, NaN, NaN, NaN, NaN, NaN, NaN, NaN, NaN, NaN, NaN, NaN, NaN, NaN, NaN, NaN, NaN, NaN, NaN, NaN, NaN, NaN, NaN, NaN, NaN, NaN, NaN, NaN, NaN, NaN, NaN, NaN, NaN, NaN, NaN, NaN, NaN, NaN, NaN, NaN, NaN, NaN, NaN, NaN, NaN, NaN, NaN, NaN, NaN, NaN, NaN, NaN, NaN, NaN, NaN, NaN, NaN, NaN, NaN, NaN, NaN, NaN, NaN, NaN, NaN, NaN, NaN, NaN, NaN, NaN, NaN, NaN, NaN, NaN, NaN, NaN, NaN, NaN, NaN, NaN, NaN, NaN, NaN, NaN, NaN, NaN, NaN, NaN, NaN, NaN, NaN, NaN, NaN, NaN, NaN, NaN, NaN, NaN, NaN, NaN, NaN, NaN, NaN, NaN, NaN, NaN, NaN, NaN, NaN, NaN, NaN, NaN, NaN, NaN, NaN, NaN, NaN, NaN, NaN, NaN, NaN, NaN, NaN, NaN, NaN, NaN, NaN, NaN, NaN, NaN, NaN, NaN, NaN, NaN, NaN, NaN, NaN, NaN, NaN, NaN, NaN, NaN, NaN, NaN, NaN, NaN, NaN, NaN, NaN, NaN, NaN, NaN, NaN, NaN, NaN, NaN, NaN, NaN, NaN, NaN, NaN, NaN, NaN, NaN, NaN, NaN, NaN, NaN, NaN, NaN, NaN, NaN, NaN, NaN, NaN, NaN, NaN, NaN, NaN, NaN, NaN, NaN, NaN, NaN, NaN, NaN, NaN, NaN, NaN, NaN, NaN, NaN, NaN, NaN, NaN, NaN, NaN, NaN, NaN, NaN, NaN, NaN, NaN, NaN, NaN, NaN, NaN, NaN, NaN, NaN, NaN, NaN, NaN, NaN, NaN, NaN, NaN, NaN, NaN, NaN, NaN, NaN, NaN, NaN, NaN, NaN, NaN, NaN, NaN, NaN, NaN, NaN, NaN, NaN, NaN, NaN, NaN, NaN, NaN, NaN, NaN, NaN, NaN, NaN, NaN, NaN, NaN, NaN, NaN, NaN, NaN, NaN, NaN, NaN, NaN, NaN, NaN, NaN, NaN, NaN, NaN, NaN, NaN, NaN, NaN, NaN, NaN, NaN, NaN, NaN, NaN, NaN, NaN, NaN, NaN, NaN, NaN, NaN, NaN, NaN, NaN, NaN, NaN, NaN, NaN, NaN, NaN, NaN, NaN, NaN, NaN, NaN, NaN, NaN, NaN, NaN, NaN, NaN, NaN, NaN, NaN, NaN, NaN, NaN, NaN, NaN, NaN, NaN, NaN, NaN, NaN, NaN, NaN, NaN, NaN, NaN, NaN, NaN, NaN, NaN, NaN, NaN, NaN, NaN, NaN, NaN, NaN, NaN, NaN, NaN, NaN, NaN, NaN, NaN, NaN, NaN, NaN, NaN, NaN, NaN, NaN, NaN, NaN, NaN, NaN, NaN, NaN, NaN, NaN, NaN, NaN, NaN, NaN, NaN, NaN, NaN, NaN, NaN, NaN, NaN, NaN, NaN, NaN, NaN, NaN, NaN, NaN, NaN, NaN, NaN, NaN, NaN, NaN, NaN, NaN, NaN, NaN, NaN, NaN, NaN, NaN, NaN, NaN, NaN, NaN, NaN, NaN, NaN, NaN, NaN, NaN, NaN, NaN, NaN, NaN, NaN, NaN, NaN, NaN, NaN, NaN, NaN, NaN, NaN, NaN, NaN, NaN, NaN, NaN, NaN, NaN, NaN, NaN, NaN, NaN, NaN, NaN, NaN, NaN, NaN, NaN, NaN, NaN, NaN, NaN, NaN, NaN, NaN, NaN, NaN, NaN, NaN, NaN, NaN, NaN, NaN, NaN, NaN, NaN, NaN, NaN, NaN, NaN, NaN, NaN, NaN, NaN, NaN, NaN, NaN, NaN, NaN, NaN, NaN, NaN, NaN, NaN, NaN, NaN, NaN, NaN, NaN, NaN, NaN, NaN, NaN, NaN, NaN, NaN, NaN, NaN, NaN, NaN, NaN, NaN, NaN, NaN, NaN, NaN, NaN, NaN, NaN, NaN, NaN, NaN, NaN, NaN, NaN, NaN, NaN, NaN, NaN, NaN, NaN, NaN, NaN, NaN, NaN, NaN, NaN, NaN, NaN, NaN, NaN, NaN, NaN, NaN, NaN, NaN, NaN, NaN, NaN, NaN, NaN, NaN, NaN, NaN, NaN, NaN, NaN, NaN, NaN, NaN, NaN, NaN, NaN], "errors": [NaN]}, "date": "11:38:23 09 May 2021"}
{"payload": {"kwargs": {"border_xs": [[… "border_ys": [[… "inside_xs_builder": "<function linspace_inside_xs_builder_builder.<locals>._inside_xs_builder at 0x7f115186a290>", "border_builder": "<function schrodinger_border_builder at 0x7f1151708dd0>", "equation_builder": "<function second_order_equation_builder_builder.<locals>.equation_builder at 0x7f11559c2680>", "input_dim": 2, "output_dim": 2, "error_f": "<function error_schrodinger_stored.<locals>.error_f at 0x7f11559c2170>", "x_min": [0, -5], "x_max": [1.5707963267948966, 5.0], "random_seed": 1, "N_f": 1000, "epochs": 2000, "clip_grad": 1, "learning_rate": 0.01, "model_builder": "NN[[10, 10, 10, 10, 10, 10, 10]]", "optimizers": [1, 1], "border_loss_multiplier": 1, "ode": "PDE9"}, "losses": [… "errors": [0.7174974253999024]}, "date": "11:40:34 09 May 2021"}
{"payload": {"kwargs": {"border_xs": [[… "border_ys": [[… "inside_xs_builder": "<function linspace_inside_xs_builder_builder.<locals>._inside_xs_builder at 0x7f11559c2440>", "border_builder": "<function border_with_function_values_builder at 0x7f114fbb6b90>", "equation_builder": "<function second_order_equation_builder_builder.<locals>.equation_builder at 0x7f11559c2560>", "input_dim": 2, "output_dim": 3, "sol": "<function <lambda> at 0x7f1151708b00>", "x_min": [-0.5, -0.5], "x_max": [1.0, 1.5], "random_seed": 1, "N_f": 1000, "epochs": 2000, "clip_grad": 1, "learning_rate": 0.01, "model_builder": "NN[[10, 10, 10, 10, 10, 10, 10]]", "optimizers": [1, 1], "border_loss_multiplier": 1, "ode": "PDE10"}, "losses": [… "errors": [0.003346529816840076]}, "date": "11:53:09 09 May 2021"}
